embeddings/e2vplus/b3ebe52732cc631a588f4b0be1fb4d6e87714c99.npy (npy, 4224 bytes, 1 tensors)

array f4 [1024]
00000000: 6c09 113c b9f9 76bc 263d 6cbc 3982 f73c
00000010: 0e41 ba3c d3c5 983c 9309 b93c 490a e13c
00000020: 4aef 46bc 7036 923c 4041 e33a 73a3 263c
00000030: 17ee f6bc 0fdd f5bb 7817 1ebc 5e9a fd3b
00000040: cc54 bfbb 6668 ed3c 7623 b93c b33f 02bc
00000050: 51de 59bd 2bd4 a33b 43ee d33b 9bce abbb
00000060: ad6d 953c 43fe c33c 4d30 063a b6f1 21bd
00000070: f249 183a ece8 24bd e3fe 70bc 9bd8 0c3d
00000080: 5abd 383d 2363 a43c 1cc6 9cbc 4c00 ec3b
00000090: 6c4b e13d 6b96 683c fd40 c1bb 7186 07bc
000000a0: f106 21bb 4ede 6a3b cbd7 3e3d 812c 9f3b
000000b0: 0ce5 023b e6aa 73bc 39ac 04bd f2fe 9d3c
000000c0: 02a9 263d 9454 2d3d 129c 38bd 40a2 a43b
000000d0: 8ff3 003d c261 a9bd 3126 2abd 2338 443c
000000e0: 6e5a adbc 5a95 303d 1470 273d 41f4 363c
000000f0: 5156 313d b71f 193c b0ca 21bc 893f 1fbd
00000100: ad56 f5bc 35dd d8bb 2205 313d 2a89 debc
00000110: ab4d 69ba 36f6 ddba ff11 03bd df8b 9c3a
00000120: d87a 303c 22a6 32bd 18a7 e6bc 56e8 e73c
00000130: dac7 bd3c d2df 2b3d 64f8 9a3c 194e fa3b
00000140: aa7a 1f3c f52a 603c fbc1 39bc c515 473d
00000150: 291e 353d 2115 79bc d3b2 033c 89c8 37bd
00000160: 1458 3abc 016e 6b3b 93b1 973c c87c 28bd
00000170: f97f 2c3c 45e2 763c 142c 05bd 73e2 6fbc
00000180: 3c02 a73b 73fb a8bc f8b8 2dba a785 8fbb
00000190: 7571 223d 65ce 51bc bc2d 1bbd 6801 91bc
000001a0: effc 253d 547c be3c c39b ddbb 04af 6f3c
000001b0: f4a1 b6bc 5687 573d ce57 ab3c fb88 443d
000001c0: 04e1 403b f3f8 2a3c d9bf 233b 6b82 bdbc
000001d0: d327 6f3c 77d8 f0bc 01e7 8b3c db19 973c
000001e0: 831d 0ebd de88 bd3b ee8a 063d 0f36 bb3c
000001f0: 8d3c 0f3b d905 453d 1876 a43c 9a4b ed3a
00000200: fc27 bbbc 8e6b b63b 9a19 ed3c af4b 9dbc
00000210: 170b 813c f767 f53a 9755 213c 9049 023d
00000220: aa15 1fbd e164 b8ba 359d eebc cd58 dcbc
00000230: f893 c8bc 21d5 9bbc 9f67 d1bc 9e02 823b
00000240: 09c0 b5bc 36ef 103c d424 a8bb 7acb 8e3d
00000250: 8a9e 02be 14b9 f0bc de51 453d 8e4b 97bc
00000260: d4f3 0fbd 6a8c 2f3b e93f 2abc 8c6e 313d
00000270: e85b cebc 6b48 a93d 6e6a c4bc 159d 203d
00000280: 1a90 f1bb d3dd 193d a916 3939 4ffe a2bb
00000290: fa26 1dbd 1559 6cbc 992f be3c 7094 6a3c
000002a0: dc5c cd3c 6b10 be3c 4e3e 333b 3da0 3d3c
000002b0: e282 633c ea8f 133c b3b7 103b 3e75 afbc
000002c0: 0f5f 443d 8d11 4d3c f735 5ebc 6552 cabc
000002d0: 874c eabb a630 3938 52b0 82bc 6439 223c
000002e0: a76c bcbc 4faa e9bc 8efa 4abd f1ba 51bd
000002f0: 60fe 303b 6d31 b63c 001a 623d 00c4 b2bb
00000300: 8b2b 1c3d e764 46bc 8abb 35bd 4a43 e03c
00000310: 33ed 1e3b fe3d 31bd f5d5 28bd 0a74 84bd
00000320: 87ee e1bc 0a8b 843c 3b06 313d a77f 693c
00000330: 9f8b 24bd 316a 043d 5142 523d f195 1c3d
00000340: 19e5 68bc 4e26 a5bc 8ba5 04bd 49e4 013b
00000350: 04ed a83b 169c ec3c 0371 dcbc 4345 8ebc
00000360: 9290 243d 32fa a83b 6f03 d3bc e43a cabc
00000370: f079 4fbd e426 93bc 93c0 debc 47a0 b53c
00000380: ecdd 17ba 299b 92bc ee53 543c 6460 24bd
00000390: 90cb 843c 6722 73bc 48fa 37bd e716 17ba
000003a0: 3bcf 55bd 4c3c 02bd 4072 013d d857 463d
000003b0: 0076 97b9 bbe4 83bc 7f5f 09bd 4f56 c4bc
000003c0: 7b7a 28bc a8c8 f8bb 7bd3 4c3d 3e6b 05bc
000003d0: ca19 18bd 6ba9 36bb d28e abbd fdc4 b8bc
000003e0: efc5 65bd 020e 5abd 1acf fb3c 96fd f1bc
000003f0: 55e1 bf3c 0034 253c 451e f3ba 5777 4cbb
0.008852344 -0.015074187 -0.014418876 0.030213462 0.022736099 0.018649017 0.022587573 0.027470725
-0.012142012 0.017848223 0.0017338172 0.010170805 -0.030142827 -0.007503159 -0.00964915 0.0077393493
-0.005838966 0.028980445 0.022599917 -0.007949757 -0.053190533 0.0049996576 0.006467612 -0.005243135
0.018240774 0.023924952 0.0005118892 -0.039537154 0.00058093586 -0.040261194 -0.014709207 0.03438626
0.045102455 0.020066803 -0.019137435 0.007202184 0.11000714 0.014196019 -0.00589764 -0.008271799
-0.0024570788 0.003583807 0.046592515 0.0048576 0.0019972948 -0.014872288 -0.032390807 0.019286606
0.040688522 0.042316988 -0.045070715 0.0050242245 0.031482276 -0.08270599 -0.04154033 0.011976275
-0.021161284 0.043111183 0.04087837 0.011166633 0.04329521 0.00934594 -0.009874985 -0.03887895
-0.029948557 -0.006618167 0.043217786 -0.027165014 -0.0008899818 -0.0016934338 -0.031999584 0.001194354
0.010771476 -0.043615468 -0.028155848 0.028309029 0.023166586 0.0419615 0.01891727 0.0076387045
0.009733835 0.013682117 -0.011337752 0.048604745 0.044218216 -0.015202791 0.0080382405 -0.04486898
-0.0113735385 0.0035923722 0.018517291 -0.041134626 0.010528558 0.015068595 -0.03251274 -0.014641392
0.005096702 -0.020627713 -0.0006626989 -0.0043799463 0.039658982 -0.012805556 -0.037885413 -0.017700866
0.04052442 0.023252644 -0.006762953 0.014629129 -0.022294022 0.0526193 0.020915892 0.047982197
0.0029430995 0.010435331 0.0024986176 -0.023133477 0.014596897 -0.029400093 0.017077925 0.018444946
-0.034696113 0.005784138 0.032847337 0.022852926 0.002185616 0.04810128 0.020075843 0.0018104196
-0.022846214 0.0055670207 0.028942872 -0.019201128 0.015752358 0.0018723 0.009847066 0.031808436
-0.03883902 -0.001406815 -0.029127697 -0.026897812 -0.02448462 -0.019022526 -0.025562106 0.003967597
-0.022186296 0.008846095 -0.0051313434 0.06972404 -0.1275579 -0.029385127 0.048173778 -0.018468644
-0.035144642 0.0026786574 -0.010391214 0.043318316 -0.025190309 0.08265766 -0.02397653 0.039212305
-0.0073719146 0.037565064 0.00017651416 -0.0049741636 -0.03836725 -0.014425536 0.023216056 0.014317617
0.025068693 0.023201188 0.002735037 0.011573848 0.013886185 0.00900648 0.002208215 -0.02141821
0.047942217 0.012516391 -0.013562671 -0.024697492 -0.007150236 4.4152745e-05 -0.015953217 0.009901378
-0.023001028 -0.028523592 -0.049555354 -0.05120367 0.0027007088 0.022240365 0.055200577 -0.005455494
0.038127463 -0.012109018 -0.044368304 0.027375836 0.0024250268 -0.04327201 -0.04121967 -0.06467445
-0.027579559 0.01617958 0.043218832 0.014251626 -0.040172216 0.032327835 0.051332776 0.038228933
-0.014214777 -0.020159867 -0.032384437 0.0019819906 0.0051552076 0.028883021 -0.026909357 -0.017367011
0.040176935 0.0051567787 -0.025758473 -0.024686284 -0.050653398 -0.01796288 -0.027191436 0.022171153
-0.0005793262 -0.017896252 0.0129594635 -0.040130988 0.016210347 -0.014839745 -0.04491642 -0.00057636056
-0.052199584 -0.031795785 0.031603098 0.048423618 -0.0002888888 -0.016100278 -0.033538338 -0.023966936
-0.010283108 -0.0075922795 0.05000637 -0.008143244 -0.03713397 -0.0027871977 -0.0837685 -0.022554869
-0.056096967 -0.053236015 0.030738402 -0.029539865 0.023422876 0.010083199 -0.001854845 -0.0031199062
