embeddings/wavlm_large/b41060b903738d5913f90a5389874ce85f6f37d8.npy (npy, 4224 bytes, 1 tensors)

array f4 [1024]
0	0x3cb76a33	0.022389507
1	0xba027757	-0.00049768895
2	0xbc92d3d8	-0.01792328
3	0x3c247bda	0.010039294
4	0x3afa03e8	0.001907465
5	0x3c937213	0.01799873
6	0x3bea2239	0.007145193
7	0x3c5c0f54	0.013431389
8	0x3bbd1d2a	0.005771299
9	0x3c876e6c	0.016532145
10	0xbc07a30b	-0.008278619
11	0xbc0007bd	-0.007814345
12	0x3bfa154c	0.0076319333
13	0xbd03b62c	-0.032156155
14	0xbc465907	-0.012106187
15	0x3ae3bfa9	0.0017375845
16	0x3b667e3b	0.0035170454
17	0x3cc7b98b	0.024380466
18	0x3c48bd45	0.012252157
19	0x3b4d0a87	0.0031286792
20	0x3d1b9bb0	0.037990272
21	0x3bacaa2e	0.0052693104
22	0x3c25a12b	0.010109226
23	0x3c72f726	0.014829433
24	0xbbf5c576	-0.007500346
25	0x3b939d1f	0.0045048143
26	0xbb4e4680	-0.0031475127
27	0x3be9265c	0.0071151685
28	0x3b240213	0.002502565
29	0xbc1f525c	-0.009724226
30	0xbad9bfa5	-0.0016612901
31	0xbb222d0a	-0.0024746084
32	0x3c3e6831	0.011621521
33	0xbc0e9dce	-0.008704616
34	0xbb10c583	-0.0022090382
35	0xbd1f2cf2	-0.038861223
36	0x3c085b6c	0.008322578
37	0xbcdcbe7d	-0.0269463
38	0x3c245565	0.010030125
39	0xbc2a6d8e	-0.010402096
40	0x3ca03911	0.019558461
41	0x3b8d99e2	0.004321323
42	0x3c8b7a5c	0.017026119
43	0xbbfa5ff8	-0.007640835
44	0x3c1edf7f	0.00969684
45	0x3bc4231c	0.0059856307
46	0x3c4536a2	0.012036951
47	0x3c5f8684	0.013642911
48	0xbc8a24ac	-0.01686319
49	0x3cad1fa4	0.021133251
50	0xbabfb149	-0.0014624979
51	0x3bad03bb	0.0052799857
52	0xbc1c73bf	-0.00954908
53	0x3c98f3cc	0.018670939
54	0xb8b4f990	-8.6295535e-05
55	0x3b4186db	0.0029529843
56	0x3be6c598	0.007042598
57	0x3c4efc87	0.012633449
58	0xbae6c528	-0.0017606365
59	0x3b5f1383	0.003403873
60	0x3c5a3bb6	0.0133199
61	0x3bf0e80c	0.007351881
62	0xbb140d74	-0.0022591026
63	0x3b980ca2	0.004640178
64	0xbbad4612	-0.005287894
65	0xbc81885a	-0.015812088
66	0xbb8b6e12	-0.0042550648
67	0x3a7c2420	0.000961842
68	0x3be6fd90	0.00704927
69	0xbacf8510	-0.0015832502
70	0xb9a1d806	-0.00030869263
71	0x3c137314	0.008999605
72	0x3c1dd51b	0.009633328
73	0xbc8693f6	-0.016427975
74	0x3c45f252	0.012081699
75	0xbc188099	-0.009308004
76	0xbb85e74c	-0.0040864106
77	0xbcbf82a4	-0.023377724
78	0xbafdb086	-0.0019354976
79	0xbc80fac7	-0.01574458
80	0xbbf29332	-0.007402801
81	0xb9fc6367	-0.00048139246
82	0x3ce15ec9	0.027511017
83	0x3b44ebe0	0.003004782
84	0xbabc26b0	-0.0014354791
85	0x3a17af23	0.000578629
86	0x3c8d5b4d	0.01725545
87	0x3b5bffc4	0.0033569196
88	0xbc3005e8	-0.010743596
89	0x3b7da909	0.003870549
90	0x3b8842ec	0.0041583683
91	0x3b0d9461	0.0021603333
92	0x3b966d5c	0.0045906734
93	0xba3c6315	-0.0007186395
94	0x3ba596cb	0.0050533763
95	0xbae72e3a	-0.0017637678
96	0xb8d5ac51	-0.00010188728
97	0xbb77e02d	-0.0037822828
98	0x3be037ef	0.0068426053
99	0xbc82089e	-0.01587325
100	0x3c69a25c	0.014259901
101	0xbc2448ed	-0.0100271525
102	0x3cd5dbd4	0.026105799
103	0xbbd0f093	-0.006376335
104	0x3b9e46b2	0.004830205
105	0xbc4176af	-0.0118080815
106	0xbc09cc31	-0.008410499
107	0x3c956c77	0.018240197
108	0x3b39c65a	0.0028346987
109	0x3b86c8a3	0.004113273
110	0x3c03b4e9	0.008038738
111	0x3a1db731	0.00060163724
112	0x3b187386	0.0023262217
113	0x3c492c89	0.012278684
114	0x3a16b864	0.0005749522
115	0xb862c152	-5.4062642e-05
116	0xbc5be13e	-0.013420401
117	0x3b34cbc9	0.0027587286
118	0xbba89aa4	-0.0051453877
119	0x3bbe690f	0.005810864
120	0x3aef3155	0.0018248955
121	0xbbc79b1e	-0.0060914895
122	0x3b8b6d2f	0.004254959
123	0xbb80b802	-0.0039281854
124	0xbbc00ea3	-0.00586112
125	0xba92ad03	-0.0011190478
126	0xbc57d614	-0.013173599
127	0x3b0d9f6f	0.0021609922
128	0xbc4d5ae3	-0.012533876
129	0xbc83fad5	-0.016110817
130	0x3c64ff35	0.013976862
131	0x3b43d419	0.0029881059
132	0x3c34c1b8	0.011032514
133	0xbc0ddf0b	-0.008659135
134	0x3ba0aa67	0.004903126
135	0x3d18b83f	0.037285086
136	0xbab08774	-0.0013468103
137	0xbd31280b	-0.04325108
138	0x3a991133	0.0011678099
139	0x3aa8f666	0.0012890815
140	0x3b4daeda	0.0031384737
141	0x3b4a1f80	0.003084153
142	0xbbb52c0a	-0.0055289315
143	0xbbf71e3b	-0.0075414455
144	0x39815237	0.00024666052
145	0x3c17c869	0.00926409
146	0xbb0f5368	-0.0021869782
147	0xbc3ce1a8	-0.01152841
148	0xbd12b9ef	-0.03582185
149	0x3b24b78d	0.002513382
150	0xbc2cf8f4	-0.010557402
151	0x3b6456ad	0.0034841702
152	0x3c81ecd6	0.015860002
153	0x3d1359d0	0.035974324
154	0x3ba055b0	0.0048930272
155	0x3ad35855	0.0016124347
156	0x3c325ae7	0.010885931
157	0x3c8f204f	0.01747146
158	0x3ca2e72e	0.019885626
159	0xbc984f11	-0.01859239
160	0x3b8f969e	0.0043819686
161	0xbaa50941	-0.0012591259
162	0x3c32ee0f	0.010921015
163	0x3bf2a39a	0.0074047567
164	0x3c415cd3	0.011801916
165	0x3c9efbd8	0.019407198
166	0xbbbab8f1	-0.0056983163
167	0x3c055ece	0.008140279
168	0x3c7abc09	0.01530362
169	0xba087ed3	-0.00052068866
170	0xbc073842	-0.008253159
171	0xbc4e8bb3	-0.012606549
172	0xbd3cd11c	-0.04609786
173	0xbb905c09	-0.0044055027
174	0x3c87f62d	0.016596878
175	0x3c972b57	0.018453283
176	0x3caaad05	0.020834455
177	0xbc22df22	-0.009940894
178	0x3c5d15fe	0.013494013
179	0x3a901fea	0.0010995839
180	0x3c838138	0.016052827
181	0xbbb48a26	-0.0055096326
182	0x3bc1b7a5	0.0059117847
183	0xbc2fa4a3	-0.010720405
184	0xb9f6fdc4	-0.00047109846
185	0x3c5d1bc8	0.013495393
186	0xbafa9cea	-0.001912025
187	0x3cb85cd1	0.022505196
188	0x3b6a6722	0.0035767038
189	0x3ccbea8a	0.02489211
190	0x3c3ec8fc	0.011644598
191	0xbb6b3750	-0.0035891123
192	0xbcb97d1c	-0.022642665
193	0x3b60a138	0.0034275781
194	0x3bcc4b13	0.0062345355
195	0x3bc39092	0.005968162
196	0x3caea3de	0.021318372
197	0xbb3ba23d	-0.0028630637
198	0x392a98cc	0.00016269385
199	0x3b36c781	0.002788991
200	0xb9b04c50	-0.00033626193
201	0xbba39faa	-0.0049933987
202	0xbb9dec58	-0.004819434
203	0x3c534f7d	0.012897369
204	0xbae5d462	-0.0017534608
205	0xbb87998e	-0.004138178
206	0x3c340a36	0.010988763
207	0x3a83c04c	0.0010051816
208	0xbb99629b	-0.004680944
209	0xbc1146ee	-0.008867009
210	0xbb8c9a8f	-0.0042908858
211	0x3af35124	0.001856361
212	0x3bbcd4b5	0.0057626613
213	0x3c174a04	0.009233955
214	0xbd0505b1	-0.03247613
215	0xbb8371a1	-0.0040113484
216	0xbc01295a	-0.007883394
217	0xbcaf72d7	-0.021417065
218	0x3c16874e	0.009187533
219	0x3c67f464	0.014157388
220	0x3b73ba49	0.0037189892
221	0x3bd00a54	0.0063488875
222	0xbc1d026e	-0.009583099
223	0x3c5d9334	0.0135238655
224	0xbbea6714	-0.007153401
225	0xbb564f8c	-0.0032701222
226	0x3bb0e994	0.0053989384
227	0x3b99e0df	0.004695996
228	0xbb7ce581	-0.0038588943
229	0x3c21c79f	0.0098742535
230	0x3c40385d	0.011732188
231	0x3c0ed2f5	0.008717288
232	0xbb095345	-0.0020954174
233	0xbcb2c93a	-0.021824468
234	0x3b62dab2	0.0034615216
235	0x3b760970	0.0037542246
236	0xbc3caec4	-0.011516277
237	0x3d0ba633	0.034094047
238	0xbc24fd75	-0.0100701945
239	0xbc11665e	-0.008874504
240	0xbe16a27b	-0.14710419
241	0xbbaccf5c	-0.0052737426
242	0x3b6f6208	0.0036526937
243	0x3c2037f5	0.009778966
244	0x3ba69058	0.005083125
245	0x3c0bbc0d	0.0085287215
246	0x3c1f2db4	0.009715486
247	0xba8a4ef6	-0.0010552097
248	0x3c4e3a1f	0.012587099
249	0xbadf7b7e	-0.0017050353
250	0xba83337c	-0.001000985
251	0xbb27ed64	-0.0025623674
252	0x3b9e7fe9	0.0048370254
253	0x3b561438	0.003266586
254	0x3b911abe	0.0044282367
255	0xbd39d7e0	-0.04537189
