embeddings/wavlm_large/b4e4d17aed1071721593706ed3a6d1ae5675983e.npy (npy, 4224 bytes, 1 tensors)

array f4 [1024]
000000 a7 fc 4b 3c a8 b5 34 3c 70 9e 84 bc e5 aa b2 3b
       0.012450374 0.011029638 -0.01618883 0.005452501
000010 dd 64 70 3b d7 c9 76 3c ee 38 a4 3a 26 de 63 3c
       0.0036681213 0.015062771 0.0012529173 0.013907945
000020 6a 4b b6 3b 6f 65 75 3c 14 3f 26 b9 74 bf c8 ba
       0.0055631893 0.014977797 -0.00015854492 -0.0015315847
000030 3f cb c4 3b df 07 1d bd 42 e7 db bb 64 ee c5 bb
       0.006005674 -0.038337585 -0.0067109177 -0.0060403813
000040 55 57 5d 3b 1f e8 cd 3c 7f d4 f0 3b 29 ab 49 bb
       0.0033773978 0.025135098 0.0073495503 -0.0030772185
000050 7b 82 f6 3c 3f 66 31 3c e4 f3 b9 3b 5a ca 5c 3c
       0.030091515 0.0108276 0.005674826 0.013475979
000060 66 62 44 bc ee 80 49 3c 69 2d 2c bb 41 f0 bb 3b
       -0.011986351 0.012298806 -0.0026272184 0.0057354276
000070 bd 9f 39 3c 6b 2c c9 bb b6 fd ed ba 0b 7a 82 3b
       0.0113295885 -0.0061393282 -0.0018157277 0.003981834
000080 0a 01 9a 3b 78 6f 88 bc 26 64 0d bc 03 b4 dc 3b
       0.004699831 -0.016654715 -0.008629834 0.0067353263
000090 25 90 b8 bb 7f 30 ba bc c6 fd b9 ba 2f a5 df bb
       -0.0056324177 -0.022728203 -0.001419001 -0.0068251113
0000a0 e5 26 77 3c 6c 25 f6 bb 48 be 69 3c 5a a9 01 bc
       0.015084957 -0.0075117853 0.014266558 -0.007913912
0000b0 8b f7 50 3c 37 d1 0d 3c ad 5e 2a 3c 3c 4d 4c 3c
       0.012754331 0.008655838 0.010398549 0.012469586
0000c0 d5 3b 4f bc 5c a0 43 3c d7 4c 22 3c 37 2a e5 ba
       -0.012648542 0.011940088 0.009906015 -0.0017483894
0000d0 ce 0d cd bc 1e f0 50 3c a8 0a 81 3a c9 ac 17 3c
       -0.025030997 0.012752561 0.0009845095 0.009257504
0000e0 cc 6d 00 bb 6a d9 74 3c a9 0a 50 bb 9f df 1d bb
       -0.0019596694 0.014944414 -0.0031744635 -0.0024089587
0000f0 d9 cd 9b bb 98 07 16 bb 0f ce a3 38 60 cd 33 3b
       -0.0047547636 -0.002289271 7.810827e-05 0.0027435645
000100 51 15 4e bc 0e 25 4f bc e0 8c 80 3a 3b b5 d4 3a
       -0.012578324 -0.012643112 0.0009807609 0.0016228327
000110 ab aa a2 3a 6e eb 2b 3a 3c 2a dd bb 32 44 18 3c
       0.0012410482 0.0006558214 -0.0067494195 0.009293603
000120 80 0a de bb 4e 6e ca bc 75 5b 95 3c 73 51 a8 bc
       -0.006776154 -0.0247108 0.018232087 -0.02054665
000130 6b 37 42 bb a6 1d 11 bc a1 e7 dc 3a c2 0b 7f ba
       -0.0029635082 -0.008857166 0.0016853699 -0.000972923
000140 17 97 27 bc cf 85 25 3b 23 58 38 3c c4 47 73 3c
       -0.010228894 0.0025256758 0.011251482 0.014848653
000150 d2 be 36 3b 5d c5 f1 b9 ad 70 69 3c b6 9c 0b b9
       0.0027884734 -0.0004611415 0.014248055 -0.00013314452
000160 f8 28 5f bc 4f b0 a2 3b 45 f8 d4 3a ac f8 d0 3a
       -0.013620608 0.0049648653 0.0016248306 0.0015943251
000170 21 55 07 3c 61 37 59 bc 15 3b a9 3b 3c 2e 3b 3a
       0.008260042 -0.013257832 0.005164514 0.00071403733
000180 04 1c c8 bb 23 8d a3 bb 3e 2b 59 3c 10 95 42 bc
       -0.0061068553 -0.00499119 0.013254939 -0.01187636
000190 b0 de 99 3c 87 1d 24 bb 3a 81 04 3d 0e 7b 7c bb
       0.018782943 -0.0025042014 0.032349803 -0.0038525495
0001a0 79 ea 3c bc bc e0 65 bc f9 e5 81 bb 88 3e 9e 3c
       -0.011530512 -0.014030632 -0.0039641825 0.019316927
0001b0 7d ea 8d ba 00 da 15 3c 22 3a 83 3c 73 59 82 39
       -0.0010827329 0.0091462135 0.01601893 0.00024862177
0001c0 42 d3 ab bb 8a 88 42 3a 62 2d e8 3b 5d c8 74 39
       -0.0052436898 0.00074208586 0.007085488 0.00023344294
0001d0 a9 ae 2b bc c7 88 22 3c 9f 8b 7f bc 83 3f 58 3c
       -0.010478654 0.009920306 -0.015597253 0.013198736
0001e0 28 e9 8f ba 84 1c 7a bb 1c 46 5b 3b a4 a2 47 3b
       -0.001097952 -0.003816397 0.0033458536 0.0030461932
0001f0 7f 12 27 bc 89 0f ac b9 18 ff 47 3a 95 12 80 3b
       -0.010197281 -0.0003281797 0.00076292595 0.003908465
000200 1c 0f 23 bc bf 25 06 bc cb 68 1e 3c c9 19 df bb
       -0.009952333 -0.00818771 0.009668539 -0.0068084938
000210 6d 9a fa 3b 3e 2b c4 bc a7 17 81 3b fb 79 0a 3d
       0.0076478035 -0.0239464 0.003939587 0.033807736
000220 4f 1e d7 bb 98 97 39 bd e6 ce 39 bb ae 69 bf bb
       -0.0065648924 -0.045310587 -0.002835208 -0.0058414554
000230 4e 75 5a 3b ee f1 b9 3b 61 80 f7 ba a3 df 03 bb
       0.003333408 0.005674592 -0.0018882864 -0.0020122312
000240 00 f7 b5 3b e3 9f 3b bc b1 1f bc bb c5 f6 1e bc
       0.0055531263 -0.011451694 -0.0057410826 -0.009702389
000250 9d 4d 30 bc 41 df 5e 3b 79 73 af 3a fa a6 47 ba
       -0.010760692 0.0034007581 0.0013385854 -0.0007616129
000260 87 4d b5 3c 71 43 f8 3c d7 68 1f bc 5b d3 c3 bb
       0.022131694 0.030305596 -0.009729586 -0.0059761233
000270 fc 05 59 bb 1a 5b f1 3a 00 8c 4e 3c 3d b7 67 bc
       -0.003311514 0.0018413991 0.012606621 -0.0141428085
000280 c2 8f 07 3c d3 fe 57 3a b9 4e 62 3c 82 a9 69 3c
       0.008274021 0.0008239571 0.013812714 0.014261605
000290 a3 03 7c 3c 04 33 49 ba e4 91 93 ba 4c 87 e3 3b
       0.015381726 -0.00076751434 -0.0011258689 0.006943619
0002a0 32 a9 82 3c d6 b4 88 3c c5 07 dd bb 6d 33 0d bc
       0.01594982 0.016687792 -0.006745311 -0.008618218
0002b0 52 e5 19 bd b1 44 06 ba 10 4e a5 3c 82 29 63 3c
       -0.037572213 -0.000512193 0.020178825 0.013864877
0002c0 a0 7a 8c 3c 57 5e c8 bb 2d d1 8f ba 97 a6 6d bc
       0.017148316 -0.006114762 -0.0010972373 -0.01450505
0002d0 a2 6c 90 3c 3b d8 17 bb 56 b5 6c 3a 33 e3 94 bc
       0.017629925 -0.0023169655 0.00090297067 -0.018174743
0002e0 1b 4c 3e 3b 47 85 37 3c 14 9b 1e bb 88 1b 17 3d
       0.0029037062 0.011201209 -0.002420132 0.03689149
0002f0 71 b5 74 3c 6e d4 ae 3c 09 98 ce 3b aa 9e 0a 3a
       0.014935837 0.021341529 0.006304745 0.0005287925
000300 bc a8 6e bc e3 34 0c 3c 48 11 1e 3b 0c 20 67 3b
       -0.014566597 0.008557531 0.0024119187 0.0035266904
000310 b2 a8 44 3c da 43 a6 bb 6a 99 17 3c 22 2a c2 ba
       0.012003111 -0.0050740065 0.009252885 -0.0014813582
000320 ce cf 00 3d 12 38 3d b9 f3 e0 c4 ba 4b e1 58 3c
       0.031448178 -0.00018045332 -0.0015020653 0.013237308
000330 14 bd 78 3c be 82 09 bc 96 54 e5 3b c2 90 8f bb
       0.0151817985 -0.008392988 0.006998609 -0.00438127
000340 ce bd 20 bc f2 be 4e 39 ae 3d 1a ba e0 a2 a9 3b
       -0.009810878 0.00019716824 -0.0005883825 0.005176887
000350 ee fc 23 3c ba a1 3a 3c f6 b4 a2 3b 3f 13 e1 3b
       0.010009034 0.011391098 0.00496542 0.0068687494
000360 79 a0 f4 bb af 3b f8 bc f3 96 59 3c 09 60 a0 3c
       -0.007465419 -0.030301897 0.013280618 0.019577043
000370 b2 f4 51 bc 55 15 08 3c 05 e5 90 bc ee d5 0b 3a
       -0.012814688 0.008305867 -0.01768733 0.0005334307
000380 4d d8 a1 b9 92 db 29 ba dd 15 db 3b ad 47 9d 3b
       -0.0003086947 -0.0006479557 0.006685956 0.004799804
000390 6e 1b e3 b9 62 0f e3 39 f9 6e 69 bb da 5b 88 3c
       -0.0004331725 0.00043308275 -0.0035619123 0.01664536
0003a0 4b d1 c8 bb 85 91 0d bd 1a 56 42 bb 2b 37 6a 3b
       -0.0061284653 -0.034562606 -0.0029653371 0.003573845
0003b0 59 cc a0 bc 26 3c 97 3c c1 7d 0c bc 84 2c db bb
       -0.01962869 0.018461298 -0.008574904 -0.0066886563
0003c0 d3 91 20 be 08 fb 85 3a 46 64 8d 3b cf 3a 37 b9
       -0.15680628 0.0010221908 0.004314932 -0.00017474148
0003d0 ec 0d a6 3b b2 55 9c 3b 4e 4c d5 3b ec 81 eb 3a
       0.0050675776 0.004770958 0.0065093404 0.0017967797
0003e0 87 32 0b 3c 53 58 ea bb 1d 63 78 bb 42 94 50 b9
       0.008495933 -0.0071516423 -0.0037900873 -0.00019891656
0003f0 6c 89 96 3b 91 0f 66 3a ad 62 47 b9 aa 31 0a 3b
       0.0045940187 0.0008776123 -0.00019014878 0.002108673
