embeddings/wavlm_large/b58986821881120c650d27d88d70702a159f4202.npy (npy, 4224 bytes, 1 tensors)

array f4 [1024]
00000000: fdac d33b b855 1f3c ef4a 96bc ad35 943c
00000010: 789c 22bb 81f6 903c 5dce 003c 20f0 333c
00000020: 8f1f cd3b 66b8 873c f355 4cbb 6bde 28bb
00000030: 8be5 0f3c 6e60 03bd 19c8 68bc cae9 3fb9
00000040: 2e92 353c f544 163c 6b5d 9b3b f366 c23b
00000050: 9901 223d d254 023b 9e31 763b b5e2 8d3c
00000060: 903b da3a 99ec 573b 3c98 79bb 6aef 8fbb
00000070: 5323 fc3b 7d73 40bc 03ff 41ba 05c7 2d3a
00000080: eb08 eebb 71cb 97bc ad8e 07bc d79f b6bc
00000090: b1cf 4d3c bf06 cabc f6e8 1e3c 6ab5 29bc
000000a0: 485b a03c 4df5 3ebc c7c8 273c 0a66 2bbc
000000b0: 200d 023c ca09 123c 5061 283c ac25 e03b
000000c0: d067 94bc 04f2 053c ffd5 423c ee26 cabb
000000d0: 7752 c8bc 2635 5e3c bfb3 15b8 bae2 603c
000000e0: 2da8 e03b 8810 863c 6d24 14bc 79fe 5f3b
000000f0: 62cf 8b3b c8e3 383b 50ae bb3b 6597 f23a
00000100: 6c29 82bc 7fd9 febb d2bd 3cbb 5bc8 b8bb
00000110: 967d cc3a 9621 b43a 4aa1 cdbb 96ce 8c3b
00000120: b134 1c3c 777e 00bd ef0c f93b d668 8abc
00000130: 935d 8bbb 6426 b4bb 641e a6bb a440 21bc
00000140: 2151 b5bc fb66 2b3c a857 c93c d3c0 f13b
00000150: 25d7 00b7 e9b3 3e3c e0fc 393c d821 adbb
00000160: 714b 1bbc 2916 243c acb4 d73b de28 873a
00000170: d882 003c aa65 d53a 9d39 4dbb 5d79 d1ba
00000180: 1b42 2cbc aa6b 163b c1ed c73b 2f0e abbc
00000190: c006 963c d91c 03bc fa1b bf3c 8d0c 6d3a
000001a0: 6eaa f63b e5ee b8bc 9282 4c3b acb7 f33c
000001b0: b7ba 8c3b c0a1 34bb a502 a73c 87f2 793b
000001c0: 2a21 85bc c547 313c 4374 a63b d125 1c3c
000001d0: 35d0 05bc 11ab e63b ddde 2ebc 436f 273c
000001e0: d36a 193c 49cd c4bb f2d5 b03b 579a a5bb
000001f0: 1905 deb9 4f81 b73b 9276 a9bb 0756 28ba
00000200: 89b3 94bb 4735 7cbc a1f2 823b 44db bfbb
00000210: d93e 003c 7d56 91bc c4f5 e73b 4239 1d3d
00000220: 453e b0bb d6ac f7bc d799 ac3b ce20 0ebb
00000230: 7bad d23b 3d65 1b3b 4a3e cebb f376 3b3a
00000240: 1b84 583b dea8 1b3b 6ab1 8cbb ada2 ecbb
00000250: 39b6 593d 9ca9 483a 4dbc 483c 1d52 82bb
00000260: 0656 fd3b ead5 593c c9bc d93a 446a 88bb
00000270: 3616 a8bb b14f f63b fa90 433d 22f4 2dbb
00000280: 05db 843c b60d 92bb 4772 7f3c 6f11 4f3c
00000290: a10b f53c 8212 c73b 0f3b 3abc 75fa d63b
000002a0: 7885 9fba 28ae 8b3c de3e 13bc a73d e6bb
000002b0: 2069 14bd 8f6a acbb 0fd0 263c 4366 b23c
000002c0: 5544 b73c 896e febb 9363 893b e22e d5bc
000002d0: f217 8e3c d4ca 823a ca11 903b 5dda bcbc
000002e0: 5ca7 0abc 20c7 503c 7be6 53b9 bc18 033d
000002f0: 5c69 393c 827d e93c 0fcb 9f3b 4ace aaba
00000300: eba6 1bb9 f90e 053c 27f8 233c d428 1f3b
00000310: 1754 3a3c c51a 3dbc e920 233b 8ffa 2e3c
00000320: 67ff 903c 2fd7 1ebb 5743 d4bb e6c0 7f3c
00000330: c501 1f3c 2c51 06bc 99dd 123b dc2a 1c3b
00000340: 880d 26bc f489 07bb 4efd 2bba c193 673a
00000350: 5369 343c 70aa ae39 f26e 0f3d 8e8c d03b
00000360: 35a8 863b 894c fbbc b051 ea3b f954 dd3c
00000370: fdd9 003b 19ee 073c 4421 b1bc f1d8 823b
00000380: 27ad cbbb 4f6c 8dba d474 233c ac21 d7ba
00000390: 73a5 25bc 1681 323c 4cd6 343b b1a9 aa3b
000003a0: 7815 973b 5809 8abc 1ac5 82ba 5028 2d3c
000003b0: ab06 f1bc 6374 5c3c 65ad 3bbc 7823 63bc
000003c0: 7556 28be a466 793b 5400 11bc 9d1b 353c
000003d0: 588b 9c3b 744e 01ba 76f2 f93b 6aef 0c3c
000003e0: a291 913b 85a4 adbb 6072 ebbb 48d5 67bb
000003f0: 189b 053c 3432 1b3b e6d3 0bbc 78e7 e7bc
0.006459831 0.009725027 -0.018346278 0.018092 -0.00248125 0.017695667 0.007861701 0.010982543
0.0062598656 0.01656742 -0.003117916 -0.0025767337 0.008782755 -0.032074384 -0.014207863 -0.00018302273
0.011082215 0.009171714 0.004741361 0.0059326827 0.039552305 0.0019886983 0.0037566195 0.017320016
0.0016649831 0.003294742 -0.0038085124 -0.004392554 0.0076946407 -0.011746285 -0.00074003654 0.00066290825
-0.0072642467 -0.018529626 -0.008273763 -0.022293014 0.0125617245 -0.02466142 0.009699097 -0.010358194
0.019574776 -0.011655164 0.01024074 -0.01046134 0.0079377 0.008913467 0.010277107 0.0068404283
-0.018115908 0.008175377 0.011891841 -0.0061691916 -0.024453385 0.013562476 -3.569177e-05 0.013725931
0.0068559856 0.016365305 -0.009041888 0.0034178777 0.0042666653 0.002821194 0.005727567 0.0018508254
-0.015888892 -0.0077773924 -0.0028799665 -0.0056391186 0.0015601392 0.001374292 -0.0062753307 0.004297088
0.009534047 -0.031370606 0.0076004188 -0.016895693 -0.0042530983 -0.0054977406 -0.005069541 -0.009842072
-0.022133412 0.010461564 0.02457793 0.0073777228 -7.679487e-06 0.011639574 0.011351794 -0.0052835755
-0.009478436 0.010015049 0.006582817 0.0010311862 0.007843696 0.0016280909 -0.0031314858 -0.0015981604
-0.010513808 0.0022952356 0.0061013405 -0.020880787 0.018313766 -0.008002483 0.02332877 0.0009042703
0.007527641 -0.022574851 0.0031205756 0.029750668 0.004294719 -0.002756223 0.020387003 0.0038138942
-0.016251165 0.010820334 0.0050797774 0.0095305005 -0.008167316 0.0070394357 -0.010673252 0.010219398
0.009363848 -0.006005917 0.005396598 -0.005053799 -0.00042346938 0.0056001316 -0.0051716054 -0.00064215105
-0.004538004 -0.015393562 0.003996209 -0.005854996 0.007827484 -0.017741436 0.007078858 0.038384683
-0.005378517 -0.030233782 0.0052673626 -0.0021687034 0.006429372 0.0023711466 -0.0062940465 0.00071512087
0.0033037725 0.0023751776 -0.0042936103 -0.007221541 0.053152297 0.00076546683 0.012251926 -0.003977074
0.007731202 0.01329563 0.0016612048 -0.0041630585 -0.005129601 0.007516824 0.047745682 -0.002654322
0.016217718 -0.004457201 0.015591211 0.012638434 0.029912772 0.0060752044 -0.01136662 0.0065606185
-0.0012170514 0.017050818 -0.008987157 -0.0070263925 -0.036233068 -0.005261726 0.010181441 0.021777278
0.02237145 -0.0077646417 0.0041927784 -0.026023332 0.017345402 0.000997866 0.004396652 -0.023053342
-0.008462753 0.012742788 -0.00020208389 0.03200601 0.011316624 0.02850223 0.0048765014 -0.001303145
-0.00014844134 0.008121246 0.010007895 0.002428581 0.011372588 -0.011542027 0.0024891442 0.010679855
0.01769991 -0.0024237146 -0.006477754 0.015609955 0.009705012 -0.008198064 0.0022409915 0.0023829257
-0.010135062 -0.0020681592 -0.00065608777 0.0008833968 0.011011439 0.00033314852 0.035017915 0.0063644117
0.0041094073 -0.030676143 0.007150851 0.027018057 0.001966118 0.008296513 -0.021622308 0.0039931466
-0.0062157097 -0.0010789725 0.009976584 -0.0016413233 -0.010110247 0.010895034 0.0027593551 0.005208217
0.0046107136 -0.016850159 -0.0009976954 0.010568693 -0.029422125 0.013455483 -0.011454915 -0.013863437
-0.1643923 0.0038055563 -0.008850176 0.011053947 0.0047773533 -0.000493265 0.0076277805 0.008602003
0.0044424096 -0.0052991533 -0.0071852654 -0.0035374928 0.008154653 0.0023681046 -0.008534407 -0.028308615
