embeddings/wavlm_large/b9945604f8f3f42837715037c687234ac87225bf.npy (npy, 4224 bytes, 1 tensors)

array f4 [1024]
000000 f7 dc 61 3c ce 2b 6b 3b 91 94 83 bc 71 4e 10 3b
       0.013785592 0.0035884264 -0.016062053 0.002201941
000010 86 46 1e 3c d2 7e b1 3c ae 99 66 bb 37 70 71 3c
       0.009660369 0.021666918 -0.0035186815 0.014736227
000020 2d f2 82 3b 65 2c be 3b 9f 9c d0 3b 44 2c 94 bb
       0.0039961548 0.005803632 0.006366327 -0.0045218784
000030 71 a7 00 3c cf 97 bb bc e8 12 8e bb 18 b0 b0 3b
       0.007852421 -0.022899536 -0.00433575 0.0053920858
000040 a8 a4 20 bc 86 e6 f9 3c aa 9b e7 3b 4d 94 ff 3a
       -0.009804882 0.03050543 0.007068117 0.0019499153
000050 99 5b 12 3d 9f ff 49 ba 6f f2 48 39 66 90 9a 3c
       0.035731886 -0.0007705632 0.000191638 0.018867683
000060 33 55 2b bb 75 af 90 3b 4f a5 23 bb 8d e3 67 3c
       -0.0026143312 0.0044154474 -0.0024970358 0.014153373
000070 83 76 37 3c aa 94 8e bc e0 74 6d 3b 19 15 4a 3b
       0.011197689 -0.017404873 0.0036232993 0.003083533
000080 66 0c 26 3c 98 a3 17 bc f3 58 d7 ba c2 b7 59 bd
       0.010134792 -0.009255312 -0.0016429707 -0.05315376
000090 f3 de b8 bb 8c 46 c1 3a 1b eb 45 3b e4 11 ba bb
       -0.005641812 0.0014745756 0.0030199948 -0.0056784023
0000a0 34 e8 74 3c 98 63 ad bb 35 27 89 3c ad 41 f6 bb
       0.01494794 -0.0052914135 0.016742328 -0.0075151534
0000b0 57 f7 bd 3c 97 f3 e2 3b f2 32 35 3c 9e 7e 18 3c
       0.02318923 0.006926011 0.01105951 0.009307532
0000c0 e9 10 85 bc 2d b1 73 3c 50 57 04 3c d7 08 27 bb
       -0.016243415 0.014873785 0.008077458 -0.0025487447
0000d0 64 d1 90 bc 5f 61 75 3c 1d 89 e3 3b b4 9f 07 3c
       -0.01767797 0.014976828 0.0069438354 0.008277822
0000e0 ad aa e6 ba fa de ef ba 45 c2 00 ba 5e 3f 2f 3b
       -0.0017598473 -0.0018300705 -0.0004911761 0.002674065
0000f0 7e 1d 9f 3b 35 ef 04 3c c3 7c 1d 3c 56 61 c9 3b
       0.0048558107 0.008113672 0.009612265 0.0061456366
000100 61 6c e9 bb b3 b2 5e 3c c7 c7 1b 3c bd a2 37 3b
       -0.0071235155 0.01359241 0.00950808 0.0028020584
000110 4f cb a2 3a bf d1 57 3b 48 62 d5 3a 89 9b 7e 3b
       0.001242021 0.0032931415 0.00162799 0.003885003
000120 90 1b 82 bb 36 5c 6f bc 5c 8e 20 3c be 27 f6 bb
       -0.003970571 -0.014609387 0.009799566 -0.007512062
000130 80 96 1e 39 f8 00 a3 bb 5d 1c 85 3b 6f 8f 55 bc
       0.0001512412 -0.0049744807 0.004062219 -0.0130346855
000140 0b 4b 64 bc a9 cf 8b bb 8f 33 9f 3c 28 8b 5b 3c
       -0.013933907 -0.0042666984 0.019433765 0.013399877
000150 10 94 9c 3b 24 d7 36 36 64 c4 94 3c f3 66 12 39
       0.0047783926 2.7245342e-06 0.018160053 0.00013961997
000160 c9 fd b6 bb c6 68 03 3c 72 64 35 3b 7e ad 08 ba
       -0.0055844528 0.008020585 0.0027678278 -0.00052138406
000170 78 ad b4 ba 2e 50 bf b8 34 51 6c ba 8a 31 bf 38
       -0.0013784608 -9.122524e-05 -0.0009014786 9.116817e-05
000180 8b 41 48 bb 55 6c 8c 39 10 3e dc 3b ea f8 53 ba
       -0.0030556645 0.00026783595 0.0067212656 -0.00080861023
000190 94 9e 4d 3c 0f d2 7d 3b 06 6f 86 3c e8 02 4e ba
       0.012550015 0.003872994 0.016410362 -0.00078587094
0001a0 20 02 f4 3b 87 ff 2c 3b b2 1d b1 3b ff 23 a8 3c
       0.0074465424 0.0026397423 0.0054051513 0.020524977
0001b0 e0 a8 0c 3c c5 bd 3b 3c da 74 95 3c a9 86 80 bb
       0.008585185 0.011458819 0.018244196 -0.0039223027
0001c0 e4 73 23 bc 44 77 86 3b a0 68 48 3b 15 71 6b ba
       -0.009976361 0.004103573 0.003057994 -0.0008981389
0001d0 4d ca 59 bc 4a 0d 80 3b f0 03 ee bb d3 d1 5e 3c
       -0.013292861 0.003907834 -0.007263653 0.013599831
0001e0 f4 5e 8a 3b 1d d7 99 ba 63 65 3b bb e0 fe 05 b9
       0.004222745 -0.0011737082 -0.0028594367 -0.00012778817
0001f0 d4 b2 02 3c 5e 31 ab bb de 6e ef b9 e3 fb d5 b8
       0.007977206 -0.005224391 -0.00045668235 -0.00010203549
000200 fd 44 fd bb 86 4a 65 bc c8 d0 9e 3b 69 38 4c 3b
       -0.0077291713 -0.013994819 0.004846666 0.0031161553
000210 35 ce e7 3b c5 c6 f0 bc 54 50 9e 3b c1 7c 05 3d
       0.0070741423 -0.029391656 0.004831353 0.032589678
000220 6f 63 00 bb 75 d9 1a bd e4 98 8f bb 3c df b9 ba
       -0.0019590517 -0.03780504 -0.0043822397 -0.0014180909
000230 c8 6e 14 3c 3d f3 a4 3b 24 0a 77 bc 4e d3 a3 3a
       0.009059615 0.005033879 -0.015078101 0.0012498887
000240 55 72 ea 3b 5f a5 3d 35 6b b7 18 bb 8d ba 7c bc
       0.0071547427 7.0648633e-07 -0.0023302685 -0.015425337
000250 da b2 3d bd 58 6c 1a bb 5f ad 18 bc fe 3f 18 bc
       -0.046313144 -0.0023563113 -0.009318679 -0.009292601
000260 e2 41 2f 3c 8e 67 fe 3c e0 1f 4d bc 7d 39 c8 bb
       0.01069686 0.031055238 -0.012519807 -0.0061103688
000270 16 14 b4 3b 17 85 27 3c c1 9f b3 3c 4b c6 c6 bb
       0.0054955585 0.010224602 0.021926763 -0.006066119
000280 4a 30 5e 3c 18 45 c2 ba 69 81 48 3c ce b6 30 3c
       0.013561318 -0.0014821617 0.012237885 0.0107857715
000290 17 a9 62 3c 85 88 4b 3c 41 4e b2 3b dc 51 c0 3b
       0.0138342595 0.0124226855 0.0054414575 0.0058691334
0002a0 67 40 47 3c b5 bb 5b 3c a2 71 bc b9 bb b5 d5 bb
       0.012161351 0.013411452 -0.00035942817 -0.006521908
0002b0 64 30 f5 bc 25 5a 8d b8 6f 83 f8 3b f2 5f 30 3c
       -0.029930301 -6.740195e-05 0.0075840275 0.010765063
0002c0 d4 8f 73 3c cc 98 aa bb 3d e4 49 bc 97 20 b3 3b
       0.014865834 -0.005206203 -0.012322483 0.0054665315
0002d0 80 e6 88 3c 02 c4 84 3b 53 fd cf bb cd c4 37 ba
       0.016711473 0.0040516863 -0.0063473373 -0.00070102216
0002e0 d7 48 95 bb fc cd 68 3b b6 96 6c bb b1 d4 a2 3c
       -0.0045558023 0.0035523167 -0.0036100573 0.01987681
0002f0 41 17 c4 3c 7a 6f ad 3c dd 26 9f 3c 4f a5 34 bb
       0.02393687 0.02117132 0.019427711 -0.0027564352
000300 2d 9c 82 bc cc a5 6e 3b 73 8d 09 3a 73 65 53 3b
       -0.015943611 0.003641474 0.0005247213 0.0032256513
000310 ee f8 42 3c 94 10 ed bb 54 31 9f 3b ce d1 64 3c
       0.01190017 -0.0072346423 0.0048581753 0.013966037
000320 2b ff b8 3d 9f ca be 3b 71 4b 38 3b 51 97 ef 3b
       0.090330444 0.005822494 0.0028121138 0.0073117395
000330 4c 20 ca bc ce 80 36 bb 9a 75 e1 3b fc 76 c3 3b
       -0.024673603 -0.002784777 0.0068804743 0.005965112
000340 64 fa 40 bc d7 ef 3b bb fe 80 45 3c dc d1 44 3a
       -0.011778448 -0.0028676891 0.01205468 0.0007508078
000350 f8 91 06 3a 9a 25 92 3b 3c d2 6f 3d 19 6f 1f bc
       0.00051334454 0.004460049 0.058550104 -0.009731078
000360 19 64 02 bc c0 e9 f0 bc 54 31 01 3c 20 89 c0 3b
       -0.007958435 -0.029408336 0.007885296 0.0058757216
000370 22 5e 2f bc f4 73 7a 3c e4 ad 9c bb e2 1a 6d bb
       -0.010703595 0.015286434 -0.0047814716 -0.0036179353
000380 28 9d a8 bb ad be 22 3b ce 4e 95 3c 0d d7 c2 ba
       -0.0051456876 0.002483289 0.018226054 -0.0014865116
000390 4b eb 19 3c c6 7b 49 3c a6 13 7d 3a 1f b6 42 3c
       0.009394477 0.012297576 0.0009654112 0.011884241
0003a0 98 4b 1d 3c 44 45 61 bc b3 21 4d ba 4b 83 3c 38
       0.0096005425 -0.013749424 -0.0007825151 4.494497e-05
0003b0 76 d9 ac bc 13 9b c3 3c a9 47 29 bc 08 31 42 bc
       -0.021099787 0.023877656 -0.0103320265 -0.01185251
0003c0 3f f7 2f be 34 e1 09 3b e7 2c d5 3b 9c af 18 3a
       -0.1718416 0.0021038773 0.006505597 0.00058245077
0003d0 86 50 c5 3a cc 9d 46 bb 80 5b 89 3b f2 97 5b bb
       0.0015053905 -0.0030306457 0.004191816 -0.0033507315
0003e0 a2 cb 37 3b 17 d2 fc bb 9c b2 35 bb b0 08 e3 3b
       0.0028044959 -0.0077154743 -0.0027724868 0.006928526
0003f0 09 fc da bb 27 d8 ea 3b bf 7b d7 ba 5d 85 97 ba
       -0.006682877 0.0071668806 -0.0016440077 -0.0011560131
