embeddings/wavlm_large_4_10/b2c4c8b9cd4842b099a49dbc6618d8d43e37686a.npy (npy, 4224 bytes, 1 tensors)

array f4 [1024]
0	0x3c229250	0.009922579
1	0x3b7fb1d1	0.00390159
2	0xbba3779d	-0.0049886242
3	0x3c380393	0.011231321
4	0x3c4b94b5	0.012425591
5	0x3c8dd500	0.01731348
6	0x3c5ad06c	0.013355356
7	0xb9af16c4	-0.00033395563
8	0x3c21d9b2	0.009878563
9	0x3ce327a8	0.02772887
10	0x3bc8af7c	0.006124435
11	0xbbd83943	-0.006598623
12	0x3ac90318	0.0015336005
13	0xbd198eb2	-0.0374896
14	0xbc6dc52a	-0.01451234
15	0x3c107e43	0.008819166
16	0x3c0f354e	0.008740736
17	0x3c6da8e2	0.014505597
18	0xbbb6a0b9	-0.005573359
19	0xbbc70b71	-0.006074362
20	0x3d83c272	0.06433572
21	0x3b1fb484	0.002436907
22	0x3c214d79	0.009845131
23	0x3ce5164c	0.027964734
24	0xbc8ad994	-0.016949452
25	0x3c478e46	0.012179917
26	0xbc11723a	-0.008877331
27	0xbba77f21	-0.0051115905
28	0x3bdf7008	0.006818775
29	0xbcc0aaee	-0.023519006
30	0xbba3712a	-0.0049878554
31	0x3c02fc8f	0.007994785
32	0x3cad47ae	0.021152344
33	0xbcabef05	-0.020987997
34	0x3c2ba655	0.010476668
35	0xbc4556a2	-0.012044581
36	0xbcd776e0	-0.026301801
37	0xbcb526f0	-0.022113293
38	0x3ad2be35	0.0016078415
39	0xbca28e97	-0.019843383
40	0x3b90bcf9	0.0044170585
41	0x3a8e6315	0.0010863269
42	0x3c34c6be	0.011033712
43	0xbbcebce0	-0.0063091367
44	0x3af425d3	0.0018626995
45	0x3ba7f97f	0.005126178
46	0xbbe639f5	-0.007025952
47	0xbc187c5d	-0.009306994
48	0xbbc12a74	-0.0058949534
49	0x3b9529eb	0.004552116
50	0x396bbb0f	0.00022481031
51	0x3bd1915d	0.0063955025
52	0xbd7ee664	-0.062231436
53	0x3cf0face	0.029416468
54	0x3b675d68	0.0035303477
55	0x3c5ff762	0.0136698205
56	0x3c25b98d	0.01011504
57	0x3c52b38e	0.012860192
58	0x3c3df110	0.011593118
59	0x3cb9d043	0.022682315
60	0x3cb40693	0.021975791
61	0xbc46e503	-0.012139562
62	0x3c4592bb	0.012058909
63	0xbb0fe82a	-0.002195845
64	0x3b41733f	0.0029518155
65	0x3bf71c67	0.0075412276
66	0xbabbfd16	-0.0014342393
67	0xbc220303	-0.009888413
68	0x3cb1f62e	0.021723833
69	0x3b46376b	0.0030245434
70	0xbc07230d	-0.008248103
71	0xbc18704a	-0.009304116
72	0x3ce03c56	0.02737252
73	0xbd62bab1	-0.055353824
74	0x3bfcb4aa	0.0077119665
75	0xbc1d9f69	-0.009620526
76	0xbc953003	-0.01821137
77	0xbc7ab1f0	-0.015301213
78	0xbb5c28ff	-0.0033593772
79	0x3869ffcf	5.578977e-05
80	0xbd519629	-0.051168595
81	0x3c1097e7	0.008825279
82	0x3bdbba70	0.0067055747
83	0x3c0196af	0.007909461
84	0x3c29d4b9	0.010365658
85	0xbb40429b	-0.0029336575
86	0x3c3e03dc	0.0115976
87	0x3c275279	0.010212534
88	0xbc67b2de	-0.014141766
89	0x3c8101bc	0.015747897
90	0x3c01b62f	0.007916971
91	0x3bcb7113	0.006208548
92	0x3bdc98c7	0.0067320797
93	0x3c33fe5d	0.010985938
94	0x3c7ba587	0.015359289
95	0x3a7add14	0.00095696864
96	0x3bc42044	0.0059852917
97	0x3bb60136	0.0055543436
98	0x3caeba53	0.02132908
99	0xbc9782bb	-0.018494954
100	0x3c98cd8e	0.018652704
101	0xba5b28ce	-0.00083602674
102	0x3c803809	0.01565172
103	0xba9e03aa	-0.0012055535
104	0x3c9103eb	0.017702064
105	0xbc31fa80	-0.0108629465
106	0x3bfac4fd	0.0076528774
107	0x3d16064a	0.03662709
108	0x3c3703b6	0.011170318
109	0x39cbeef1	0.00038897202
110	0x3c1dc5c7	0.009629673
111	0x3c10dd01	0.008841754
112	0xbc1bbed8	-0.00950595
113	0xbb07df05	-0.0020732295
114	0xbb9b0765	-0.004731106
115	0x3c89030d	0.016725088
116	0xbc27aa66	-0.010233497
117	0x3af89142	0.0018964189
118	0x3b372747	0.0027946995
119	0x3c601bad	0.013678473
120	0x3c26a82a	0.010171929
121	0xba438c19	-0.0007459536
122	0x3c4652c0	0.01210469
123	0x3b9b6b67	0.004743028
124	0x3cd2de6f	0.02574083
125	0xbc96c7e3	-0.01840586
126	0xbc3f6d7f	-0.011683821
127	0xbb2a75be	-0.0026010121
128	0x3bbb11b7	0.005708899
129	0xbc624825	-0.013811146
130	0x3c62d5bc	0.013844904
131	0xbc243847	-0.010023183
132	0x3c7c981e	0.015417127
133	0xbca68925	-0.020329067
134	0xbb4ff94b	-0.0031734284
135	0x3d3d48eb	0.046212118
136	0xbc743e9f	-0.014907508
137	0xbd848abb	-0.06471773
138	0x3bbd98ce	0.005786038
139	0xbb0df92f	-0.0021663418
140	0x3bcc6eac	0.006238779
141	0x3b10f032	0.0022115824
142	0xbcc76f1d	-0.024344975
143	0x39007b94	0.00012253068
144	0xbac10f78	-0.0014729341
145	0xba854a94	-0.0010169321
146	0x3b1ddeaf	0.0024089029
147	0x3a51bc45	0.00080007716
148	0xbd219bed	-0.039455343
149	0x3ba7c1c7	0.0051195356
150	0x3d07ced8	0.033156246
151	0xbbbf046e	-0.0058293855
152	0x3d085e72	0.033293195
153	0x3ca5e976	0.020252924
154	0xbc616fba	-0.013759548
155	0xbb554c1f	-0.0032546592
156	0xbacd3d62	-0.0015658552
157	0x3c6d9270	0.014500245
158	0x3d1cf73e	0.038321726
159	0xbb57bb9a	-0.0032918216
160	0x3c92777a	0.017879236
161	0xbb7286c8	-0.0037006605
162	0x3cb9cf8d	0.022681976
163	0x3c557726	0.0130288955
164	0x3c619db9	0.013770514
165	0x3c2ee280	0.010674119
166	0x3ba124de	0.004917725
167	0xbb7ef3b4	-0.0038902583
168	0x3a3be7b2	0.0007168009
169	0x3c5be2b9	0.013420754
170	0xbb7690a8	-0.0037622843
171	0xbb1d3c34	-0.0023992183
172	0xbcd3e8e6	-0.02586789
173	0xbb36f6ea	-0.0027918168
174	0x3cc024ee	0.02345511
175	0x3bb5072c	0.0055245366
176	0x3c993054	0.018699802
177	0xbb9e2e63	-0.004827307
178	0x3b49aec2	0.003077433
179	0xbc1d0347	-0.009583301
180	0x3cba71f7	0.02275942
181	0xbbc344dd	-0.005959137
182	0xbbb6fb7b	-0.005584178
183	0xbc9bd2f7	-0.019021494
184	0xbbda9b1a	-0.0066713216
185	0x3b8c61f5	0.0042841383
186	0x3b901029	0.0043964577
187	0x3cca0528	0.024660662
188	0x3c5bf43b	0.013424928
189	0x3ba11504	0.0049158353
190	0x3cd8d570	0.026468962
191	0xbc4b8997	-0.012422941
192	0xbcb9e4d3	-0.02269212
193	0x3c5832d8	0.013195716
194	0x3c8f9fd6	0.01753227
195	0x3bdb2a17	0.006688367
196	0x3b9ca625	0.004780548
197	0xbc5b01d3	-0.013367134
198	0x3c411596	0.011784932
199	0x3c10b328	0.008831777
200	0xbc6894fa	-0.014195675
201	0xbb94363a	-0.004523066
202	0xbc7f5742	-0.015584769
203	0x3c28ac49	0.010294982
204	0x3db99516	0.09061639
205	0xbc863235	-0.016381362
206	0x3c8e871a	0.017398406
207	0xbb8898de	-0.004168614
208	0xbc3e3858	-0.011610113
209	0xbbd224b1	-0.0064130654
210	0x3c5a5834	0.013326693
211	0x3c0608fe	0.008180855
212	0x3bff98a8	0.0078001805
213	0x3bd22f25	0.0064143115
214	0xbc782cdd	-0.015147415
215	0x3c672810	0.014108673
216	0xbc9680f8	-0.018372044
217	0xbc132c73	-0.0089827655
218	0x3ba04a45	0.004891666
219	0x3c96dea1	0.018416705
220	0x3b1ea32c	0.0024206145
221	0xbc336f56	-0.0109518375
222	0xbbe38e21	-0.0069444333
223	0x3c398d65	0.011325215
224	0x3c2baa1d	0.01047757
225	0x3b110eb2	0.0022134003
226	0x3cbbef67	0.022941304
227	0x3a9e699d	0.0012085919
228	0xbc81e704	-0.015857227
229	0x3b94faad	0.0045464844
230	0xbbbaf029	-0.005704899
231	0xbbc2be72	-0.005943113
232	0x3a29c025	0.000647547
233	0xbc0c1acc	-0.008551311
234	0x3b6da005	0.003625871
235	0x3b58d9a8	0.0033088718
236	0xbc47c856	-0.01219376
237	0x3d002eec	0.03129475
238	0xbc2368de	-0.009973733
239	0x3a945d66	0.0011319339
240	0xbdf55828	-0.11979705
241	0x3b44d5e5	0.0030034718
242	0xbb96c0f0	-0.0046006367
243	0x3c8aa8e0	0.016926229
244	0x3ce87bd0	0.02837935
245	0x3c136f84	0.008998755
246	0xbb2c34cd	-0.002627659
247	0xbb9c0594	-0.004761407
248	0xbc0de9d5	-0.008661707
249	0xbbc9c044	-0.006156953
250	0xbc23d0bb	-0.009998496
251	0x3c757d15	0.014983435
252	0x3c3af79b	0.011411573
253	0xbb2919a8	-0.0025802646
254	0x3a91fb17	0.0011137453
255	0x3d3ae3eb	0.045627516
