embeddings/wavlm_large_4_10/b341104e6800a51c2deb6efd48e1798e24161705.npy (npy, 4224 bytes, 1 tensors)

array f4 [1024]
000000 a5 19 c1 3c bf a1 29 3b 84 8c 26 bc 15 d0 e9 3b
       0.023571799 0.0025883762 -0.0101653375 0.007135401
000010 9b 2b f9 3b 5c 93 44 3c 9c 55 1a 3b 77 7a 1c 3c
       0.007604075 0.011998024 0.0023549562 0.009550682
000020 6a e6 3a 3c 67 73 7e 3b 04 68 bd ba 5b f6 df b9
       0.011407474 0.003882611 -0.0014450555 -0.00042717424
000030 c4 9d 5b 3b 99 f2 91 bc b6 40 43 bc c8 92 9b 3b
       0.0033510784 -0.017815875 -0.011917284 0.0047477223
000040 28 3f 3f bb ce db ab 3c 32 5e 28 3c 86 fc 06 3b
       -0.0029181931 0.020978834 0.010276364 0.0020597293
000050 a1 93 1f 3d 79 14 fd 3b ac 1f 59 3c e8 27 2e 3c
       0.03895915 0.007723388 0.01325218 0.010629632
000060 1d 13 85 bc 8c ac 49 3c 44 9a 91 3a 72 8c b0 3b
       -0.016244465 0.012309205 0.0011108597 0.005387836
000070 6f df c6 3b f0 3d 77 bc 57 bf 12 bc 7b ae 51 3c
       0.006069116 -0.015090451 -0.008956752 0.012797947
000080 0c ca 7e 3c 99 95 4f bc d2 7b 84 bb 09 3e 5a bd
       0.015551101 -0.012669944 -0.004043081 -0.053281818
000090 e8 31 6a bc 40 34 fc bb d9 5c 8d 3b d1 7e 27 bb
       -0.014294125 -0.0076966584 0.004314047 -0.0025557766
0000a0 c9 e3 94 3c 6f c4 79 3b 2b c2 17 3c e9 b8 4d bb
       0.018175023 0.0038111468 0.009262602 -0.0031390733
0000b0 53 23 c2 3a 80 a2 75 3c 84 94 76 3b 12 93 1c 3c
       0.0014811553 0.014992356 0.0037625143 0.009556549
0000c0 78 b4 e4 bb d4 8e 42 3c 77 a9 d3 3b 7c 05 89 ba
       -0.0069795214 0.011874873 0.006459411 -0.0010453905
0000d0 8f 65 80 bd da 82 23 3c f2 72 19 bb 28 c5 2d 3b
       -0.06269371 0.009979928 -0.002341446 0.002651522
0000e0 de 08 9d 3a 9f 7a 80 3c b7 0b f4 3b a4 45 35 3c
       0.0011980792 0.01568347 0.0074476856 0.011063967
0000f0 e8 a2 a2 3c 25 15 d8 3b 71 91 3c 3b fe f7 a0 3a
       0.01985307 0.0065943175 0.0028773213 0.0012280939
000100 6d 96 4c bc 65 7a 42 3c 90 05 aa ba 6b 26 11 bb
       -0.012487036 0.011870001 -0.0012971628 -0.0022148143
000110 e2 d3 ad 3b f4 cd da 3b 16 8a 08 bc 15 71 d3 3b
       0.0053047994 0.0066773836 -0.0083337035 0.0064526894
000120 8a 3b 03 bc f5 55 06 bd 91 57 6a 3c 57 7a 40 bc
       -0.008009801 -0.03279682 0.014303104 -0.011747918
000130 c8 0c 8f bb da 20 b4 bb 03 e8 a4 3a c9 ca 33 bb
       -0.0043655373 -0.0054970803 0.0012581352 -0.0027434102
000140 3d 58 a5 bb 8b bc c1 bb cc 65 c7 3c 4a 79 55 3c
       -0.005045919 -0.0059123687 0.024340533 0.013029406
000150 b1 de 6e 3c ed a0 ac 3a 58 38 7b 3c c8 01 11 ba
       0.014579461 0.0013170518 0.015333258 -0.00055315765
000160 15 ae 6f bc 55 f1 a9 bb bb 3a 1b 3b 5f 53 1f 3b
       -0.014628907 -0.0051862397 0.002368613 0.0024311168
000170 e3 69 fe 3b 21 a0 b9 bb c4 49 46 3c 4c 9d ef bb
       0.0077640875 -0.005664841 0.012102548 -0.0073124524
000180 ca 58 22 bc ee e6 94 bc ae cc a3 3b 8c 38 ce bb
       -0.009908864 -0.018176522 0.004998765 -0.006293362
000190 ae a3 8a 3c fc fa 97 ba f5 f9 e9 3c 99 87 d8 bb
       0.016923752 -0.0011595185 0.028561572 -0.0066079614
0001a0 2e ce c8 3b 49 56 61 bb 3a d1 22 3b 06 07 92 3c
       0.006128094 -0.0034383705 0.0024843947 0.017825615
0001b0 97 d1 b0 bb 35 47 dd 3b 10 b6 36 3b 98 ec c3 bb
       -0.005396079 0.0067528733 0.0027879514 -0.005979132
0001c0 ec ba ae bc 62 94 bd b9 2f 2d 0e 3c 36 d3 5b bb
       -0.021329366 -0.00036159443 0.008677765 -0.003354264
0001d0 bd 49 3d bc c8 0f 1d bb 6f 3f a0 bc 97 38 27 3c
       -0.011553225 -0.0023965705 -0.019561497 0.010206363
0001e0 b6 d8 59 3b 43 88 25 3c c2 a4 42 3b 64 5f 69 3b
       0.0033240742 0.010103288 0.0029700254 0.0035609836
0001f0 e2 bd 78 3a 15 c8 ca ba 79 a3 c7 ba ff e8 bb bb
       0.0009488744 -0.0015471006 -0.0015231214 -0.0057345624
000200 0f 09 15 3c d6 e2 85 bc f2 9c 24 ba e1 52 b8 3a
       0.009096398 -0.016343515 -0.000627949 0.0014062786
000210 2f 94 31 3c 91 72 44 bc 72 d6 1f 3c 6c 3a 36 3d
       0.010838552 -0.011990205 0.009755718 0.04448931
000220 42 12 8f ba 92 72 84 bd af e1 e8 bb 0e a3 60 bb
       -0.0010915475 -0.06467165 -0.0071069817 -0.0034276876
000230 a1 a3 9d 3a 14 1a 1d 3c 7f 87 5a bc f7 4c 90 bb
       0.0012026915 0.009588737 -0.013337969 -0.004403706
000240 e0 38 b3 3a 2a eb 92 bb 0b 11 4a ba a5 60 d4 bc
       0.0013673566 -0.0044836 -0.0007708228 -0.02592499
000250 44 cb fe 3c 94 6a ec bb c9 71 8a 3b ff 7b 04 bc
       0.031102784 -0.0072148535 0.00422499 -0.008086204
000260 30 69 26 3c f7 47 2d 3d 93 3e ae 3b 23 01 3f bb
       0.010156915 0.04230496 0.005317518 -0.0029144965
000270 67 36 3e b9 96 cc 54 3c 19 3e 1f 3c c2 0e cd bb
       -0.00018140078 0.01298823 0.009719395 -0.006257863
000280 b6 bc 3e 3c 59 f6 80 b9 fb 23 77 3c d2 ad 37 3c
       0.011641672 -0.00024597606 0.015084262 0.011210876
000290 fa 35 8f 3c b1 74 1b bc 46 04 b7 b9 60 05 70 3b
       0.017481793 -0.009488271 -0.00034907664 0.0036624297
0002a0 c4 30 db 3b a9 3d e3 3c 82 db 76 bb 3b 19 38 bb
       0.006689163 0.027739363 -0.0037667458 -0.002809121
0002b0 ca 17 9a bc c3 b3 e5 bb 76 81 44 3c da 9f fb 3b
       -0.018810172 -0.0070099547 0.0119937565 0.007678968
0002c0 88 d2 59 3b a7 01 00 bb 0b 8b 37 bc 93 eb be 3a
       0.0033237059 -0.0019532235 -0.011202584 0.0014566056
0002d0 0e 3e 98 3c 21 f7 ab ba 4c 57 87 ba 7f 80 1b bc
       0.018584277 -0.0013119915 -0.0010325699 -0.009491085
0002e0 8b 29 5e 3c 91 0d 18 3c 96 1e 2b 3b 97 6d 1d 3d
       0.013559709 0.009280578 0.002611076 0.03843459
0002f0 22 75 0d 3d 6a f2 f8 3c 10 1d 10 3c 22 9b 23 bb
       0.034535535 0.03038903 0.008795992 -0.0024964293
000300 84 1b df bc b2 ae a0 3a 96 4d 6e bb 6b 45 59 bb
       -0.0272348 0.0012259095 -0.0036362163 -0.0033152949
000310 63 93 d0 3c ae c4 0c bc 3c 96 87 3b 2b 0a 85 3c
       0.025460904 -0.008591814 0.0041377824 0.0162402
000320 11 3b 7b 3d b1 44 e7 ba 86 5e 6f ba ea 04 b2 3b
       0.061335627 -0.0017644373 -0.00091312116 0.0054327147
000330 40 aa b7 bc 2c 82 f5 39 05 1e 32 3c 2b 8f ab 3a
       -0.022420049 0.00046827027 0.010871415 0.0013088932
000340 2f 30 ea bb d1 ab ce 3b 01 93 62 bb 98 18 a9 b9
       -0.007146857 0.006307103 -0.0034572484 -0.00032252516
000350 c7 a7 8c bb 2f c7 3f 3c 60 93 ac 3b 28 63 41 3c
       -0.0042924616 0.011705204 0.005266592 0.011803426
000360 8d 89 b2 bb 51 76 c2 bc b2 f5 c6 bb 73 08 6f 3c
       -0.0054485262 -0.023738058 -0.0060717696 0.014589417
000370 c3 27 99 bb c7 5a 6e 3c b7 6d 2e bb f6 42 69 3b
       -0.0046739294 0.01454801 -0.0026615688 0.003559289
000380 60 32 cb b9 a1 d7 ec 3b b3 79 81 3c c4 36 87 3b
       -0.0003875671 0.0072278534 0.015805101 0.0041264016
000390 ec f4 ec b9 bb bc f2 3a a3 c0 d5 bb 82 9f 3b 3c
       -0.0004519591 0.0018519381 -0.006523208 0.011451604
0003a0 e2 d1 de 3b 3e cc a2 bc 5e 5d 85 39 99 1c c7 bb
       0.0067999223 -0.01987278 0.000254373 -0.006076407
0003b0 1d 3e 9a bb 22 f9 ab 3c 2c 8c 53 bc d8 f6 49 bc
       -0.0047071115 0.02099282 -0.012911838 -0.012326919
0003c0 5d 53 08 be 46 88 83 bb 43 d3 7c 3c 8a fc 0e bb
       -0.1331305 -0.004014048 0.015431228 -0.0021818005
0003d0 5f 72 62 3c 08 d3 9e 3b 9d 58 3d 3b d1 6d 06 bd
       0.0138212135 0.004846934 0.002889193 -0.032819573
0003e0 cb f2 9e 3b f1 e0 98 ba dc de ad bb ab c8 04 3c
       0.0048507205 -0.0011663717 -0.005306108 0.008104484
0003f0 12 19 19 3a 54 75 61 bb b7 44 70 3b 02 ec a6 bc
       0.00058402226 -0.0034402208 0.003666205 -0.02037621
