embeddings/wavlm_large_4_10/b41060b903738d5913f90a5389874ce85f6f37d8.npy (npy, 4224 bytes, 1 tensors)

array f4 [1024]
000000 ee 89 b3 3c 02 bb 96 bb 2c b8 10 bc 3c 11 50 3c
       0.021916356 -0.00459993 -0.0088329725 0.0126994215
000010 d3 c3 5d 3c d4 99 94 3c ec 26 f6 3b 64 29 31 3c
       0.013535458 0.018139757 0.007511964 0.010813091
000020 d8 12 0b 3c 61 8b 8c 3c 29 a6 06 bc 29 c7 4e bc
       0.008488379 0.017156305 -0.008218327 -0.012620726
000030 f7 da 71 3b cd 48 19 bd 10 4d 4a bc 12 29 cb 3b
       0.0036904195 -0.037422944 -0.012347475 0.0061999643
000040 73 b2 ca 3b 4f 2a c3 3c 44 cf f9 3b 21 df d5 3b
       0.0061858236 0.023823885 0.007623585 0.006526843
000050 f1 2d 40 3d 34 ae ea 3b 76 75 21 3c c2 af a3 3c
       0.046918813 0.00716188 0.009854665 0.019981269
000060 a1 49 19 bc a3 f4 32 3c 85 64 a7 ba 21 75 79 3b
       -0.009355933 0.010922584 -0.0012771046 0.00380642
000070 8f 99 45 3c a6 4f 81 bb 4c e1 11 bc 28 e6 8a 3b
       0.012060537 -0.0039462624 -0.008903813 0.0042388625
000080 52 45 7d 3c 0c 9f 70 bc df 91 c0 3a 4c fe f6 bc
       0.015458422 -0.014686357 0.001469191 -0.030150555
000090 07 2c 10 3c aa 75 bc bc 82 70 81 3b b4 fb 5b bc
       0.008799559 -0.023005325 0.0039501796 -0.01342671
0000a0 a6 2f a4 3c 42 1a 48 3c 47 7b c5 3b 21 a3 96 bb
       0.020042252 0.012213292 0.0060266587 -0.004597083
0000b0 b5 de b4 3b 84 b2 0e 3c 45 ff 02 3c 95 2f 86 3b
       0.005519713 0.008709554 0.007995431 0.0040950277
0000c0 13 f0 6d bc cd 25 94 3c 7a 80 22 ba 3e 57 22 3c
       -0.01452257 0.018084431 -0.0006198954 0.0099084955
0000d0 a2 2c fd bc ba e7 b6 3c 62 1e 07 3b 65 89 bb 3b
       -0.030905072 0.022327293 0.0020617475 0.005723166
0000e0 98 46 c3 3b c0 88 6e 3c 11 62 c3 3b c7 fc 0e 3c
       0.005959343 0.014558971 0.005962618 0.008727259
0000f0 a2 01 ee 3c ae ad 39 3b e8 85 c3 3b 94 0f bf 39
       0.029053513 0.002833228 0.0059668906 0.00036441965
000100 c5 f3 2a bc bf 76 d7 bb f7 39 c5 bb 5c c2 a9 39
       -0.010434096 -0.006575435 -0.006018873 0.00032379
000110 0e 5b 5a 3c 18 15 c1 38 05 6c 0d bb 2c e2 ba 3b
       0.013327373 9.206886e-05 -0.0021579277 0.0057032313
000120 bd cb 94 3b 35 81 1e bd 8e f6 64 3c d1 d7 24 bc
       0.004540889 -0.03869744 0.013974799 -0.01006122
000130 20 a3 8b bb 99 65 61 bc 30 bb 54 ba cf 00 15 bc
       -0.0042613894 -0.013757133 -0.00081150513 -0.009094431
000140 0e e2 2c bc d8 45 e4 3a 04 ab a2 3c 82 cc 4e 3b
       -0.0105519425 0.0017415835 0.019856937 0.0031555002
000150 5d 78 c6 3b 11 f7 83 3b 76 b3 68 3c c7 1e 60 ba
       0.006056829 0.0040272553 0.014202943 -0.0008549508
000160 52 48 52 bc d8 62 91 3a 52 9a 16 3c c9 26 25 3c
       -0.012834625 0.001109208 0.009192066 0.010080048
000170 36 52 09 3c 3d 85 a3 37 09 88 25 3b b3 9b 00 3c
       0.008381417 1.9493158e-05 0.0025258085 0.007849622
000180 cd fc e0 3a ef f6 e5 bb 40 ca 1c 3c 12 71 8f bc
       0.0017165184 -0.007017962 0.0095697045 -0.01750997
000190 e7 67 4f 3c 8e 7a 3d bc 1a 58 0c 3d 8a 42 87 bb
       0.01265905 -0.011564864 0.034263708 -0.004127805
0001a0 75 ff 37 3c 32 e5 f9 bb e7 05 fb b8 2b 87 74 3c
       0.011230339 -0.007626199 -0.00011969712 0.014924805
0001b0 3b e0 2d ba 80 97 0d 3c ec 59 40 3b e6 80 05 3b
       -0.0006632839 0.008642077 0.0029350473 0.002037102
0001c0 90 23 5e 3a 56 4a f6 3b 53 9e 6a 3b b7 5a 38 b9
       0.0008473927 0.0075161858 0.0035799935 -0.00017581401
0001d0 77 42 73 bc f0 a6 49 3b 03 0b bf bb 19 31 e8 3b
       -0.014847389 0.0030769669 -0.00583017 0.007085931
0001e0 66 aa 0b 3b bd ca 40 ba 56 6f 18 3c 66 a9 27 bb
       0.0021311282 -0.0007354429 0.009303888 -0.0025583147
0001f0 7b e1 1d bc a6 c4 4c 3a 4b 4f f3 bb 14 85 30 3b
       -0.009636278 0.00078112853 -0.007425224 0.002693479
000200 7d f1 14 bc e6 52 a8 bc b0 22 43 3c e9 e0 1f 3b
       -0.009090778 -0.020547342 0.011910126 0.0024395532
000210 92 cc 5a 3c 2f 92 55 3a 00 3e a5 3b c6 1d 15 3d
       0.013354437 0.0008147088 0.0050427914 0.036405347
000220 bc d6 a8 ba 9a 57 87 bd ac 75 19 3b a8 11 b9 3b
       -0.0012881379 -0.066085055 0.0023416085 0.0056478567
000230 e3 a0 ae 38 57 50 2f 3c 8b 76 d8 bb 3e 72 04 bc
       8.326934e-05 0.010700307 -0.0066059283 -0.008083878
000240 56 d1 ff b8 0e a3 0e 3c 81 1e a8 ba 92 30 93 bc
       -0.000121983394 0.008705867 -0.0012826474 -0.017967496
000250 2e 1a 0e bd c2 d5 3d ba 69 e3 20 bc 39 34 a0 bb
       -0.034692936 -0.000724163 -0.009819844 -0.004889038
000260 70 42 97 3c 33 28 2b 3d 5c 9d 2d 3c 07 01 06 3c
       0.018464297 0.041786384 0.010596599 0.008178956
000270 34 82 1a 3c 82 e9 9f 3c af ac b6 3c 5a 8d aa bc
       0.009430457 0.019520525 0.022299139 -0.020819355
000280 c1 6a bb 3b 53 b5 80 3a cc 0c 2f 3c 70 39 24 3c
       0.005719513 0.0009819664 0.010684203 0.01002346
000290 ce f1 b5 3c e3 9d fc 3b 61 f7 9f 37 5f 2f 42 3c
       0.022210028 0.0077092513 1.9069472e-05 0.011852114
0002a0 08 e1 7b 3c c2 c4 de 3b 35 e5 30 bc fd f1 0c bb
       0.015373476 0.0067983577 -0.010796835 -0.002150654
0002b0 11 5c 12 bd e3 79 e4 bb e9 ef b8 3c 5a 0a b2 3c
       -0.035732333 -0.006972538 0.022575336 0.021733452
0002c0 3e ca 8b 3c dd 56 ce 39 94 2b e3 3c ae a4 85 3b
       0.01706421 0.000393561 0.02773074 0.0040784692
0002d0 9c d8 95 3c 16 ba 6f bb 65 2c 73 3b ef 7d 49 bc
       0.018291764 -0.0036579422 0.0037105319 -0.012298091
0002e0 11 aa ce 3b 13 d1 19 3c c3 50 5a 3b d7 41 9e 3c
       0.0063068946 0.009388226 0.0033312298 0.019318504
0002f0 c8 84 09 3b cc 4e ae 3c 2d a0 67 3c 96 81 c3 ba
       0.0020983685 0.021277808 0.01413731 -0.0014915939
000300 19 ff c1 bc c2 12 0c ba 7b 4b aa 3b 32 b1 a9 3b
       -0.02368121 -0.00053433713 0.0051969863 0.005178594
000310 94 1b 8f 3c c3 25 0b bc 5c f9 79 ba d9 d7 26 3c
       0.017469205 -0.00849289 -0.00095357536 0.010183298
000320 c4 e6 89 bb f3 81 e6 bb 86 a7 12 bc 20 df d2 3c
       -0.0042084176 -0.007034534 -0.0089510735 0.02574116
000330 af 3a 70 3b 9a 8b b4 3a 2f 1a 4a 3c b9 60 9b 3b
       0.0036656072 0.0013774515 0.012335344 0.004741755
000340 c4 38 43 bb b8 58 df bb e0 92 9c bb 76 47 17 bb
       -0.0029788474 -0.006815996 -0.004778251 -0.0023083366
000350 a7 7b 5e 3b 23 af 16 3c b7 ad d4 bc 35 c8 a9 b9
       0.0033948214 0.009197029 -0.02596174 -0.00032383358
000360 51 e4 d4 bb cf 5b 56 bc cc ab 70 3b df 73 1a 3c
       -0.006496944 -0.013083412 0.0036723493 0.00942704
000370 fa 65 02 3b 29 74 94 3b f3 a7 7c bb 1b 9e 9c 3c
       0.0019897209 0.004530449 -0.0038552254 0.01911836
000380 bb 2a 89 ba fd 55 0d 3a d7 a2 dc 3b 72 90 4f 3b
       -0.0010465005 0.00053915364 0.006733279 0.003167179
000390 28 2f 21 bc 12 95 01 3c 1c de 26 3c 8c 82 9b 3b
       -0.009837903 0.007909076 0.010184791 0.004745787
0003a0 be fc a5 bb ac b7 d3 bc ad 6a 66 3b ff 15 e6 3a
       -0.0050655296 -0.025844418 0.0035158799 0.0017554163
0003b0 d1 06 22 bc 3e c6 19 3d 61 fb 53 bb 78 fa 1b bc
       -0.0098893205 0.037542574 -0.0032345878 -0.009520166
0003c0 ef 49 f2 bd c1 37 62 bb 9d a5 51 3b 57 93 4b 3c
       -0.11830508 -0.0034518095 0.0031989582 0.012425265
0003d0 1c 7a 4d 3c 1e 5a 36 3c e3 1e 21 3c 8b 7d d5 bb
       0.01254132 0.011129884 0.009834024 -0.00651521
0003e0 fd 5d d5 3b af 9e 94 3a a6 fb 2e 39 5a 47 8a bb
       0.0065114484 0.0011338795 0.0001668768 -0.0042199316
0003f0 80 80 e5 3a 41 57 42 3a 2b ad 2f 3b c6 37 6e bd
       0.001750961 0.00074135145 0.0026806097 -0.05815866
