embeddings/wavlm_large_4_10/b665571a2e5a109d10022b7630185f8b9bd7e478.npy (npy, 4224 bytes, 1 tensors)

array f4 [1024]
000000 fe 3c ad 3c 53 d8 b1 39 40 50 82 bc 0c d4 70 3c
       0.021147247 0.00033921245 -0.015907407 0.014698993
000010 f1 3b 66 3c 53 4e 92 3c 24 69 f5 3b 45 2e 6c 3c
       0.014052377 0.017859614 0.0074893404 0.014415328
000020 1d ea 63 3c 45 4e 2f 3c 5e 77 fa b8 97 d9 d5 bb
       0.013910797 0.010699813 -0.00011943163 -0.006526183
000030 5d 25 fb ba 25 56 c2 bc b0 5a 85 39 19 7d e7 3a
       -0.0019160915 -0.023722718 0.00025435304 0.0017661183
000040 45 ff 43 3b c2 c8 4f 3c 90 77 d0 3b e0 d0 1d 3b
       0.0029906791 0.012682142 0.006361909 0.0024080798
000050 f9 df 1b 3d 6c f6 44 b9 fa 6a d6 3b c0 19 bb 3c
       0.038055394 -0.00018783816 0.0065435143 0.022839427
000060 34 31 0c bc ce d6 25 3c 7c 65 32 bb 80 3a d3 ba
       -0.008556653 0.010122014 -0.0027221134 -0.0016115457
000070 e5 8a 15 bb 2c 11 19 bb 37 7a 27 bc ee b2 16 3c
       -0.0022818383 -0.0023356183 -0.010222009 0.009197934
000080 95 22 84 3b ed 90 a2 bc ee b7 a2 3b 4d 4c d3 bc
       0.004032443 -0.019844497 0.004965774 -0.025793219
000090 b5 6e 91 3b 3d 97 ae bc 1b 07 5c bb 78 42 a0 bc
       0.004438246 -0.02131235 -0.003357357 -0.019562945
0000a0 ce 66 20 3c 45 41 a6 bb 59 28 b1 3b c4 e3 43 bc
       0.009790136 -0.0050736987 0.005406421 -0.011956159
0000b0 10 d5 5e bb bf 5b 89 ba 49 61 80 3b 78 7b a8 ba
       -0.0034001507 -0.0010479613 0.0039178473 -0.0012854179
0000c0 ba 6f 70 bc f5 9e 5d 3c 1f 68 82 bb 6b 57 77 3b
       -0.014675075 0.013526668 -0.0039796974 0.0037741314
0000d0 f8 05 3e bc d2 73 6b 3c 6f cf e5 3a 69 1e 88 3c
       -0.011598103 0.014370875 0.0017533134 0.016616063
0000e0 69 0c 11 3c e7 55 b9 3c 20 f1 dd bb 97 c8 b1 3b
       0.0088530565 0.02262397 -0.006773129 0.0054255235
0000f0 b9 31 bd 3c c6 87 02 3b 1f 24 9e ba b6 3b ed 3a
       0.023094999 0.0019917353 -0.0012065208 0.001809946
000100 43 da 19 bc fb 0d e3 bb 7a 04 34 bc f7 4f 09 bc
       -0.009390417 -0.006929157 -0.010987395 -0.0083808815
000110 ad 4e 21 3c 8d a1 88 ba 3f 92 74 bb 81 e3 5d ba
       0.009845418 -0.0010424122 -0.0037318615 -0.00084643817
000120 1d bf 4c bb 5b 1d 14 bd 8b 19 84 3c cd de cd bb
       -0.0031241842 -0.036160808 0.016125461 -0.0062826634
000130 14 85 2f bc 0a 9a ae bb c9 81 30 b9 6f 9e 70 ba
       -0.010712881 -0.0053284215 -0.00016833017 -0.0009178882
000140 88 88 5e bc 92 ea 07 3a 4d 24 8e 3c f7 4c 3f ba
       -0.013582356 0.0005184795 0.017351294 -0.00072975404
000150 01 72 ef 3b 92 67 7f 3b 94 85 24 3c ee aa 10 ba
       0.0073072915 0.0038971645 0.010041613 -0.00055186346
000160 d8 df 5c bc c6 c9 21 38 c3 04 1e 3c 2b bb 06 3c
       -0.013481103 3.8573307e-05 0.00964469 0.008223335
000170 25 fe 5d 3c 27 f2 aa bb 18 55 08 3b ec e9 f3 3b
       0.013549362 -0.005216855 0.0020802673 0.007443657
000180 8c dd a7 bb d6 60 41 bc c8 fa 39 3c 94 83 9e bc
       -0.005122846 -0.011802873 0.011351295 -0.01934985
000190 04 a1 70 3b 81 1c c1 bb 71 29 cc 3c a5 96 a6 bb
       0.0036717067 -0.0058932905 0.024922105 -0.005083876
0001a0 fb 26 32 3c 74 09 93 bc a0 f0 ad 3b f4 6c 8b 3c
       0.0108735515 -0.017948844 0.0053082258 0.017019726
0001b0 d0 aa a7 3b 63 17 5f 3b 12 bf 19 3a 62 bd 6d 3b
       0.005116798 0.003404104 0.00058649585 0.003627621
0001c0 a2 a7 20 b9 68 17 2a 3c a5 7c 3b 3b c6 e3 34 3a
       -0.00015321237 0.010381557 0.002860823 0.0006900396
0001d0 e7 bf 71 bc ba d5 96 ba c9 98 df bb 57 f9 34 3c
       -0.014755226 -0.0011507787 -0.0068236333 0.011045775
0001e0 68 ac be 3b 74 f3 0b 3a 72 85 0c 3c e9 9f 99 bb
       0.0058188923 0.00053387065 0.008576738 -0.004688252
0001f0 af 81 1b bc 57 43 e4 bb e3 01 af bb e7 fc 99 bb
       -0.009491368 -0.0069660353 -0.005340801 -0.0046993378
000200 e0 40 59 bb 10 3f 68 bc 91 57 85 3c 84 8c a7 bb
       -0.003315024 -0.0141751915 0.016277106 -0.0051131863
000210 86 0d 6b 3c 9f fc 5e 3b e8 50 de 3b 39 7a 08 3d
       0.014346486 0.0034025086 0.006784547 0.033319686
000220 08 23 b3 bb d2 3a be bd dc 1c ee ba 06 81 cb 3b
       -0.0054668225 -0.09288563 -0.001816656 0.006210449
000230 c7 54 63 3b fa a3 ab 3b fb 68 84 ba 03 d5 f7 bb
       0.0034687982 0.0052380534 -0.0010102087 -0.007563235
000240 99 d8 a3 bb 7c 77 d9 39 88 b6 24 3a 7d b1 41 bc
       -0.0050001857 0.00041478488 0.0006283303 -0.011822102
000250 48 83 94 bc f9 bc 13 bc cc ba b1 ba 7e ec be 37
       -0.018129006 -0.009017223 -0.0013559698 2.275989e-05
000260 69 9c a9 3c 14 c6 9f 3c 27 e4 9d 3b 0d cc 89 3c
       0.020704465 0.01950363 0.0048184576 0.016820932
000270 4a 55 09 3c 11 80 28 3c 7a 2e 00 3d 81 e4 7f bc
       0.008382151 0.01028444 0.031294324 -0.015618444
000280 2d 08 2c 3c e2 4b a8 3b 06 1c 68 3c 9a d8 fd 3b
       0.010499996 0.005135999 0.014166838 0.007746768
000290 ec ba 84 3c ae 4b c6 ba 5f c0 5b 3b 35 66 a9 3b
       0.016202413 -0.0015128755 0.003353141 0.0051696547
0002a0 f7 0d 19 3c 01 77 d7 3b d0 10 9f bb 42 65 c0 3b
       0.009341708 0.0065754657 -0.004854299 0.005871446
0002b0 ac 15 f7 bc f3 24 2c bc a1 87 56 3c 08 6d 64 3c
       -0.030161701 -0.010506856 0.01309386 0.013942011
0002c0 a9 aa b3 3c 45 42 d8 b9 e1 92 9e 3d 06 62 61 3b
       0.021931963 -0.00041248105 0.07742859 0.0034390702
0002d0 52 df 3b 3c 97 aa 04 bc c5 cd bd 3a 1e a6 b3 bc
       0.011466818 -0.008097312 0.001448088 -0.021929797
0002e0 76 33 96 3b ca 17 c6 3b d4 fb 3d 3c a4 89 62 3c
       0.0045837713 0.0060453163 0.011595685 0.013826761
0002f0 64 a0 7f 3b 02 d9 9e 3c b8 4e 7f 3c e6 04 5f 3b
       0.0039005512 0.019390587 0.015582733 0.003403002
000300 cd 2b 9a bc cb 40 03 3c c6 96 8d 3a fc da 63 3b
       -0.018819714 0.008011053 0.001080238 0.0034767976
000310 84 60 f1 3b ca ad 89 bc 95 bc e2 3b 5e d5 c4 3b
       0.007366242 -0.016806502 0.0069194534 0.0060068807
000320 f0 29 7c 3c f9 ee fd b9 69 84 72 bc 96 11 de 3c
       0.015390858 -0.0004843397 -0.014802077 0.027107995
000330 44 38 72 3d 76 48 cc 3a 3e a8 01 3c 92 c8 0e bc
       0.05913569 0.001558556 0.007913647 -0.008714812
000340 ba d4 12 bc 8f 48 d9 ba b7 8a 03 bc b4 e1 39 bb
       -0.008961851 -0.001657741 -0.008028678 -0.002836329
000350 1d ae d1 3b 4d 15 46 3c 1a 16 e3 3c 28 53 a4 3a
       0.0063989297 0.012090039 0.0277205 0.001253699
000360 8f 41 e1 ba f9 e7 3c bc 2b 22 06 3b 7d 24 37 3c
       -0.0017185676 -0.011529916 0.0020467143 0.011178133
000370 5d b9 d0 3b 93 1a 96 3b 4a 8d 20 bc 40 18 49 3c
       0.0063697533 0.0045808046 -0.009799311 0.012273848
000380 1c c0 6d ba 2c 81 83 3b 3a 13 25 3c c2 e5 d1 bb
       -0.0009069459 0.004013201 0.010075385 -0.006405563
000390 25 ef 81 bc 15 18 02 bb 07 0d 85 3b 8e 0c a8 3b
       -0.015861103 -0.001985078 0.004060391 0.0051284498
0003a0 48 fe 72 bb 69 bd fc bc ff df 1f 3b d9 81 14 3b
       -0.0037077833 -0.030852037 0.0024394987 0.0022660403
0003b0 02 a9 3c bc 27 fd b9 3c ab d1 20 bc 7d 5d 80 bc
       -0.011514904 0.02270372 -0.009815614 -0.015669579
0003c0 91 b3 e9 bd 1d 89 ce 3b 7a c0 f2 3b 2c e4 91 3c
       -0.11411203 0.0063029663 0.007408199 0.017808996
0003d0 1b 70 c6 3c 5d 94 21 3c 03 78 ef 3b 21 7f b0 bc
       0.024223378 0.009862033 0.0073080077 -0.021544995
0003e0 9d f3 99 b9 63 6e 7e bb 02 08 27 3b 59 be 5b bb
       -0.0002936394 -0.003882312 0.002548695 -0.0033530204
0003f0 45 b2 3c bb 62 1b 53 ba cb ce 8e bc 8c a3 26 bd
       -0.002879278 -0.00080530916 -0.017432591 -0.040683314
