embeddings/wavlm_large_4_10/b7d4c75b9cccd7b505bd5be22904b0e27410c72c.npy (npy, 4224 bytes, 1 tensors)

array f4 [1024]
0	0x3c40fdc6	0.011779254
1	0x3bd02246	0.006351742
2	0xbc24306d	-0.010021311
3	0x3a134b8e	0.00056188635
4	0x3c17e0d9	0.009269916
5	0x3c515afa	0.012778038
6	0x3ae22517	0.0017253485
7	0x3c34ff40	0.0110471845
8	0x3bd7737d	0.0065750466
9	0x3a825a38	0.00099451
10	0xba04fbbe	-0.0005072913
11	0xbbe819f0	-0.00708317
12	0x3b1eb532	0.0024216888
13	0xbd42b915	-0.04753979
14	0xbc90f489	-0.017694728
15	0x3ba57aa2	0.0050500194
16	0x3a4e5d65	0.0007872193
17	0x3d01c646	0.03168323
18	0x3bac0d9b	0.0052506453
19	0x3bc06efb	0.005872605
20	0x3d3196a8	0.043356568
21	0x3b4e6ce7	0.0031498016
22	0x3c3272cb	0.010891627
23	0x3c9a66df	0.01884788
24	0xbbbef09b	-0.0058270223
25	0x3c69c772	0.014268743
26	0x3b78ddff	0.0037974117
27	0x3ba72342	0.0051006386
28	0x3c0a2a6f	0.0084329685
29	0xbc81976b	-0.015819272
30	0xbc07c614	-0.008286972
31	0x3c439929	0.011938372
32	0x3c442dbb	0.011973794
33	0xbbfbc159	-0.007682961
34	0x3b0a4496	0.002109801
35	0xbd3ef837	-0.046623435
36	0xbc5278ab	-0.012846152
37	0xbc1dd3df	-0.009633034
38	0x3a945d43	0.0011319298
39	0xbc055e8d	-0.008140218
40	0x3c80a559	0.015703844
41	0x3c31ede1	0.010859937
42	0x3c4b2b7e	0.012400506
43	0xbc174a48	-0.009234019
44	0x3bd2212b	0.0064126453
45	0x3c76a6e7	0.015054441
46	0x3c05acb0	0.008158848
47	0x3c6449b7	0.013933591
48	0xbc090063	-0.008361909
49	0x3c4d7c84	0.012541894
50	0x3c11b090	0.008892193
51	0x3a823ddc	0.0009936648
52	0xbd381423	-0.04494108
53	0x3c50bb00	0.012739897
54	0x3c9fba46	0.019498002
55	0x3a030c04	0.0004999044
56	0x3bb039ec	0.0053779986
57	0x3c0356ed	0.00801633
58	0x3bd7e1a6	0.0065881787
59	0x3c647f76	0.013946405
60	0x3c684cce	0.014178468
61	0xbacaaf8e	-0.0015463696
62	0x3c30f1ce	0.010799838
63	0x3b555383	0.0032550998
64	0xbc60a2c0	-0.013710678
65	0x3bdc57fa	0.006724355
66	0x3c4aeda5	0.01238576
67	0x3bfab90f	0.0076514552
68	0x3bd87988	0.0066062845
69	0x3a803ddf	0.0009784064
70	0xbba1f2ab	-0.0049422584
71	0x3c224e14	0.009906311
72	0x3b7e5268	0.0038806442
73	0xbce99d4c	-0.028517388
74	0x3c6033e7	0.0136842495
75	0xbc110abd	-0.008852658
76	0xbbb1c2bf	-0.005424827
77	0x3be79f6b	0.0070685646
78	0x3a6b5e57	0.00089785963
79	0xbbc93046	-0.006139788
80	0xbbf99b54	-0.0076173935
81	0xbb4d4881	-0.0031323733
82	0x3c8fd02f	0.017555324
83	0x3c6893e9	0.014195421
84	0xbb15f031	-0.002287876
85	0x3aaee428	0.0013343142
86	0x3c8ff6b1	0.017573686
87	0x3b22b3d4	0.0024826424
88	0xbbbb3e08	-0.005714182
89	0xbb563d65	-0.0032690403
90	0x3afccac2	0.0019286501
91	0x3bb4c8c5	0.0055170977
92	0x3bd0a605	0.0063674473
93	0xbb08396b	-0.0020786177
94	0x3c639961	0.013891549
95	0x3be8609d	0.0070915953
96	0xbb55427c	-0.0032540848
97	0xbc83bb0c	-0.016080402
98	0x3ba429fd	0.005009888
99	0xbb480b23	-0.0030524216
100	0x3caef87d	0.021358723
101	0x3ae517c0	0.0017478392
102	0x3d065fc8	0.032806188
103	0xbb959fee	-0.0045661842
104	0x3b98476b	0.0046471856
105	0x3b109992	0.0022064191
106	0x3adadaf8	0.0016697338
107	0x3ccae820	0.024768889
108	0x3999b450	0.00029316777
109	0x3c691b97	0.014227769
110	0x3b979a96	0.0046265824
111	0x3ad5af07	0.0016302773
112	0xbbdcd873	-0.00673967
113	0xbc15f40d	-0.0091524245
114	0xba784b23	-0.00094716455
115	0xbb887afa	-0.0041650506
116	0xbc5266f0	-0.012841925
117	0x3b9e00c6	0.0048218695
118	0xbb8cc5bb	-0.0042960322
119	0x3c1da54d	0.00962193
120	0x3b122142	0.0022297655
121	0x3b6888e8	0.0035481993
122	0x3bdb5b8f	0.0066942642
123	0x3a2485a7	0.0006276019
124	0x3b54e2b9	0.003248377
125	0xb8a19e29	-7.706538e-05
126	0xbb740087	-0.003723176
127	0x3b16db47	0.0023018883
128	0x3c368452	0.011139946
129	0xbce3449e	-0.02774268
130	0x3b3f47a1	0.0029186981
131	0x3b474cea	0.0030410835
132	0x3c4ca7f9	0.01249122
133	0xbc43305a	-0.011913383
134	0xbb4f265f	-0.0031608564
135	0x3d20d4f2	0.03926558
136	0xbb65f03a	-0.0035085813
137	0xbd509d3d	-0.050931204
138	0xbbe42c7a	-0.00696331
139	0x3b274f3e	0.002552941
140	0xba927220	-0.0011172928
141	0x3c31c86e	0.010851009
142	0xbc6b21c2	-0.01435131
143	0xbbad7d67	-0.00529449
144	0xbaf230b9	-0.0018477655
145	0xbc82023b	-0.015870204
146	0xbb0c5bdc	-0.0021417057
147	0xbcbac452	-0.022798691
148	0xbd249886	-0.04018452
149	0xbbd6fc0e	-0.006560809
150	0xbaf1ae0a	-0.0018438709
151	0xbc5110f5	-0.0127603905
152	0x3ccea26e	0.025223937
153	0x3d31cf86	0.0434108
154	0xba4c4bd8	-0.0007793284
155	0xbc4b1736	-0.012395671
156	0x3a0745bb	0.0005160232
157	0x3c4be653	0.01244505
158	0x3c76b88d	0.015058649
159	0xbc3ce96f	-0.011530264
160	0x3c11f56b	0.00890861
161	0x3c136131	0.00899534
162	0x3c35796a	0.011076311
163	0x3cb71549	0.022349017
164	0x3cacaf6c	0.021079741
165	0x3914215a	0.00014126804
166	0xbb20e9c3	-0.0024553395
167	0x3a795526	0.00095112843
168	0x3c9666fe	0.018359657
169	0x3c8cf219	0.017205285
170	0xbbca886b	-0.006180813
171	0x3bdc2776	0.0067185713
172	0xbcd1d392	-0.02561358
173	0xbb852877	-0.0040636617
174	0x3c959a26	0.01826198
175	0x3c479a28	0.01218275
176	0x3bd49450	0.006487407
177	0x3ac2a30a	0.0014849615
178	0xbcac1ad9	-0.021008896
179	0x3a4573e6	0.0007532224
180	0x3c96fe9e	0.018431958
181	0xbb9e6d37	-0.004834797
182	0xbbf16039	-0.007366207
183	0xbc43372b	-0.011915009
184	0x3c0d088a	0.008607993
185	0x3abb5eb7	0.0014295195
186	0x3baf23bb	0.0053448356
187	0x3cc22b3e	0.02370226
188	0x3cd8ff53	0.026488936
189	0x3c9b8354	0.01898352
190	0x3c9f9651	0.019480856
191	0x380d6cf6	3.3718497e-05
192	0xbcc9eb5f	-0.024648366
193	0x3c051a5c	0.00812396
194	0x3bc98d72	0.006150895
195	0x3b319611	0.0027097503
196	0x3c9856e0	0.018596113
197	0xbc242a6a	-0.010019878
198	0xbbc89475	-0.006121213
199	0x3c1d7923	0.009611401
200	0x3c1c484c	0.009538721
201	0xbb4b83f3	-0.003105399
202	0xb98d80b1	-0.00026989498
203	0x3b4cd17a	0.0031252787
204	0x3cda3c4c	0.02664008
205	0xbb1a8aa4	-0.0023581171
206	0x3c4abf0b	0.01237465
207	0x3bb78150	0.005600132
208	0xbc37bc71	-0.0112143615
209	0xbbcbc6d2	-0.0062187696
210	0xbb200ec8	-0.0024422873
211	0x3b80c03a	0.003929165
212	0x3be632a2	0.007025079
213	0x3a8d585a	0.0010783777
214	0x3bce4f6b	0.0062960885
215	0x3bbd18f6	0.005770798
216	0xbb32259f	-0.0027183068
217	0xbc85f84e	-0.016353752
218	0x3aa391e9	0.0012479398
219	0x3c1f0cca	0.009707639
220	0xbb89e54f	-0.004208244
221	0x3c56649b	0.01308551
222	0xbb395092	-0.0028276783
223	0x3b4cf344	0.0031272927
224	0x3bc60c8e	0.006043977
225	0x3b6f70cc	0.0036535738
226	0x3c335c57	0.0109473085
227	0x3bf5ea31	0.0075047244
228	0xbb376d6b	-0.0027988802
229	0x3c25abba	0.010111744
230	0xbb200295	-0.0024415602
231	0x3b9bb031	0.0047512283
232	0xba73e27f	-0.0009303465
233	0xbb8b3331	-0.004248046
234	0xbb6f0468	-0.0036471132
235	0xbbc853aa	-0.006113489
236	0xbb7f7250	-0.0038978048
237	0x3cfa21fe	0.030533787
238	0xbc007f76	-0.007842889
239	0xbbfa7306	-0.0076431064
240	0xbe14933e	-0.14509293
241	0xbb627067	-0.003455186
242	0x3bceff87	0.0063170823
243	0xba9662c7	-0.001147353
244	0x3b98397d	0.004645525
245	0x3c18726c	0.009304624
246	0x3b9163af	0.004436932
247	0xbc03ae7e	-0.008037208
248	0x39189e24	0.00014554762
249	0xbb1b98d1	-0.0023742209
250	0xbc718937	-0.014742187
251	0x3bc7e24e	0.0060999757
252	0xbbb80280	-0.0056155324
253	0x3b5b024a	0.0033418112
254	0x3c4976df	0.0122964075
255	0xbbf7296c	-0.0075427797
