embeddings/wavlm_large_10_16/b3e1e17ade8713423003864809df865fe0cf42e6.npy (npy, 4224 bytes, 1 tensors)

array f4 [1024]
0.014607734 0.002918323 0.0030725827 0.019803174 -0.0010341161 0.0091541875 0.012852853 0.014817067
0.0019899239 0.004331896 0.012552317 -0.012013002 0.0048527536 -0.021328982 0.013259769 -0.002835619
-0.0036414452 0.026928393 0.00043958306 -0.003991752 0.020555425 -0.0025355082 -0.000451208 0.0050706035
0.0017794642 0.008059813 0.007606311 0.01031298 0.005474636 0.0005388436 0.0010194315 0.011042689
0.0017227053 -0.0011133197 -0.0028922383 -0.037477218 0.004647815 -0.0062918826 0.007949274 -0.010362451
0.0056203254 -0.01980179 0.004026535 0.0015244135 0.00866505 0.005007 -0.0041765757 0.010791157
-0.026715402 0.0090411445 0.004384625 -0.00011389157 0.015488535 0.0033569967 -0.0026632762 0.0052038664
-0.00050965155 0.009376569 -0.0027898278 -0.0017494136 -0.014178986 0.0014297977 -0.0060239993 0.008439572
-0.003556392 -0.0009442544 -0.016722675 0.00089822547 -0.000579415 0.0011470076 0.005195834 0.013758223
-0.0039810673 0.003579328 0.007738058 -0.005826871 7.9522215e-05 -0.009436677 0.0049341964 -0.0134110665
-0.0015754378 0.0073917867 0.00035905055 0.0068540215 0.00018948567 0.0029598572 0.007831709 -0.0046165325
-0.0017556772 -0.0001707487 -0.0024723425 -0.0029040847 -0.00020868405 -0.0017680813 0.002384595 0.0026285255
0.0022379423 0.0007079199 -0.0009891243 0.00075470953 0.0020835234 0.00021959742 -0.0011974156 0.0017595671
0.005698392 -0.011576186 -0.0024220163 0.01890899 0.004095617 0.0010069611 0.0055671292 -0.008584854
0.01506132 -0.0072294176 0.0058133136 0.006731017 -0.0028161125 0.009342786 -0.005292719 0.0006976198
-0.0051583014 -0.011345174 -0.0011506572 0.0037312512 -0.010649187 0.006599336 -0.0018721881 0.005361471
-0.012967885 -0.012474473 -0.0032160892 -0.001986821 0.005298678 -0.013733928 -0.004248704 0.018106107
0.005251427 -0.005233435 -0.0018408655 -0.0044638277 0.0043027657 0.0025533822 0.0052799773 -0.01273188
0.0059155403 0.0026291371 -0.00390946 -0.0023150346 -0.016676588 0.010999294 -0.005642471 0.0013459616
0.018459164 0.026183452 -0.0061447537 -0.010212714 0.0032494138 0.00841174 0.004158051 -0.0033706801
0.0024777886 0.011632259 0.0046874452 0.0031428202 0.004905589 0.0030648774 0.002688302 0.00016550488
-0.00020498737 0.0031258238 -0.007928451 -0.0041274317 -0.02015866 0.013498447 0.0056532617 0.012455765
0.01787547 -0.012474277 -0.0066179703 -0.007832901 0.017046893 0.0017011155 0.0075848773 -0.021852514
-0.010089697 0.007367629 0.004263971 0.01853499 -0.0013248214 0.012204768 0.006569801 0.0028734154
-0.0044776932 -0.00077713287 0.0063771345 0.007052736 0.004429493 -0.004327784 -0.000665387 0.0014882806
0.011242771 -0.0053344457 0.0017485427 0.0019452783 -0.017056981 -0.00025167206 0.0087163495 0.0015525323
-0.009365453 -0.006048751 0.013737815 0.00046712032 -0.0018504632 -0.00023210858 0.014762673 0.005953124
-0.0097681675 -0.017145464 0.008913526 0.008831502 -0.0019063579 0.013449474 -0.014668733 0.01257559
-0.00947863 0.010360158 -0.0022614975 0.0043138927 -0.0017376941 0.0017577631 0.007929283 0.0008294545
-0.0041078534 -0.032192655 0.0026692639 -0.0014126841 0.0013674155 0.003579902 0.0007177435 -0.010680323
-0.14064218 0.008798159 -0.001471893 -0.005401072 -0.0008598949 -0.0037972778 0.013765353 -0.002637077
0.017940069 2.6198035e-05 -0.00485674 0.0013847548 -0.00013850525 0.011753681 -0.004793382 -0.012769581
00000000: 4755 6f3c 5641 3f3b 625d 493b 443a a23c
00000010: 2e8b 87ba 72fb 153c c694 523c 49c3 723c
00000020: 6269 023b 94f2 8d3b 3ca8 4d3c 2fd2 44bc
00000030: d903 9f3b 1eba aebc 813f 593c cbd5 39bb
00000040: 50a5 6ebb ef98 dc3c d777 e639 3ecd 82bb
00000050: da63 a83c c52a 26bb 1d90 ecb9 4e27 a63b
00000060: e93c e93a 4e0d 043c 5c3e f93b c6f7 283c
00000070: 9364 b33b 2f41 0d3a 729e 853a 65ec 343c
00000080: 66cc e13a cfec 91ba b58b 3dbb b681 19bd
00000090: b34c 983b 232c cebb ac3d 023c 45c7 29bc
000000a0: b52a b83b 5d37 a2bc 06f1 833b d4ce c73a
000000b0: dbf7 0d3c c311 a43b a8db 88bb 65cd 303c
000000c0: 42da dabc 4f21 143c e6ac 8f3b 12d9 eeb8
000000d0: a0c3 7d3c 0f01 5c3b 5c8a 2ebb 3285 aa3b
000000e0: 239a 05ba 2ea0 193c 8bd5 36bb 944c e5ba
000000f0: fa4e 68bc 0d68 bb3a f864 c5bb 2146 0a3c
00000100: 5b12 69bb d787 77ba fefd 88bc e476 6b3a
00000110: e2e3 17ba 3057 963a d141 aa3b 2b6a 613c
00000120: 9d73 82bb 2993 6a3b 898f fd3b 56ef bebb
00000130: 2ac5 a638 4b9c 1abc 0aaf a13b 17ba 5bbc
00000140: ec7e ceba cd36 f23b f33e bc39 b397 e03b
00000150: acb0 4639 2afa 413b 9250 003c 4846 97bb
00000160: c01e e6ba 010b 33b9 0607 22bb 7552 3ebb
00000170: 33d2 5ab9 f7be e7ba de46 1c3b 5743 2c3b
00000180: 71aa 123b b393 393a 81a5 81ba b3d7 453a
00000190: b98b 083b bc43 6639 9af2 9cba 46a1 e63a
000001a0: 94b9 ba3b 0baa 3dbc b1ba 1ebb 07e7 9a3c
000001b0: 8734 863b 02fc 833a 776c b63b 7da7 0cbc
000001c0: c1c3 763c c0e4 ecbb 9c7d be3b dd8f dc3b
000001d0: 878e 38bb 7c12 193c 8c6e adbb 79e0 363a
000001e0: f806 a9bb 1ce1 39bc a6d1 96ba 0288 743b
000001f0: ed79 2ebc 3e3f d83b 3564 f5ba 47af af3b
00000200: 4077 54bc bb61 4cbc 06c5 52bb 5335 02bb
00000210: 88a0 ad3b 4504 61bc b638 8bbb 4253 943c
00000220: 2a14 ac3b 3c7d abbb 3249 f1ba 4d45 92bb
00000230: 37fe 8c3b a556 273b a903 ad3b 6099 50bc
00000240: 26d7 c13b 9a4d 2c3b ed1a 80bb d6b7 17bb
00000250: 579d 88bc 6236 343c 7ae4 b8bb fa6a b03a
00000260: ac37 973c ae7e d63c ee59 c9bb 3a53 27bc
00000270: 1ef4 543b 65d1 093c 4340 883b a1e6 5cbb
00000280: 6562 223b 3b95 3e3c 2499 993b c6f7 4d3b
00000290: 10bf a03b 1cdc 483b 392e 303b 618b 2d39
000002a0: e1f1 56b9 9fda 4c3b 55e6 01bc 683f 87bb
000002b0: c623 a5bc 9728 5d3c ff3e b93b 4413 4c3c
000002c0: 946f 923c e960 4cbc 8fdb d8bb 9155 00bc
000002d0: eda5 8b3c f7f7 de3a 908a f83b 0b04 b3bc
000002e0: 424f 25bc 276c f13b c8b8 8b3b b1d6 973c
000002f0: a1a5 adba 82f6 473c 7c47 d73b e94f 3c3b
00000300: 9db9 92bb 81b8 4bba 48f7 d03b a31a e73b
00000310: 4825 913b 15d0 8dbb 5e6d 2eba 6912 c33a
00000320: 9933 383c 93cc aebb 5b2f e53a b5f8 fe3a
00000330: 15bb 8bbc daf2 83b9 05cf 0e3c 577e cb3a
00000340: 8f71 19bc 9a34 c6bb 9314 613c d4e7 f439
00000350: 3e8b f2ba 2c62 73b9 23df 713c 6c12 c33b
00000360: aa0a 20bc a574 8cbc 0a0a 123c 01b2 103c
00000370: c2de f9ba 2f5b 5c3c 2055 70bc d909 4e3c
00000380: 414c 1bbc a7bd 293c a235 14bb 8e5b 8d3b
00000390: 57c3 e3ba be64 e63a d3e9 013c c06f 593a
000003a0: 2c9b 86bb 72dc 03bd d1ee 2e3b d029 b9ba
000003b0: da3a b33a ca9c 6a3b f326 3c3a 85fc 2ebc
000003c0: 8104 10be 2726 103c 89ec c0ba 7afb b0bb
000003d0: 926a 61ba c0db 78bb 1388 613c cfd2 2cbb
000003e0: 0df7 923c dac3 db37 4a25 9fbb a980 b53a
000003f0: b83b 11b9 8392 403c cd11 9dbb 8137 51bc
