embeddings/wavlm_large_10_16/b4d4960d0bdfd48b689ee17ad17abdb65856402f.npy (npy, 4224 bytes, 1 tensors)

array f4 [1024]
00000000: dea7 893c 6002 0f3b 3875 05bc 9ac7 873c
00000010: 1403 90ba 4187 223c 6ead ad3b 517f 4a3c
00000020: 6773 633a 921c 913c 240a 013b 9dee 4abc
00000030: d42f f93b 2dfa 9ebc 1bd1 933b f5cf 3fbc
00000040: 6efe cebb 1871 aa3c 74e3 28bb d5ee ebba
00000050: 8a0e bc3c d10f 5cbc d663 123c fa88 f33b
00000060: 8639 1fbc 5f92 06bc 5790 fcbb d17a 753b
00000070: 8cb7 823a 277d 0dbb 2004 ac3a 9c14 1b3c
00000080: d430 b5bb abae bcba e412 53bb 262c 103b
00000090: eac6 dbbc 1e4e 0d3b d3fb b23a 78ad c4bb
000000a0: d60b c73b cbe0 cfbc 8599 18bb fa86 253a
000000b0: a00d a93b 3d56 0fbb 4d0e c8bb 7773 de39
000000c0: bf17 b1bc ea04 e13b 2fee 0d3b 7f9f 69bb
000000d0: 7912 c6ba 426f 593c 3dea 9b3c c53b 9bbb
000000e0: aacc 6a3b 6c8f 8d3c 0723 163b d3d7 e43b
000000f0: 1a6f cebb dde2 c3bb a212 d1ba d213 88bb
00000100: ab05 9839 d736 c8bb 0d11 33bc f9c2 1cbc
00000110: 9ae5 2cbb c503 22bb 38d2 12bc ff30 d33b
00000120: 2e01 f93a 2859 f43b 046f a93b 153d 17ba
00000130: a2c2 cebb db61 a4bc bc7c 413c c63d 71bb
00000140: 37bb dabb cdfd 0a3b 8a75 aebb d93a 353a
00000150: b174 f93b ca1d 8dbc eb17 3e3c 836c e83b
00000160: 30b0 2e3b 5bc2 e13b 3f89 22bc fd9e faba
00000170: 53b8 a33b 4286 24bb 6b69 1a3b c55c c93a
00000180: 62c7 8e3a 632f c5bb c6f3 9e3b 0b4d 4b3c
00000190: e0fc 863c a52c d53a ff28 09bc ad10 d13b
000001a0: 53d5 353c 9421 00bc b5b1 ba3b 6907 9c3c
000001b0: a4a1 8b3b d02e a2ba c674 1d3c e34a d1bb
000001c0: 8a49 bc3b 8f3d 5039 bfcc 2dbb a29e 6e3c
000001d0: 6f48 b2bb 4881 313c 4bec e8bb b6df 33bb
000001e0: e595 1b3c 98a7 513c 22e1 1b3c dfef 65b8
000001f0: 0aa4 7fbc fa29 c9bb aff8 85bb 8424 1d3c
00000200: d324 08bb 4590 2fbc 2a3c 7cbb e267 2ebc
00000210: 4d7a 1a3c 88a6 ebbc 27ac 2dbc d232 153c
00000220: 9c96 973b e394 cebb f152 11bb 0b37 24ba
00000230: 409f 7b3b 57c1 cdbb 0004 9abb 9215 81bc
00000240: 189f e23a 4a8f 13bb 3470 f5bb 4cdd 16bc
00000250: 8621 2bbd 69d9 163c 4369 033c 7f39 6c3c
00000260: 6a67 4a3c 585c 383c 86ba 43bc 87f9 4dbb
00000270: f816 9039 fd8a 1e3b b74d 0e3c c654 a63a
00000280: 8406 d03b 357b 223c 16cd 353c 316f c73a
00000290: d718 9fbb 30ea e4bb 9b7c 2a3c cef7 20bc
000002a0: e8f3 1cbc 60de 803c d568 1ebc 30f3 3abc
000002b0: 24d1 d2bc a166 353c c63f b93c 29d4 973b
000002c0: 8223 733c 0f7d 4b3a 8ef0 7dbc 2ba0 81bc
000002d0: 3bdf 8a3c c653 48bb e176 813b c682 a7bb
000002e0: f246 8cbc 2fbc ed3a a6a7 ae3c e66a 883c
000002f0: 9174 293c 5766 073c 6275 553b 41aa 51bb
00000300: 9d3b 7ebc eb6d 193c c143 483a f015 413c
00000310: 3ea6 633b 3550 ef3b 7c5c 113c a5af babb
00000320: f599 9dba a07d bfbb 3738 413b 0225 093b
00000330: effa 313d 6f2e 26bc 56f6 4a3c 7df5 bbbb
00000340: 7df4 b9bb 3f98 39bb effc ec3c 79f3 073b
00000350: 2957 533c f348 d439 b3b0 2b3d fcf4 c8bb
00000360: 5827 30bc 0984 30bc c616 223c de86 49ba
00000370: 8538 32bb 3751 0d3c 95c5 37bc 6683 283c
00000380: 3a35 e4bb 4e75 bc3a 123c 503c 24ba 9fbb
00000390: 7da8 433b 4c26 053b d9a1 5e3c b61d 243b
000003a0: 6b3e 00bc 7927 81bc 0ac0 013c 3fb3 b7bb
000003b0: 053c b2ba 6400 9c3c b5c1 d43a 648b e33a
000003c0: 5da2 01be f6be c53c 5e5e f1ba 7efb 7c3b
000003d0: 25cf ca3b 458b 98b9 31d9 63bb 86b5 883b
000003e0: 44a5 403c 71c5 f93b eadf 67bb ee4d a83b
000003f0: 8b4e 84bb c492 7b3b e408 53bc 1725 513d
0.016803678 0.0021821484 -0.008145623 0.01657467 -0.0010987245 0.009919942 0.0053002154 0.012359456
0.0008676559 0.017713819 0.0019689882 -0.012385991 0.0076045785 -0.019406402 0.0045110113 -0.011707296
-0.0063169515 0.02080588 -0.0025770338 -0.0018000255 0.022956152 -0.013431505 0.008934936 0.0074321004
-0.0097183045 -0.0082136085 -0.0077076363 0.0037457237 0.0009972914 -0.002158949 0.0013123788 0.009465363
-0.0055295024 -0.0014395317 -0.0032207305 0.002199897 -0.026828248 0.0021561454 0.0013655372 -0.0060021244
0.006074409 -0.025375744 -0.0023284864 0.00063143636 0.005159095 -0.002187147 -0.0061052204 0.00042429168
-0.021617768 0.006867041 0.002165686 -0.0035648046 -0.0015111706 0.013271155 0.019032592 -0.0047373497
0.0035827556 0.017280303 0.0022909062 0.006983736 -0.0062998654 -0.005977972 -0.0015950988 -0.0041527534
0.00028995922 -0.006110053 -0.010929358 -0.0095679695 -0.002638197 -0.0024721485 -0.008961253 0.00644505
0.0018997544 0.0074569173 0.005170705 -0.0005769295 -0.006309823 -0.020066192 0.011809524 -0.0036810501
-0.00667515 0.0021208406 -0.0053240703 0.0006913371 0.0076127877 -0.017226119 0.011602382 0.0070930137
0.002665531 0.006889624 -0.009920417 -0.0019120869 0.0049963384 -0.0025104438 0.002356137 0.001536273
0.0010893161 -0.006017612 0.0048508374 0.012408505 0.016478002 0.0016263915 -0.008371591 0.0063801617
0.011098224 -0.007820506 0.005697454 0.019046502 0.0042612124 -0.001237357 0.0096103605 -0.006387101
0.005746071 0.00019859358 -0.0026519743 0.014564188 -0.0054407637 0.010834046 -0.0071082464 -0.0027446575
0.009496187 0.012796305 0.009514125 -5.4821252e-05 -0.015603075 -0.006139037 -0.0040884833 0.009591226
-0.0020773902 -0.010715549 -0.003848801 -0.010644885 0.009428573 -0.028765932 -0.010600126 0.009106355
0.0046261083 -0.00630437 -0.002217468 -0.00062643056 0.003839448 -0.0062791514 -0.004700184 -0.015757356
0.0017289845 -0.0022515827 -0.0074901823 -0.009208035 -0.041780017 0.009207108 0.008020702 0.014418005
0.012353757 0.011252485 -0.011946326 -0.0031429247 0.00027482933 0.002419173 0.008685521 0.0012690059
0.006348433 0.00991707 0.01109626 0.0015215633 -0.004855256 -0.006985925 0.010405685 -0.009824706
-0.009579636 0.015731037 -0.009668549 -0.0114105195 -0.025734492 0.011071832 0.022613417 0.0046334458
0.014840009 0.00077624706 -0.015499247 -0.015823444 0.016952148 -0.003056751 0.003950939 -0.005112025
-0.017123673 0.0018137748 0.021320175 0.016652536 0.010342733 0.008264146 0.0032571186 -0.0031992348
-0.015517143 0.009364585 0.00076394907 0.011785015 0.003473654 0.0073032626 0.008872148 -0.005697208
-0.0012024032 -0.005843833 0.002948297 0.00209266 0.0434522 -0.010142907 0.012387833 -0.0057360516
-0.005674897 -0.0028319506 0.028929202 0.0020744486 0.012899199 0.00040490142 0.04191656 -0.00613272
-0.010751568 -0.010773667 0.009893125 -0.0007687638 -0.0027194333 0.00862532 -0.011216541 0.010285234
-0.006964353 0.0014378221 0.012709634 -0.0048744846 0.0029855066 0.0020317016 0.013588392 0.0025042123
-0.007827382 -0.015765892 0.007919321 -0.0056060846 -0.001359821 0.019043155 0.0016232046 0.0017360267
-0.12659593 0.024138909 -0.0018414964 0.003860205 0.0061892443 -0.00029095463 -0.0034766907 0.00417203
0.011758152 0.007622414 -0.0035381266 0.005136243 -0.0040376834 0.003838704 -0.012880538 0.051060762
