embeddings/wavlm_large_10_16/b4ef93b2e09ee2f3c62441f9c92c35e91e0cf933.npy (npy, 4224 bytes, 1 tensors)

array f4 [1024]
000000 59 f9 75 3c 51 be 4f 3b 2b 0b 58 bb 51 ad 65 3c
       0.015013062 0.003169913 -0.003296564 0.014018373
000010 72 de 41 3b 98 92 fa 3b ef 5a 33 3c bb fd 0f 3c
       0.002958205 0.00764687 0.010946973 0.008788521
000020 7a 85 b1 bb 0b bd 71 3c 15 66 59 3b 5a 65 62 bc
       -0.005417523 0.014754544 0.0033172418 -0.013818109
000030 61 18 37 3c 24 a8 dc bc 07 7d 3a bb 73 a8 48 bc
       0.011175246 -0.026935644 -0.002845587 -0.012247193
000040 a4 5e b2 bb 59 20 8b 3c 35 ba 02 ba d0 2b bb b9
       -0.005443411 0.016983198 -0.00049868535 -0.00035700062
000050 e1 df 39 3c 57 5b 0d bb 0b f7 87 3b e0 a1 4a ba
       0.011344881 -0.0021569335 0.004149323 -0.000772981
000060 f7 69 1c bc 7a 0b 9d 39 37 3e ba bb 2e 55 4e 3c
       -0.009546748 0.00029953924 -0.005683686 0.012593551
000070 21 bd e5 ba 5f 22 c8 bb fb c2 c0 3b 2a ee 04 3c
       -0.0017527678 -0.006107613 0.0058826185 0.008113423
000080 45 b1 11 3b c7 aa b1 ba 1a 7e 27 bc cc a6 56 bd
       0.0022230905 -0.0013554924 -0.010222936 -0.052405164
000090 5b e7 c6 bc d7 e9 16 3c 79 a5 c8 bb 81 de d8 bb
       -0.02428024 0.009211025 -0.0061232415 -0.0066183214
0000a0 be 06 dd 3a b7 ce a6 bc 89 18 d4 3a 19 ab 9f bb
       0.0016862971 -0.020362241 0.0016181628 -0.0048726914
0000b0 f5 99 81 3b 8a 44 e7 3a 0c 6f a9 bb 18 d3 2d 3c
       0.0039551207 0.0017644328 -0.0051707085 0.010609411
0000c0 9d 5e b7 bc 37 ef 23 3c 90 54 09 3c 1a bc c7 bb
       -0.022383982 0.010005764 0.008381978 -0.0060954215
0000d0 c8 a4 0e 3b 9a a3 77 3c 3e 54 0d 3c 9a e7 7f bb
       0.0021765698 0.015114689 0.008626042 -0.0039047957
0000e0 e0 19 ca bb a4 3f 73 3c 74 2f ac 3b 5a 08 af 3a
       -0.0061676353 0.014846716 0.0052546803 0.0013353929
0000f0 0c 70 cd bb e0 df 05 bb cf ef 28 bc 76 2b 4f 3b
       -0.0062694605 -0.002042763 -0.010311081 0.0031611598
000100 fc 49 70 bb 87 18 dc 3b a3 6d e0 bb d1 2b 36 bc
       -0.0036665192 0.006716791 -0.006849007 -0.011118845
000110 c5 e6 f7 39 17 d4 e1 bb 54 a9 f0 bb a5 a1 84 3c
       0.00047283448 -0.006891738 -0.0073444042 0.01619036
000120 f6 8b b5 3b 1e 90 49 3b ea a3 a6 bb 3c 05 33 3a
       0.0055403663 0.0030756067 -0.005085458 0.0006829088
000130 22 ea d5 bb 44 8f 79 bc 5e a9 50 3c 8c d0 f9 bb
       -0.006528155 -0.015231911 0.012735693 -0.0076237377
000140 c3 86 e3 bb 46 94 0f 3b 6f 79 f9 ba 08 60 d5 ba
       -0.006943555 0.0021908446 -0.0019033382 -0.001627923
000150 42 be 21 3a 69 db 36 bc 18 3a 1a 3c 6a ea 1d 3c
       0.0006170013 -0.01116071 0.009413265 0.009638408
000160 b8 a3 8d 3b ea ce 69 38 00 ff 91 bc fd c1 e0 bb
       0.0043224953 5.5744233e-05 -0.017821789 -0.0068590627
000170 4e 4d b8 3b d5 6d 3e 3a 85 dc 96 3b 74 54 fc bb
       0.00562445 0.0007264291 0.0046039247 -0.0077004973
000180 8e e4 5e 3b 00 12 85 bc 64 1b 02 3c 3c 39 48 3c
       0.003401074 -0.016243935 0.007941101 0.012220677
000190 f4 f7 04 3c b9 6d 10 3b e7 c6 a0 bc f8 1e ea 3b
       0.008115757 0.0022038056 -0.019626094 0.007144805
0001a0 fb 16 8f 3c 62 45 7a ba 6e 40 d0 3b f4 6f 6e 3c
       0.017467013 -0.0009547082 0.006355337 0.014553059
0001b0 54 df 40 ba f7 0a a2 3b fd 29 62 3c 77 37 2f bb
       -0.0007357497 0.004945155 0.013803956 -0.002673594
0001c0 02 4f ff 3b 2b 75 e5 bb eb c7 59 3b c6 67 8b 3b
       0.007791401 -0.007002493 0.0033230733 0.004254314
0001d0 a9 9c 74 bb 32 6a f9 3b 90 26 e5 bb 5e c6 22 bb
       -0.0037324822 0.0076115364 -0.0069931224 -0.0024837474
0001e0 f3 1a 0a 3c 7a 4f 51 3c e4 83 d5 ba da 7d a2 3b
       0.008429277 0.012775296 -0.0016289917 0.0049588503
0001f0 a0 05 23 bc 44 16 75 bc 5a b6 6d b8 24 ff d0 3b
       -0.009950072 -0.014958922 -5.667503e-05 0.0063780714
000200 33 54 51 3c 6d 5f a2 bc 3b 95 f4 ba 44 be d6 bb
       0.012776422 -0.019820893 -0.0018660197 -0.006553443
000210 83 1b 7b 3c bc 56 92 bc 24 e2 5a bb 58 e9 06 3b
       0.0153263835 -0.017863624 -0.003339895 0.002058586
000220 18 74 92 3b 8b 11 8e bb 87 13 7c bb 07 f1 e8 39
       0.004469406 -0.0043355874 -0.0038463788 0.00044430068
000230 af b9 b5 3b 3f c7 c2 bb d7 ca 9a bc f9 59 8d bc
       0.005545817 -0.005944162 -0.01889555 -0.017254816
000240 63 15 3e 3b 39 7d 04 3c d6 fa 50 bb a9 93 9f bb
       0.0029004447 0.008086496 -0.003188779 -0.0048698974
000250 28 ef 58 bd 4b d1 66 3c b5 27 30 ba 45 5d ac 3c
       -0.052962452 0.014087985 -0.0006719784 0.021040568
000260 83 a7 9e 3c 34 ec a9 3c 30 b8 77 bc d3 a6 e5 bb
       0.019366985 0.020742513 -0.015119597 -0.0070084124
000270 05 e5 08 3b 14 cc cb 3b 12 ea 26 3c 2d 22 9d 3b
       0.002088846 0.0062193964 0.010187643 0.004795334
000280 70 8d 3b 3b 18 33 41 3c ed 60 3a 3c d0 c4 9a 3b
       0.002861824 0.011791967 0.011375648 0.004723169
000290 e1 83 c6 3a 53 4e 29 3c c8 79 ce 3b 2d 7e c4 bb
       0.0015145504 0.010333615 0.0063011386 -0.0059964866
0002a0 5a 28 c8 bb 9a 02 3d 3c 89 20 7f bc 34 2f fb bb
       -0.006108326 0.011536265 -0.015571722 -0.007665539
0002b0 87 f2 c1 bc c4 f0 fc 3b c7 58 c4 3c 50 66 11 3b
       -0.023675216 0.007719131 0.023968114 0.0022186227
0002c0 6a 26 db 3b 89 8d 3b 3c 60 ab 13 bc be 2b 4c bb
       0.006687929 0.011447319 -0.009013027 -0.0031154002
0002d0 d0 2e 92 3c e4 a1 b4 3a 9a a3 61 3b 4a c5 27 bb
       0.017844588 0.0013781157 0.003442979 -0.0025599771
0002e0 c4 62 8e bc 17 7b 01 3c a8 6e 8c 3c 0a 2a 8f 3c
       -0.01738108 0.007902882 0.017142609 0.0174761
0002f0 e9 57 3d 3b 29 2c 7b 3b bd e1 b2 3a 84 cf 8b 3a
       0.002889151 0.0038325882 0.0013647598 0.0010666703
000300 60 db 85 bc b3 b9 7e 37 50 5b 85 3a d1 a9 04 3c
       -0.016339958 1.5182816e-05 0.0010174308 0.008097128
000310 35 87 0e 3c 18 ef e0 3b a4 a3 8f 3c 1d fd be bb
       0.008699228 0.0068644397 0.017534085 -0.0058285133
000320 5d aa c0 3b 53 47 8d ba aa 83 c0 bb 9c 9f 57 3b
       0.005879684 -0.0010778703 -0.0058750706 0.003290153
000330 12 38 83 bc d9 c7 ad bb 12 82 0b 3c 37 52 44 bc
       -0.016017947 -0.0053033647 0.008514898 -0.011982492
000340 e9 a4 00 bc f1 d6 a4 bb f9 1d 0b 3d a5 f0 4b 3b
       -0.007851818 -0.005030506 0.03396413 0.0031118777
000350 d2 0c eb 3b 44 f7 6a 39 55 e8 a7 3c 72 b3 b1 bb
       0.007173159 0.00022408093 0.020496527 -0.005423003
000360 79 86 29 bc 86 4d 00 bc e9 af 29 3c c6 31 ae bb
       -0.010347002 -0.007830983 0.010356882 -0.005315992
000370 13 a1 13 bb 99 52 6b 3b 41 02 a7 bb 1d d5 0c 3b
       -0.0022526428 0.0035907386 -0.0050967042 0.002148933
000380 3c ca 20 bc 3b af 04 3b 5b 6d b1 3c b1 4b 5d bc
       -0.009813841 0.0020246047 0.02165859 -0.013506816
000390 5e 16 9b b9 11 07 01 3c 23 f2 8e 3c 61 b3 8d 3b
       -0.0002958057 0.00787522 0.017449444 0.004324362
0003a0 4b 30 fb ba 31 db 4d bc bc 5c 2a 3c ae 8e 30 bc
       -0.0019164173 -0.012564466 0.010398086 -0.010776205
0003b0 d2 aa 0e bb f3 8d 9d 3c b0 5d 69 bb 44 61 6b 3b
       -0.0021769297 0.019232726 -0.003560882 0.003591613
0003c0 17 96 16 be 01 3a 9f 3c bd 9e c0 bb 8e 6a fe 3b
       -0.14705692 0.019436838 -0.005878298 0.007764167
0003d0 d3 35 09 3b a4 37 e4 3a db b3 05 bc 46 38 5c 3a
       0.0020936623 0.0017411602 -0.008160557 0.00084007194
0003e0 82 87 ca 3a 43 4f ed 3b 66 0b 18 bc 12 08 ca 3a
       0.0015451761 0.0072421147 -0.009280061 0.0015413782
0003f0 fe 1c 26 bc bc 75 27 3b 37 dd 5c bc cc 5a bd 3c
       -0.010138748 0.0025552353 -0.013480476 0.023114584
