embeddings/wavlm_large_18_24/b01d8df18fe9e597198a7b8da238a104253a6b5e.npy (npy, 4224 bytes, 1 tensors)

array f4 [1024]
0.0055392375 -0.01602197 -0.018249957 0.024677161 0.006420984 -0.013521448 0.009843881 0.007065072
-0.0056975624 0.00012622867 0.013519255 -0.012072552 -0.0014160749 -0.017308185 0.012480435 -0.018484335
-0.010602127 0.0038104153 -0.0022832383 0.016784022 0.006606268 -0.007187846 -0.001554755 0.016244672
0.00017305138 -0.006850451 0.009596706 -0.009344261 -0.0063407323 0.02362318 0.009975186 0.01516922
0.023727892 -0.0032801752 -0.007965813 -0.019130837 0.0044367276 -0.008280531 -0.005130955 0.0010709447
0.011954867 -0.015052504 -0.0026424758 -0.002447134 -0.02785941 0.006397959 0.00795115 -0.020810788
-0.019879363 -0.0076541556 -0.007890687 -0.0028181735 0.019263161 -0.0030706574 0.0034520198 -0.0058236737
0.01561499 -0.002126965 0.002649314 0.0042892112 -0.015068252 0.014130009 -0.002036432 0.0049746134
0.015954463 0.023575386 0.0029171892 0.0012703186 -0.006146738 -0.0011549178 0.001439778 0.008341398
0.04145675 0.012256098 0.00044864378 0.0016362536 -0.0042030946 0.009917892 0.005372098 0.014935737
0.010848668 -0.0013079977 -8.649328e-05 -0.006605759 -0.0026788937 0.006513678 0.005736208 0.008662848
-0.003948868 -0.0031306632 -0.003042515 0.0073958347 0.011271384 -0.018492099 -0.010631288 -0.0038310036
0.028511824 -0.010860994 -0.00029056793 0.020554382 -0.009051215 -0.013618471 -0.012733273 -0.0066297944
0.006871856 0.0067525413 0.008267502 0.002095727 0.0020515248 0.005154446 -0.005088284 0.0042419094
-0.010081266 0.00033067027 0.027224489 0.0004829355 0.00074544246 -0.0012103632 -0.00023122595 -0.0015954856
-0.005954936 -0.06491555 -0.006471826 0.009999746 -0.0026144397 0.004417778 -0.011655778 -0.0031743092
0.001066643 -0.0046930807 0.013492746 -0.0060587134 0.0032780434 -0.0069988156 -0.0142728025 0.022087798
0.0065966737 0.012165328 -0.0024052483 -0.009119411 0.00525231 -0.00066934223 0.0052980524 0.0019363423
-0.011964103 -0.0078119296 0.007755262 -0.01017262 -0.024797361 0.004244782 0.007638248 0.025116185
0.0078783985 0.023743227 0.0028220143 -0.01958922 0.016019957 0.03431369 -0.01111053 -0.0068295114
0.014780092 0.0100174835 -0.002513559 0.001827185 -0.00699948 -0.009612797 -0.014746232 -0.017166136
0.0013077212 -0.0045582457 -0.0053545325 0.012972447 -0.0007141827 0.0133768795 0.018207153 -0.007712352
0.0060455925 -0.018736344 -0.016322691 -0.006026393 -0.014865913 0.004122687 -0.008072818 0.013414007
-0.011816546 0.020730905 0.006057142 0.0003712323 0.0072315396 0.0037194598 -0.0051915366 0.0025903678
-0.02358095 0.015062053 0.0040230346 0.020825153 0.0122692445 -0.009271926 0.0032751753 0.0028332747
0.0062141595 -0.0143825095 -0.019782115 0.0006282215 -0.02852497 0.0030753552 0.012415049 -0.001396567
-0.0045914985 -0.014410259 0.009232772 -0.011062054 -0.00013569587 -0.0034281602 0.009332798 0.0096499985
-0.0136705525 -0.00090688944 -0.011299306 -0.0038111035 -0.010503685 0.008000195 -0.0011270796 0.008879365
0.0094415005 0.0056128367 0.0053001908 -0.027387442 -0.016269466 0.0010517925 0.008011545 0.00028015565
0.0073683877 -0.039423678 0.010859149 -0.008668969 0.0035494845 -0.010083523 0.0016713701 0.0018610959
-0.04325656 0.010647411 -0.024360133 -0.010904796 0.00704863 -0.018061377 0.0023003735 0.0021409378
0.003660618 0.0044006766 -0.0039050225 0.0006095595 0.0050189183 -0.0029130024 -0.004841748 0.027346304
00000000: 7e82 b53b 8240 83bc ef80 95bc c227 ca3c
00000010: 1e67 d23b 1089 5dbc 3b48 213c 1f82 e73b
00000020: 9eb2 babb 405c 0439 de7f 5d3c f4cb 45bc
00000030: 979b b9ba e5c9 8dbc bd7a 4c3c 766c 97bc
00000040: 8bb4 2dbc 29b8 793b 62a2 15bb a57e 893c
00000050: 6579 d83b 0688 ebbb ecc8 cbba 8c13 853c
00000060: 2075 3539 c079 e0bb 813b 1d3c ac18 19bc
00000070: ebc5 cfbb 6685 c13c f66e 233c 5288 783c
00000080: ff60 c23c 35f8 56bb 0b83 02bc 46b8 9cbc
00000090: f861 913b 10ab 07bc 9221 a8bb f15e 8c3a
000000a0: 59de 433c c79e 76bc 632d 2dbb 1860 20bb
000000b0: 6b39 e4bc f8a5 d13b 8a45 023c 637b aabc
000000c0: 0cda a2bc b6cf fabb f147 01bc 1bb1 38bb
000000d0: c7cd 9d3c 153d 49bb 483b 623b 84d4 bebb
000000e0: 04d6 7f3c 8d64 0bbb 1da0 2d3b 838c 8c3b
000000f0: d4e0 76bc 8e81 673c a975 05bb 1502 a33b
00000100: efb2 823c 2b21 c13c 502e 3f3b d280 a63a
00000110: 936a c9bb 9c60 97ba efb6 bc3a 5caa 083c
00000120: 8ece 293d cdcd 483c f337 eb39 8f77 d63a
00000130: 1dba 89bb a77e 223c 6d08 b03b 05b5 743c
00000140: 9dbe 313c 1f71 abba ba63 b5b8 1f75 d8bb
00000150: 6190 2fbb b170 d53b cdf6 bb3b 9eee 0d3c
00000160: 8165 81bb d02b 4dbb ee64 47bb c258 f23b
00000170: 9cab 383c be7c 97bc db2e 2ebc 9311 7bbb
00000180: a191 e93c 50f2 31bc 5e57 98b9 aa61 a83c
00000190: 8c4b 14bc 0220 5fbc 389f 50bc bf3e d9bb
000001a0: 4e2d e13b 6c44 dd3b 6b74 073c 7758 093b
000001b0: e072 063b a0e6 a83b 9fbb a6bb b7ff 8a3b
000001c0: e52b 25bc d05d ad39 e405 df3c 8132 fd39
000001d0: cc69 433a 0da5 9eba 3e75 72b9 9d1f d1ba
000001e0: a021 c3bb 72f2 84bd 9d11 d4bb fad5 233c
000001f0: 0557 2bbb 02c3 903b e0f7 3ebc 1208 50bb
00000200: 9ace 8b3a 6ac8 99bb ae10 5d3c 2c88 c6bb
00000210: 71d4 563b 5256 e5bb 79d8 69bc 78f1 b43c
00000220: e928 d83b 1551 473c 5fa1 1dbb 9569 15bc
00000230: 921b ac3b cc76 2fba 499b ad3b decc fd3a
00000240: 1605 44bc 37fb ffbb da1f fe3b 10ab 26bc
00000250: d623 cbbc d017 8b3b 454a fa3b 75c0 cd3c
00000260: 6614 013c 2881 c23c 8bf1 383b 9279 a0bc
00000270: 493c 833c 838c 0c3d f108 36bc 18ca dfbb
00000280: 3328 723c 5f20 243c 86ba 24bb 287e ef3a
00000290: e55b e5bb fe7e 1dbc 2e9a 71bc ff9f 8cbc
000002a0: d867 ab3a 565d 95bb 1375 afbb 638a 543c
000002b0: fd37 3bba b32a 5b3c 2b27 953c e6b7 fcbb
000002c0: 1b1a c63b f67c 99bc 2ab7 85bc 0c79 c5bb
000002d0: 2990 73bc 9b17 873b da43 04bc 6cc6 5b3c
000002e0: 309a 41bc dcd3 a93c fd7a c63b f5a1 c239
000002f0: 8df6 ec3b 2ec2 733b c41d aabb 29c3 293b
00000300: d62c c1bc d4c6 763c a9d3 833b 8399 aa3c
00000310: f104 493c 47e9 17bc 53a4 563b 76ae 393b
00000320: 26a0 cb3b 9ea4 6bbc 1a0e a2bc 3baf 243a
00000330: 33ad e9bc e68b 493b 7d68 4b3c 030d b7ba
00000340: 4874 96bb 0219 6cbc 0d45 173c 9e3d 35bc
00000350: 9549 0eb9 fcaa 60bb 98e8 183c 071b 1e3c
00000360: 74fa 5fbc 52bc 6dba b920 39bc b5c3 79bb
00000370: a617 2cbc 4013 033c 84ba 93ba c27a 113c
00000380: 86b0 1a3c e3eb b73b 39ad ad3b a15b e0bc
00000390: 8b47 85bc 4ddc 893a db42 033c dbe1 9239
000003a0: 8472 f13b b97a 21bd 92ea 313c 4b08 0ebc
000003b0: 789e 683b 5c35 25bc e011 db3a 04f0 f33a
000003c0: ca2d 31bd 7b72 2e3c e78e c7bc 08aa 32bc
000003d0: 32f8 e63b 74f5 93bc ddc1 163b fa4e 0c3b
000003e0: fbe6 6f3b 8d33 903b 68eb 7fbb d8ca 1f3a
000003f0: bd75 a43b 12e8 3ebb 87a7 9ebb 5b05 e03c
