embeddings/wavlm_large_18_24/b4d4960d0bdfd48b689ee17ad17abdb65856402f.npy (npy, 4224 bytes, 1 tensors)

array f4 [1024]
00000000: 92ea 293c 29bb 7ebc c643 9fbc ac9e 213c
00000010: 4eb8 a8ba 372e 52bc 5658 d93b c417 84ba
00000020: 7284 3fbc 28e7 8f3b d24a 963b 15a0 fabb
00000030: e03a 303c 4ac5 dfbb b747 4b3c eaec 9abc
00000040: 232f 2ebb b2b4 833b d40e d1ba 4b81 083c
00000050: 6a82 763b 6d44 4dbc 7b6c 773b 2068 693c
00000060: d575 1b3c 051c 96bb e190 ca3b ced0 1bbc
00000070: 1573 d1bb 9812 8d3c c999 9c3b a005 8a3c
00000080: 7517 d33c e654 e1ba 462b ffbb 13af c7bb
00000090: 2431 a13a 22ca 1dbc cc5a 41ba 8b1e 0abb
000000a0: edfe 513c a059 4abc 7f2d 423a 2102 b0bb
000000b0: 4daa e1bc d0f7 0a3c 932c c33b f320 c4bc
000000c0: 5cfd 60bc 009a 7b37 7b29 b7bc 54d9 1aba
000000d0: ed9d 3a3c 1163 e8bb b203 a33b 600d 3bbc
000000e0: ab6a 143c eecf c438 d47b d33a 6005 4cba
000000f0: 8ede 733a 0a7e fa3b 1fed 043c a2d9 e43b
00000100: 0d9b 533c 7072 cc3c 047c d33b e80e f1bb
00000110: f2f5 ae3b 3e18 0cbb 19a6 05bc 20de 333c
00000120: 7824 223d 13d0 413c 8d2e 0dba 9b2a f0bb
00000130: bdfe d7ba 422a 143c 6080 f9bb 565c 7d3c
00000140: dc26 a93c a79c 063a 3bc7 ddbb c8c5 41bc
00000150: fe6b 6abc de13 0e3c e589 463c 7c48 363b
00000160: de39 9cb9 f127 5b3b 4ba0 0fbc f2a1 1a3b
00000170: 5c11 2a3c 5919 7abc dd14 27bc 14ec a33b
00000180: efb5 e13c 4a95 93bc 53e2 12ba 9e4f 8d3c
00000190: 3c3b 933b 6e46 ddb8 21dd 09bc bd6e d53b
000001a0: 5276 a73b 0668 a7b9 b1ab 2b3c 7e1c 973c
000001b0: 705c 433a 153e 823b b03b 943b 76da 28bc
000001c0: 880a 8abc 7b74 c0b9 2b9f 273c 878c 99bb
000001d0: bc9e 3fbc f7bb 903b ff5f 37bb 9f3e 113a
000001e0: c4ab 72b8 77ea 4ebd 9d47 9b3a 1662 313c
000001f0: 113d 62bb 6a47 3cba 9717 78bc 2f7b ad3a
00000200: 3fd4 73bb fbad 09ba df35 be3c d495 7dbc
00000210: 2a6c 7c3b 47a6 46bc 9f87 cfbc 9a90 75ba
00000220: 21e9 02b9 172d 423c 96d7 d53b 238f 61bb
00000230: 788f 5d3b add4 dd3b 9466 563c 3e5a a83b
00000240: 4aaa 16bc a7e9 9cbc a270 613b 0c70 cbbb
00000250: f19b 60bc ad00 36bb 092e 6a3c 358c f83c
00000260: 137b e53b 82e2 113c 9ebc cc3a 9fa1 2abc
00000270: 0d8d a93c 66c6 a13c 2f6d 3abc 2585 eeb9
00000280: 2e06 853c c744 8c3c 763c f3bb e8a9 823b
00000290: 20cb 813b d6c0 cbbc 6a3a c1bb 57f7 e2bc
000002a0: c62c 7e3c df2e 983c 4fb2 dfbb 91b7 f33b
000002b0: dca3 35bb 607c 543c fe66 fd3c 37f3 9ebb
000002c0: 85bc 053c 03c7 65bc d353 54bc ca7d f2bb
000002d0: cb65 80ba caa2 f9ba a824 c6bb 5e8b dd3b
000002e0: d99e 5ebb 7d1c b03c cae7 573c 6170 333b
000002f0: f662 733c 1e67 2b3c b889 0abc 7b13 17bb
00000300: 6bfc 10bd c81d 7b3c 2fa0 01bb c0a5 303c
00000310: a8bc f53b c46d 893b 382e 91ba f837 c8ba
00000320: c5f6 2c3b 6025 74bc 6ca8 30bc 2914 c23b
00000330: a963 c93a 47dc 58bb 246f 9b3b 2d22 13bc
00000340: b005 ef3a 5e46 a0bb 3a2c 483c bed0 a5bc
00000350: 439a 78bb c33e 38bc efdb 963c 3e26 b03c
00000360: 8c33 51bc 7dae 9b3b e2c4 b1bb 4ffe 813b
00000370: 5926 8cbc 849c 973b 0249 c3bb 1196 e73b
00000380: b849 b43a 74fc 613c 2e50 463c 6ed2 c8bc
00000390: 4db7 3bbc 87c8 003b 6cb1 a83c d1bf 623b
000003a0: 20fa c63b 386b 8bbc 056c 063c e1ba 44bc
000003b0: 09c5 3e3c efd2 83bc 3c0c 1a3b 4d67 113c
000003c0: 6ad5 87bd 47ff 0e3c d863 f3bc ede7 29bc
000003d0: 3278 453c 19d3 11bc 04b4 3dbb 02ab c03b
000003e0: c1e7 3a39 2705 51bc 0878 39bc 0ca1 9bbb
000003f0: 1407 043c 061e 6ebc 14f2 78bc 6e77 263d
0.010370867 -0.015547552 -0.019441497 0.0098644905 -0.001287231 -0.012828401 0.006632845 -0.0010077883
-0.011689292 0.0043915696 0.004586556 -0.007648478 0.010756224 -0.0068289386 0.012407235 -0.018911798
-0.0026578389 0.0040193433 -0.0015949854 0.008331607 0.0037614354 -0.012528521 0.0037753868 0.014246017
0.009488543 -0.004580977 0.0061818217 -0.009510232 -0.0063918927 0.01722078 0.004779075 0.016848385
0.025768021 -0.0017191439 -0.007787141 -0.0060938685 0.001229797 -0.009630712 -0.00073758955 -0.0021075334
0.012817127 -0.01235047 0.0007407292 -0.0053713475 -0.027547026 0.008481935 0.0059562414 -0.023941493
-0.013732281 1.4996622e-05 -0.022358647 -0.0005907018 0.0113901915 -0.0070918878 0.0049748057 -0.011416763
0.009058635 9.384738e-05 0.0016134926 -0.00077827834 0.00093028776 0.0076444196 0.008113175 0.0069839517
0.012915385 0.024956912 0.006453993 -0.0073565133 0.0053393776 -0.0021376754 -0.008157277 0.010978252
0.03958556 0.011829394 -0.000538566 -0.0073292977 -0.0016479116 0.009043278 -0.0076141804 0.015463909
0.020648412 0.00051350374 -0.006768135 -0.01182694 -0.014307974 0.008671729 0.012117838 0.00278142
-0.00029797753 0.0033440555 -0.008766244 0.0023595062 0.010380115 -0.015264832 -0.010197845 0.005002508
0.027552573 -0.018015523 -0.0005603183 0.017249878 0.0044931453 -0.0001055122 -0.008414538 0.006513445
0.0051105404 -0.00031930226 0.010477946 0.018446203 0.0007452434 0.003974686 0.004523717 -0.010305991
-0.016850725 -0.00036707878 0.01023082 -0.0046859416 -0.01169556 0.0044169384 -0.0027980802 0.00055406423
-5.7857265e-05 -0.05051657 0.0011846904 0.010826608 -0.0034521262 -0.00071822724 -0.015142343 0.0013235564
-0.0037205366 -0.00052520604 0.023219047 -0.015477616 0.003851662 -0.012124605 -0.025333224 -0.00093675556
-0.00012484613 0.011851571 0.006525944 -0.0034417592 0.0033807438 0.0067697377 0.01308598 0.005137711
-0.0091958735 -0.019154383 0.003439941 -0.0062084254 -0.013709054 -0.00277714 0.014293202 0.030340293
0.007003197 0.008904101 0.0015620177 -0.01041451 0.020697141 0.019747924 -0.01137857 -0.00045494098
0.016238298 0.01712264 -0.007422979 0.0039875396 0.003960982 -0.024872225 -0.005896856 -0.027705831
0.0155136045 0.018577037 -0.006826676 0.0074376543 -0.0027716076 0.012969106 0.0309329 -0.004850771
0.008162622 -0.014024499 -0.012959438 -0.007400249 -0.0009795962 -0.0019045707 -0.0060468502 0.0067609986
-0.0033969192 0.02149796 0.013177821 0.0027380215 0.014855137 0.010461597 -0.008455686 -0.0023052383
-0.035396975 0.015326925 -0.0019779315 0.010781705 0.007499296 0.0041939933 -0.0011076396 -0.0015275469
0.0026392203 -0.014901489 -0.010782342 0.0059228134 0.0015364784 -0.003309028 0.0047434736 -0.008980316
0.0018235948 -0.004891201 0.012217576 -0.020241138 -0.0037933744 -0.011245432 0.01841542 0.02150261
-0.012768637 0.0047510252 -0.0054250816 0.0039670835 -0.01710813 0.0046268124 -0.005959631 0.00706745
0.001375488 0.0137931 0.012104077 -0.024514403 -0.0114572765 0.0019650774 0.020592414 0.0034599195
0.0060722977 -0.0170189 0.008204465 -0.012007446 0.0116436565 -0.016091792 0.0023505827 0.0088747265
-0.066325024 0.008727855 -0.029710695 -0.010370237 0.012052583 -0.008900427 -0.002894641 0.0058797607
0.00017824677 -0.012757576 -0.011320122 -0.004749423 0.008058328 -0.014533525 -0.015194435 0.04064124
