embeddings/wavlm_large_6_12/b12fe5719f5667e33f050e77ba3c1d6c9ea4f171.npy (npy, 4224 bytes, 1 tensors)

array f4 [1024]
000000 62 7d c7 3c 01 5e 64 bb 26 21 c3 bc b0 e2 66 3c
       0.02435178 -0.003484607 -0.023819517 0.014092132
000010 d2 ef 69 3b e0 13 16 3c 6f 5b e4 3a c1 87 06 3c
       0.0035695923 0.009160012 0.0017422269 0.008211077
000020 79 ec 0f 3b 22 c5 c3 3c b5 93 f0 3b a3 3c 8f ba
       0.0021961017 0.023897711 0.007341827 -0.0010928105
000030 b9 7c fa ba f9 0b 39 bd 04 c6 52 3b 9b 9b 7e 3b
       -0.0019110657 -0.045177434 0.0032161484 0.0038850072
000040 be cb fa 3b c5 64 47 3c 6e 1a 42 3c ae b5 c2 3b
       0.0076536825 0.012170021 0.011847122 0.005942068
000050 eb 08 3e 3d 14 3d 68 bb 8f fe ac bb 51 28 30 3c
       0.046395224 -0.0035436796 -0.005279369 0.0107518
000060 aa ca 69 ba 44 e8 4a 3c fb b6 d4 ba b8 13 c6 3b
       -0.0008918444 0.012384478 -0.0016228849 0.006044831
000070 a6 a8 86 3c 7f d8 40 3b 5c dc d4 bb a3 27 06 bb
       0.01643784 0.0029425917 -0.0064959954 -0.0020470403
000080 1b 0a 89 bc 58 fe 94 bc bd cd a6 bb b7 b0 39 bd
       -0.016728451 -0.018187687 -0.005090444 -0.045334544
000090 61 ec 30 bb 3a 53 7c bc 48 42 d8 3a 60 00 df bb
       -0.0026996362 -0.015400702 0.0016499246 -0.0068054646
0000a0 ad a5 5c 3c 64 04 34 38 2e da d8 3c d3 12 53 bc
       0.013467235 4.2919433e-05 0.026471224 -0.012882906
0000b0 6b 47 52 3c 85 51 17 3c 6f ea 0d 3c 5b 09 b8 3c
       0.01283441 0.009235744 0.00866185 0.022465399
0000c0 b5 44 f7 bc 52 e9 7e 3c c5 75 a9 3b b6 c0 5d 3b
       -0.03018413 0.015558558 0.00517151 0.0033836788
0000d0 c6 04 e3 bc 9d 27 25 3c 2b 24 88 3b 6e 01 89 3a
       -0.027712237 0.010080245 0.004154702 0.0010452697
0000e0 7e 51 ed 3b 07 e6 4a bb 44 9f 7d b9 78 82 e5 bb
       0.0072423806 -0.003095986 -0.00024187291 -0.0070040785
0000f0 47 7f d8 3b b2 21 f2 bb 1f 3e 4e bc c2 1b 53 3b
       0.0066069695 -0.0073892707 -0.012588053 0.003221259
000100 26 ae 4d bc af a2 4e 3c c0 e6 79 3c 6a a3 d0 3a
       -0.012553727 0.012612029 0.015252769 0.0015917842
000110 0e 55 b8 b9 d2 4e cf 3b cd 0b 4f bc 0b bf 34 3c
       -0.00035158586 0.006326535 -0.012637091 0.011031876
000120 62 20 cc 3c b5 f3 5a bd 03 ad 92 3c ee 4f ec bb
       0.024917785 -0.053455073 0.017904764 -0.007211677
000130 97 bf 12 b9 88 76 5e bc 5e 0d 03 bc 41 73 a0 bc
       -0.00013995018 -0.013578065 -0.007998792 -0.019586207
000140 88 79 c9 3a 57 ab f0 bb 9c 91 99 3c 06 91 7a 3c
       0.0015371302 -0.007344644 0.01874619 0.015293365
000150 66 dc b4 3b d5 1f 3f 3c 0e 66 82 3c 05 e2 3c 3c
       0.0055194376 0.011665304 0.015917804 0.011528497
000160 04 6d 6f bc 85 5e a0 3c 1d a0 3d 3c b9 44 42 bb
       -0.014613394 0.01957632 0.0115738185 -0.0029643013
000170 c5 a9 7b 3a 15 09 7f 3a c8 2b 90 bb 7d d7 bc 3b
       0.0009600188 0.00097288314 -0.0043997504 0.005762993
000180 39 c6 5e bc d5 74 5c 3c 8c a0 85 3c 12 a1 2c bc
       -0.013597065 0.013455589 0.016311906 -0.010536449
000190 20 fc 2d 3c 7a c5 0e ba 1e 87 72 3c 62 2e f4 bb
       0.010619193 -0.00054462964 0.014802722 -0.0074518183
0001a0 7e ed 56 3c 08 9e 85 bc 69 e0 31 3c 56 b9 e3 3c
       0.013118146 -0.016310707 0.010856726 0.027798336
0001b0 be 4c cd 3c b4 43 cd 3b 10 f8 29 3c 6d 2f 5d 3b
       0.025061008 0.0062641744 0.010374084 0.0033750192
0001c0 61 cf d9 3b b1 38 e0 3a 4b 84 b4 3b 94 7d 06 3c
       0.006647036 0.0017106739 0.0055089346 0.008208651
0001d0 42 32 1a bc f7 83 a2 b8 8a 50 30 bc 67 18 d1 3a
       -0.009411396 -7.749342e-05 -0.0107613895 0.0015952707
0001e0 65 be 74 3c 81 c3 fa bb 0a 12 36 3c 91 7f 80 bb
       0.014937972 -0.0076527004 0.011112699 -0.003921457
0001f0 e9 b9 48 bb 17 56 89 3b 5d ec 80 bb 69 db 95 3a
       -0.003062839 0.004191171 -0.0039344267 0.0011433187
000200 bf 9c b1 3b e8 80 a6 bc 08 34 9d 3c 92 a2 dc bb
       0.005420297 -0.02032514 0.01918985 -0.006733247
000210 d8 aa 61 3c b8 40 bc bc 99 bb f9 ba e1 9c 3b 3d
       0.0137736425 -0.022980079 -0.0019053101 0.04580391
000220 76 da 74 bc d6 0d 27 bd be 88 f9 3a 83 c7 05 bc
       -0.014944663 -0.04078468 0.0019037945 -0.008165243
000230 3a 35 ad 3c 32 b1 f3 ba 62 a4 ef bb 10 0d 2f 3b
       0.021143544 -0.0018592237 -0.007313297 0.0026710667
000240 85 a0 86 b9 9d 26 2b b9 e8 44 1f bc 3e 68 81 bc
       -0.00025678068 -0.00016322215 -0.009721018 -0.015796777
000250 a7 10 94 bc ec 64 b8 ba b2 a1 b0 38 72 1e fe 38
       -0.018074347 -0.0014068163 8.422452e-05 0.00012117335
000260 25 a3 c9 3c 55 b4 c8 3c bc 92 aa bb d6 6a 2d bc
       0.024613926 0.024500052 -0.0052054804 -0.010584554
000270 9e 1a 00 3c fd d8 32 3c 67 77 1a 3d dc 89 6f bc
       0.007818846 0.010915992 0.037711527 -0.014620271
000280 3a c8 b6 3b c3 1b 4a 3c bf 12 7e 3c 3c 63 47 3c
       0.005578068 0.0123357205 0.015507399 0.012169655
000290 ab 79 30 3c ea 96 7b bc 72 f8 27 3a c9 29 a2 3c
       0.010771195 -0.015355805 0.00064075657 0.019795315
0002a0 7c 0d 67 3c e7 2f b0 3c 06 0d de bb bf 49 44 bc
       0.014102336 0.021507217 -0.006776455 -0.011980473
0002b0 da db 39 bd 39 0f 6c 3a a8 80 96 3c 4d a7 92 ba
       -0.045375682 0.0009004954 0.018371895 -0.0011188776
0002c0 ef ce 4a 3c 9f d0 20 bc bd d9 7c 3c 38 2d a0 b9
       0.012378438 -0.009815364 0.015432772 -0.0003055127
0002d0 6a 97 62 3c 55 ac 3d 3b 94 e2 4d 3b de 26 a2 bc
       0.013830045 0.002894183 0.0031415569 -0.019793924
0002e0 9f 72 18 3c 06 b6 5d 3c e8 27 fb 3b c2 cd 17 3d
       0.009304672 0.013532167 0.0076646693 0.03706146
0002f0 b6 3f 91 3c 66 f2 c8 3c 06 6f 14 3c 0e 46 92 bb
       0.017730575 0.024529647 0.009059673 -0.0044639176
000300 7b db 53 bc 57 ce 68 bb 6f 77 a3 ba b0 db da 39
       -0.012930746 -0.0035523379 -0.0012471507 0.0004174388
000310 89 46 44 3c 67 39 3c bc d1 ed 6a b9 3e 96 9f 3c
       0.0119797075 -0.011488295 -0.00022404573 0.01948082
000320 66 eb 81 3d c4 16 0a 3c e9 bc 78 bc 0e 83 e2 3b
       0.06343727 0.008428279 -0.015181758 0.0069125956
000330 5a 9f ab bc f2 3c c4 bb ca 21 d1 3a 34 49 3d bb
       -0.020950008 -0.0059887106 0.0015955504 -0.0028882744
000340 53 04 e7 bb 99 51 9e 3a d6 29 03 3d 20 80 a8 3b
       -0.007050076 0.0012078761 0.03202232 0.005142227
000350 27 e5 47 3c 97 3f da 39 c6 64 9a b5 71 b0 7f 3c
       0.01220063 0.00041627578 -1.1503223e-06 0.015606032
000360 e4 73 61 bc fe 10 37 bc dc 48 80 3c a0 07 b6 3c
       -0.013760541 -0.011173485 0.015659742 0.022220433
000370 51 9a 27 3b 52 07 dc 3c 57 0d a8 3a 2a b0 8b 3b
       0.0025574157 0.02685896 0.0012821358 0.0042629438
000380 54 75 de bb 13 7c 8d bb d3 6d 4e 3c 6d 5c 44 3a
       -0.006788889 -0.0043177693 0.012599426 0.0007490579
000390 7b 0f 60 ba de 56 b8 bb 25 ce 63 39 2b 4e c4 3c
       -0.00085472286 -0.0056255898 0.00021725202 0.023963055
0003a0 eb 15 09 3c 1a 6a d7 bc 38 44 8b 3c f9 3b 3d 3c
       0.008367042 -0.02629571 0.017000303 0.011549943
0003b0 21 7d 5a bc 04 b2 36 3c 63 bd 8a bc e2 13 be bb
       -0.013335497 0.011150841 -0.01693601 -0.00580071
0003c0 1d 10 06 be a2 3e c6 bb db 97 1c 3c 5f 74 20 3c
       -0.13092084 -0.006049947 0.00955769 0.00979337
0003d0 5a e6 48 3b 52 c5 62 bb 71 76 53 3a e7 a1 bd ba
       0.0030654878 -0.0034602475 0.00080666604 -0.0014467806
0003e0 e3 90 9b 3b 70 72 94 bb 93 2a 85 bb df 10 bc 3b
       0.0047474965 -0.0045302436 -0.004063913 0.005739316
0003f0 9d 70 f4 ba 2b 71 a7 3b 78 35 36 3c 05 c5 08 3d
       -0.0018649284 0.005109926 0.011121146 0.033391017
