embeddings/wavlm_large_6_12/b37922ef6ce90744e8a43b3e59cd2f44905f9efb.npy (npy, 4224 bytes, 1 tensors)

array f4 [1024]
000000 fc 26 01 3d 7c fc fd bb ba dd 44 bc fe ea 7f 3c
       0.03153132 -0.0077510457 -0.012015754 0.015619991
000010 46 be dd 3b 75 af bd 3c f7 10 96 3b cb f0 30 3c
       0.006767067 0.023154953 0.004579659 0.010799597
000020 98 1b 65 3b a2 85 bd 3c c6 d3 43 3b 9c ac f4 ba
       0.0034959074 0.02313501 0.0029880865 -0.0018667164
000030 5d fb 2a 3c 4b 5a 08 bd 0d 71 d1 bc 3b a4 65 bb
       0.010435906 -0.033289235 -0.025566602 -0.0035040516
000040 60 10 7e bc b7 c8 c9 3c 4d 19 ce 3b 80 21 75 3a
       -0.015506834 0.024631841 0.006289637 0.0009351
000050 2e f2 04 3d 7c 06 e3 bb 03 67 04 3c 11 12 61 3c
       0.032457523 -0.006928263 0.0080812005 0.0137372175
000060 29 71 ad bc 9f 9b aa bb b0 51 47 bc 85 1d 49 3c
       -0.021172123 -0.0052065398 -0.012165472 0.012275104
000070 44 cd a6 bb 54 4a 8f bc 3d c4 ea 3b a1 33 b6 b9
       -0.0050903875 -0.017491497 0.0071645067 -0.00034752212
000080 58 66 5f 3c 8d 76 34 bc d7 2c 05 3c 00 1f 03 bd
       0.0136352405 -0.011014593 0.008128366 -0.032011986
000090 bb 7e ed bc 8f d4 20 bc 20 18 39 bb 2c 4e 46 bc
       -0.028991094 -0.009816303 -0.002824314 -0.012103599
0000a0 79 18 28 3c 9d 36 15 bc 60 12 91 3c d1 67 2a b9
       0.010259741 -0.009107259 0.017708957 -0.00016251138
0000b0 c2 80 21 3c f9 1a fa 3b 28 5b 6d 3b ab 94 09 3d
       0.009857358 0.00763261 0.0036217663 0.033589046
0000c0 bf 14 3a bc 71 06 32 3c 69 fb f6 3a e7 0f dd bb
       -0.011357485 0.010865794 0.0018843237 -0.0067462805
0000d0 30 17 fc bc b7 44 aa 3c 99 bb 31 3c c6 6e 2a 3c
       -0.030772775 0.020784719 0.010847949 0.010402387
0000e0 6b 3c 30 3c c3 d8 8e 3c 83 03 27 3c f5 aa ab 3b
       0.010756592 0.017437344 0.010193708 0.0052388855
0000f0 6b 52 c9 3b 0b 12 c5 bb 0f 36 9a 3b 7f ec c2 3b
       0.006143858 -0.006014114 0.0047061513 0.0059486027
000100 62 44 66 bb c8 4e 48 bc 4b 18 bd 3b 53 44 22 3b
       -0.0035135974 -0.012225814 0.005770718 0.0024759963
000110 ca bc 94 ba 2d 34 de ba b9 22 60 3b ed 6c 81 3c
       -0.0011347767 -0.0016952805 0.0034200384 0.01579901
000120 bc df 37 3c d7 89 ae bb 1d 44 1c 3b 56 36 00 bc
       0.011222776 -0.0053264904 0.002384431 -0.007825455
000130 06 60 08 bc 02 91 9d bc 12 ed f0 ba d1 d3 31 bc
       -0.008323675 -0.019234184 -0.0018381199 -0.010853724
000140 88 e5 7d bc eb 2a 75 b9 f4 26 38 3c 8e b1 90 3c
       -0.015496619 -0.00023381009 0.011239756 0.01766279
000150 65 8b ee 3a 85 f8 6d bb 38 2c bd 3c f9 c7 65 3c
       0.0018199502 -0.003631146 0.023092374 0.014024728
000160 52 58 f7 bb 3b 96 27 3c ac 25 09 3a 61 e1 17 bb
       -0.0075483704 0.010228689 0.0005231749 -0.0023175108
000170 2f 42 77 3b ff 50 01 bc 0e e1 82 3c 19 71 26 bc
       0.0037728657 -0.007892846 0.015976455 -0.0101588005
000180 6e 5c 58 b9 21 6e c9 3b d0 64 61 3c d2 f2 b8 bb
       -0.00020633798 0.0061471616 0.013756946 -0.005644181
000190 38 ee 9a 3c 67 c1 a4 bb 6b f3 69 bc bf 57 27 bc
       0.01891242 -0.005027938 -0.014279227 -0.010213791
0001a0 c7 2a 6b 3c cf 9b 72 bc 6b 15 1a 3c 58 de b3 3c
       0.014353461 -0.0148076555 0.0094045205 0.021956608
0001b0 cc ca 88 ba 31 96 80 3c 4f 8f ec 3b 47 82 af bb
       -0.0010436415 0.015696617 0.007219232 -0.0053561064
0001c0 ab e5 00 bc 46 7a cb b9 46 f5 cf 3b bb 00 10 3c
       -0.007867257 -0.00038810278 0.0063463775 0.008789237
0001d0 34 ad 45 bc b4 7b 16 3b 44 44 70 bc 59 53 10 3b
       -0.012065221 0.0022961916 -0.014664713 0.0022022335
0001e0 53 39 01 ba fc 13 86 bb 50 49 8d 3b b7 f8 ad 3b
       -0.00049295014 -0.004091738 0.004311718 0.00530919
0001f0 a3 b6 c9 bc 3f d3 8b bc 6b fd 47 3b 8e 36 b0 3b
       -0.02462322 -0.017068503 0.003051604 0.005377597
000200 70 11 17 3b 2f 5f ae bc bd 66 a0 3b 75 83 2a bb
       0.0023051165 -0.021285621 0.00489506 -0.0026018296
000210 9a 0c bb 3b 25 26 87 bc 83 28 c9 bb f0 b7 94 3c
       0.0057082893 -0.01649768 -0.0061388626 0.018154114
000220 64 c9 04 bc bb 08 11 bd df 2f b3 bb 5a 08 f9 ba
       -0.008104656 -0.035408717 -0.005468353 -0.0018999681
000230 40 30 9f 3b 82 15 8b b8 ce 12 e4 bc d8 9c f0 bb
       0.004858047 -6.632043e-05 -0.027840998 -0.007342916
000240 01 32 99 3b a9 9e 72 bb 0c 63 4f 3b 47 95 97 bb
       0.0046751504 -0.0037020838 0.003164473 -0.0046259495
000250 b5 58 d7 bb 5d 3b 41 ba 98 1d 8b bc d0 5d 58 ba
       -0.006571854 -0.00073712115 -0.016981885 -0.0008253725
000260 82 cb ad 3c be fc d7 3c 3c 1b d7 bb 61 ed 8a 3a
       0.021215204 0.026365634 -0.006564526 0.0010599309
000270 b5 b8 26 3c 55 d1 9e 3c 16 92 50 3c 4c 8a 8a 3b
       0.0101758735 0.019386927 0.012730142 0.004227912
000280 38 bc 30 3c 55 f2 0c 3c 66 e8 b1 3c 45 5b 67 3c
       0.010787062 0.008602698 0.021717262 0.014120881
000290 d2 dd 99 3c ea db 60 3b 86 f5 56 bc 0b 23 79 ba
       0.01878253 0.0034310766 -0.013120061 -0.0009503818
0002a0 9f 99 ab 3b 90 ce 49 3c 15 4a 80 b9 e0 39 3b bb
       0.005236819 0.012317315 -0.00024469258 -0.0028568432
0002b0 07 2c a0 bc af c9 2e 3b d6 ee 34 3d af bd a9 3a
       -0.019552244 0.0026670506 0.044173084 0.0012950207
0002c0 35 8b 1b 3c f9 3a 9c 3b b2 6b 9c bb 5a 0f e8 ba
       0.009493639 0.0047677723 -0.0047735805 -0.001770477
0002d0 73 ed 95 3c df b3 d4 bb b2 05 b1 3b 68 e7 5b bb
       0.018301701 -0.006491169 0.0054022903 -0.0033554677
0002e0 3a 46 5a bc 72 77 63 3b de e6 97 3c 42 43 ae 3c
       -0.013322407 0.0034708646 0.018542703 0.021272305
0002f0 37 67 56 bb 09 de 08 3c 88 7d 87 3c 07 30 22 bb
       -0.003271533 0.008353719 0.01653935 -0.0024747865
000300 0c d2 cb bc 19 9a bf bb fa d6 73 bb 3a 95 17 3b
       -0.024880432 -0.0058472273 -0.0037206993 0.0023129717
000310 ab 57 8d 3c c8 d4 fb ba 05 17 ac 3c b3 7b fd b9
       0.017253717 -0.0019213194 0.02100707 -0.00048348084
000320 1d 8e bb 3c 33 c6 f7 3a 60 5c 30 bb 56 c7 5b 3c
       0.022894913 0.0018903672 -0.0026910529 0.013414225
000330 ce 20 93 bc be b7 9d bb 74 32 9c 3b 03 ad b0 bb
       -0.017959978 -0.0048131635 0.0047667567 -0.0053917184
000340 c2 b7 36 bc f1 16 ed bb 1f 48 b0 3c 6d 7e 89 bb
       -0.01115221 -0.007235401 0.021518765 -0.0041959793
000350 f8 20 7f 3c 22 34 a4 3b 97 6e 67 3b eb d0 0a 3c
       0.015571825 0.0050110975 0.003531372 0.0084726615
000360 a9 53 43 bc a1 0d 13 bc e6 57 65 3b 2a 6b 07 bb
       -0.011921802 -0.008975417 0.0034995019 -0.002066324
000370 2b 4e 31 bb 8c 92 25 3c 08 38 f9 3a cb a4 6e b9
       -0.0027054648 0.01010574 0.0019013891 -0.00022758839
000380 9e 83 8a 3b af 40 bf b9 a8 c0 8b 3c 7b d9 3c bc
       0.004227116 -0.00036478552 0.01705964 -0.011526461
000390 4b 72 98 bc fb 95 d0 3a c1 58 39 39 49 a9 d9 3b
       -0.018609187 0.0015913838 0.00017676038 0.006642495
0003a0 b4 24 85 3b 48 a2 48 bc b5 69 4f b7 24 6d dd 3a
       0.0040632132 -0.012245722 -1.2362773e-05 0.0016893488
0003b0 a4 d3 59 bc dc e6 9f 3c 24 ab 41 bc 27 36 9f 3b
       -0.013295088 0.019519262 -0.011820588 0.0048587504
0003c0 7b 59 27 be 40 4e f9 3b ae 68 34 3c 90 6d e0 3b
       -0.16342728 0.007608205 0.011011286 0.0068489984
0003d0 f4 d9 ab b8 07 c9 96 3c a4 a3 1d bc c8 65 81 3a
       -8.194512e-05 0.018406404 -0.0096215345 0.0009872252
0003e0 fe 68 96 bb 79 5a 17 ba 55 6b 66 bb 79 af 43 3c
       -0.0045901528 -0.00057736743 -0.003515919 0.011943691
0003f0 33 55 98 bc 09 b2 ce ba 74 23 ed bb e8 94 1b 3d
       -0.018595314 -0.0015769611 -0.0072368924 0.037983805
