embeddings/wavlm_large_6_12/b3eeae5a270af0a1f03916e020da3eefd8149935.npy (npy, 4224 bytes, 1 tensors)

array f4 [1024]
000000 5e dc 97 3c cd 9a 37 3b f1 9b 27 bc 98 c5 2b 3c
       0.018537696 0.0028015852 -0.01023005 0.010484122
000010 69 ea f7 3b 34 b4 4b 3c 8c 2f 8d 3b 74 b2 52 3c
       0.0075657857 0.0124331005 0.0043086465 0.012859929
000020 ed 76 5e 3c fa 05 4b bb 29 45 c0 3a 2b 99 35 bb
       0.013578159 -0.0030978904 0.0014669049 -0.0027709703
000030 56 60 ff 3b cd f3 d2 bc 1e 6b 9f bb e0 41 a2 bb
       0.0077934666 -0.025751019 -0.0048650643 -0.0049517006
000040 00 34 a8 3a ab 23 0e 3d ce d6 00 3c 8d c8 73 3b
       0.001283288 0.034701984 0.007863713 0.0037198395
000050 74 c2 04 3d 38 d5 cc ba 35 b4 02 3c 54 36 83 3c
       0.032412007 -0.0015627509 0.007977535 0.016017117
000060 fd a9 32 bc d2 45 27 3c aa dc 8b bc ff 8e 1a 3c
       -0.010904786 0.010209518 -0.017072994 0.009433507
000070 7c 70 82 bb f1 81 9d bc e9 c8 9c bb 90 40 7e bb
       -0.0039806943 -0.019227 -0.0047846925 -0.0038795806
000080 4c 12 83 3c 3c 05 86 bc 5d 0a 16 3b 3c f7 4f 3c
       0.015999936 -0.016359918 0.002289436 0.012693223
000090 84 28 d5 ba c1 1e d0 bb ed e8 ed bb 4c ac 7f bc
       -0.0016262685 -0.0063513224 -0.007260433 -0.015605044
0000a0 1c 78 56 3c db d6 de bc 8d 70 d3 3c 05 ba 11 bc
       0.01309016 -0.02720206 0.025810504 -0.008894448
0000b0 30 01 16 3c c8 26 15 3c ec ba bd 3b bf 31 9f 3c
       0.009155557 0.009103484 0.005790105 0.0194329
0000c0 e3 4a 79 bc 93 01 5b 3c d6 42 cb 3b 6a 69 71 38
       -0.015215608 0.013367075 0.006203036 5.7557052e-05
0000d0 c6 d6 05 bc e0 79 e0 3b 13 ac fd ba cc 8a 81 3b
       -0.008168882 0.006850466 -0.001935365 0.0039533135
0000e0 72 6b 05 bc 36 82 4a 3c b4 29 bc bb 99 28 4d 3a
       -0.008143293 0.012360146 -0.005742276 0.0007826179
0000f0 cb 2a 8d 3b b7 3d 4e 3b ac 79 1d bb 11 78 02 3c
       0.00430808 0.003146989 -0.002402882 0.007963196
000100 d9 99 23 bc 64 d1 5f 3a 47 3c e2 3b d8 0b 78 bb
       -0.009985411 0.00085379765 0.0069041583 -0.0037848856
000110 8a 30 d6 39 e5 f7 2a 3c cd 55 29 3a b6 8e d8 3b
       0.00040853425 0.010435079 0.00064596237 0.0066088093
000120 6f ee dc 3b 12 3c c0 bc 10 b0 65 3c a1 e3 55 bc
       0.0067422907 -0.023466144 0.014019027 -0.013054759
000130 cc 73 f1 bb a8 46 e3 bb 5b 9e 28 3b 92 81 b6 b9
       -0.0073685404 -0.006935913 0.0025729153 -0.00034810283
000140 84 3b 66 bb d6 db f8 bb fd f4 4a 3c d3 33 2a 3c
       -0.003513069 -0.007594566 0.012387511 0.010388332
000150 7d 2e 34 3c 86 31 bf 3b 30 94 55 3c c7 4f 8f bb
       0.010997412 0.005834761 0.013035819 -0.004373524
000160 26 ea 85 bc 2e 3c db 3b 4b bc cd bb 33 9c 0a bc
       -0.016347002 0.0066905236 -0.00627855 -0.008460092
000170 7f cf 0d 3c 1b 6c 22 bc 23 90 65 3c f9 3f a6 bb
       0.008655428 -0.00991347 0.014011416 -0.005073544
000180 e4 9d 13 bc c3 2c 6d bb 8f 8d f4 3b 19 4d 88 38
       -0.009009812 -0.003619001 0.007463164 6.499346e-05
000190 18 55 37 3c ac ff df 3b 0e 95 4c 3c ac a8 1b bc
       0.0111897215 0.0068358984 0.012486709 -0.009500664
0001a0 59 3a 17 bc b6 20 25 bc 81 6b f6 3a 11 b6 9d 3c
       -0.00923022 -0.0100786 0.0018800349 0.019251855
0001b0 fa 21 c9 bb 8c 21 fc 3a a4 04 09 3c b2 ff 8f bb
       -0.0061380835 0.0019236072 0.008362923 -0.004394495
0001c0 08 1d 61 bc fc 38 8a 3b 8b 67 62 bb c7 1f b8 39
       -0.013739832 0.004218219 -0.003454658 0.0003511889
0001d0 55 8e 0f bc 64 3e 56 3b e9 b0 5e bc 45 b5 50 3c
       -0.008761962 0.0032690996 -0.013591983 0.0127385305
0001e0 86 79 a1 3b ce 66 92 bb de 6b 60 bb 8d 00 0c 3c
       0.004927817 -0.0044678217 -0.0034243981 0.008545053
0001f0 ed 5c 69 3c 9d 89 39 bb af b3 d2 bb 75 82 c8 3b
       0.014243347 -0.0028310784 -0.0064301114 0.0061190673
000200 56 75 e7 3b ed 8a c2 bb 97 ba 9b 3c c5 c4 77 3b
       0.007063548 -0.0059369714 0.019009871 0.0037806493
000210 76 67 4d 3b 3b da 67 bc 47 98 98 3b 89 48 0c 3d
       0.0031342185 -0.014151151 0.0046568247 0.034248862
000220 37 c9 e6 bb ac de 5c bd 37 a5 1f b8 eb f4 5d 3b
       -0.0070430296 -0.053923294 -3.8062422e-05 0.0033867906
000230 d9 e0 8b 3b 8a 81 5e 3b 1e 84 a0 ba a8 de 1d bb
       0.0042687473 0.0033951723 -0.0012246405 -0.0024089012
000240 12 5b 1a 3c 36 7a 2e bb 6c 95 8d ba 74 50 b7 bc
       0.009421127 -0.0026623136 -0.0010801977 -0.02237723
000250 b0 17 4b bd ec 4d ed bb eb 14 06 bb ee fa 16 bb
       -0.049583137 -0.007241955 -0.0020459245 -0.002303775
000260 e2 9e 90 3c 27 8f e1 3c 8c 79 f0 bb d9 7e 33 3b
       0.017653886 0.02753408 -0.0073387083 0.002738884
000270 a2 4d 0e bb 10 90 93 3b a7 09 52 3b 52 e6 f4 bb
       -0.0021713753 0.0045032576 0.003204921 -0.0074737454
000280 a2 6a 52 3c 80 24 b4 ba 0e 3f 94 3c da 7b b7 3b
       0.012842806 -0.0013743788 0.018096473 0.005599481
000290 b7 32 32 3c b1 0c aa bc 43 9d 1c 3c 10 09 fe ba
       0.010876349 -0.020758005 0.0095589785 -0.0019381363
0002a0 ad 0c 28 3c 83 d0 98 3c ed c9 8f 3b 87 db f6 ba
       0.010256928 0.018654114 0.004388085 -0.0018833735
0002b0 70 e6 11 bd e0 34 71 bc c5 54 53 3c 26 9a d5 3c
       -0.035620153 -0.014722079 0.012898629 0.02607448
0002c0 8f a0 47 ba b3 9b 05 bc 8d 1c e2 3c bc 2a 99 bc
       -0.00076151727 -0.008154797 0.027601505 -0.018697135
0002d0 a4 7e 8b 3c 4f e2 1d bc e8 55 e0 3b d9 6e 91 bc
       0.01702816 -0.009636476 0.0068461783 -0.017753052
0002e0 b3 a9 72 3c 6b 50 af ba 54 95 1b 3c 90 0e ba 3c
       0.014810967 -0.0013375407 0.009496052 0.022712022
0002f0 e6 03 c0 3c 29 0d c0 3c 5a f7 6c 3c dd 34 13 3b
       0.023439359 0.023443775 0.01446327 0.002246193
000300 0f 68 c4 bc ab da 37 3c d3 50 8f bb 20 4e 24 bc
       -0.0239754 0.011221568 -0.0043736487 -0.010028392
000310 19 01 37 3c 4c be e4 bb 23 39 2b 3c da f3 c8 3b
       0.011169695 -0.006980693 0.010450634 0.006132585
000320 e5 e8 83 3d fe 4f cc b6 c1 c8 76 ba dc aa be 3b
       0.064409055 -6.088986e-06 -0.000941407 0.005818708
000330 7a 7e 15 3d e7 c4 81 3b 5e 22 14 3c 4f dc c1 ba
       0.03649757 0.00396024 0.009041397 -0.0014790389
000340 49 32 58 bc 97 98 e6 3b 94 81 c0 3b 38 c6 41 3c
       -0.013195583 0.007037233 0.005874822 0.011827044
000350 0a 0e 0d 3c 51 bf f3 3b 98 99 b5 3c 97 cb 70 3c
       0.008609304 0.007438578 0.022167966 0.014696977
000360 3b 2c bd b9 d2 37 36 bd 02 8d 1a b9 74 cf 8d 3c
       -0.00036081843 -0.04448683 -0.00014739114 0.017310835
000370 38 7e b1 bb a5 65 b9 3c bd 1d 6b bc 1f b0 4f bb
       -0.005416658 0.022631476 -0.014350352 -0.003169067
000380 e0 21 db bb 0e 9a d2 bb 58 06 1d 3c 2f 09 c6 b9
       -0.006687388 -0.006427056 0.009584032 -0.00037772345
000390 51 fa 34 bc 00 6a 67 bb 92 2a 1f bb 08 91 95 3c
       -0.011046008 -0.0035310984 -0.0024286848 0.018257633
0003a0 c9 aa 3c 3b 5f ca d8 bc a1 59 b1 bb c7 1f 5d bb
       0.002878832 -0.026463686 -0.005412296 -0.0033740865
0003b0 aa 3d 8d bc 89 38 27 3b ef 97 aa bb 6c 82 bd bb
       -0.017241318 0.0025515875 -0.0052061 -0.0057833698
0003c0 ff 28 29 be 73 fc 24 3b 20 4b 1c 3c 2e 48 ad 3a
       -0.16519545 0.0025174886 0.009539396 0.0013220364
0003d0 c7 25 f0 3b b1 94 60 bb 68 f4 15 3c a2 6d 44 bc
       0.007328722 -0.0034268314 0.009152509 -0.011989029
0003e0 8d 0b 12 3c f5 c7 4e bb b8 ab 8c bb 14 a0 9c 3b
       0.008913887 -0.003155229 -0.0042929314 0.004779825
0003f0 a7 15 e9 bb ba 73 14 3c 16 71 5e bb ea 39 2a bd
       -0.007113177 0.0090607945 -0.0033941916 -0.041559137
