embeddings/wavlm_large_6_12/b4ef93b2e09ee2f3c62441f9c92c35e91e0cf933.npy (npy, 4224 bytes, 1 tensors)

array f4 [1024]
000000 4a 5a bf 3c 2f 84 e6 3a b8 7b 1f bc 68 29 9f 3c
       0.023358483 0.0017587001 -0.009734087 0.019428924
000010 cb 90 17 3c e7 32 93 3c 80 a9 b2 3b 8e 12 fa 3b
       0.00925083 0.017968608 0.005452335 0.0076316064
000020 02 61 6d 3a 57 d4 ae 3c 59 40 fd 3a 08 92 d4 ba
       0.0009055288 0.021341486 0.0019321545 -0.0016217837
000030 e8 34 5e 3c 9d c9 eb bc 74 26 9c bc 9f 35 04 bc
       0.0135624185 -0.02878266 -0.019061305 -0.008069425
000040 75 d8 d1 bb ef 54 bb 3c 29 ef 2b bb 3e 73 3d 3b
       -0.0064039775 0.022867648 -0.002623508 0.00289078
000050 05 c9 01 3d 42 7f 35 bb 24 7a df b9 da 11 0f 3c
       0.031685848 -0.002769426 -0.00042624876 0.0087322835
000060 b4 8b 8d bc 6e 6d 9b 39 b7 de 81 bc 97 c4 85 3c
       -0.01727853 0.00029645435 -0.015853269 0.016329093
000070 46 ae c0 3a ff f4 85 bc 7b b6 28 3c f1 32 ff b7
       0.0014700375 -0.016352175 0.010297413 -3.042209e-05
000080 eb 6d 0d b8 59 c5 13 bc 0a 10 3a 38 8b 92 db bc
       -3.371939e-05 -0.009019219 4.4360793e-05 -0.026803276
000090 e5 28 c6 bc d9 e7 d0 ba a2 5a d9 bb 1c 9e 19 bc
       -0.024189422 -0.0015938237 -0.0066331187 -0.009376075
0000a0 29 04 3f 3c f1 fe 93 bc a9 6d 45 3c 20 48 00 bc
       0.011658707 -0.018065901 0.012050071 -0.007829696
0000b0 4a 08 d4 3b 7d 1d de 3b 67 02 e1 3b 93 a7 00 3d
       0.0064707147 0.0067784176 0.0068667415 0.03140981
0000c0 8e 96 63 bc 41 79 08 3c c5 db a5 3b f7 2c 72 bb
       -0.0138908755 0.00832969 0.005061599 -0.003695307
0000d0 2c 54 9b bc 5f d3 c1 3c ab e1 ad 3c 2f 26 3c 3c
       -0.018961035 0.02366036 0.021225771 0.011483713
0000e0 65 f8 14 3b 7e 6c 9c 3c 98 62 11 3c c6 86 00 bb
       0.0022731062 0.019094702 0.008873604 -0.0019611581
0000f0 a2 86 a1 3b f3 6b 83 bb b4 21 a1 39 13 71 8f 3b
       0.0049293796 -0.0040106713 0.00030733424 0.004377493
000100 5b 50 bc bb dd 54 47 bb d5 5e f6 b9 d7 9c 56 bb
       -0.005746884 -0.0030415573 -0.00046991432 -0.0032747292
000110 64 1f e5 bb b4 cb fd bb a9 36 1c bb 9e 95 66 3c
       -0.0069922674 -0.0077452306 -0.002383629 0.014073757
000120 e1 55 a5 3c 67 02 a9 bc 70 c5 5a bb b7 57 74 39
       0.020182552 -0.020631028 -0.0033381842 0.0002330233
000130 e1 61 8a bc a8 a8 72 bc 1d ba af bb be 95 97 bb
       -0.016892375 -0.014810719 -0.0053627626 -0.004626005
000140 6d e7 32 bc f0 d3 24 ba ac 0f 34 3c 68 82 bb 3b
       -0.010919434 -0.00062876847 0.010990065 0.0057223327
000150 ad c9 bc ba e0 87 93 ba db 96 a7 3c 55 c2 35 3c
       -0.0014403366 -0.0011255704 0.020457676 0.011093696
000160 be 10 89 3b 3a 4d 52 3c ce 7d dd bb ac 5b f9 bb
       0.004182904 0.012835795 -0.006759382 -0.007609805
000170 09 e5 8f 3b 47 65 43 bb c7 02 46 3c 99 b6 04 bc
       0.004391317 -0.0029815005 0.012085623 -0.008100175
000180 04 f5 ab bb 09 f7 18 bb 80 22 33 3c 36 7a c7 bb
       -0.005247714 -0.0023340604 0.010933518 -0.0060875667
000190 4f 72 ad 3c 0e dd 8a 3b bf d6 63 bc 60 85 f7 bb
       0.02117267 0.0042377776 -0.01390618 -0.0075537413
0001a0 00 f2 71 3c 15 61 cd bb 80 87 35 3c 49 31 b8 3c
       0.01476717 -0.0062676766 0.011079669 0.022484438
0001b0 da 92 08 3b 2b b1 46 3c 84 d8 6a 3c bc 62 1e 3b
       0.0020839483 0.012127201 0.014333848 0.0024167737
0001c0 90 d2 18 bc cb 23 0d bb 2a 93 48 3b 73 fc 15 3b
       -0.009327546 -0.0021536227 0.0030605295 0.0022886067
0001d0 f7 80 4c bc 6c c1 06 3c 51 4e cd bb 99 97 2f 3c
       -0.0124819195 0.008224826 -0.0062654396 0.010717296
0001e0 1b 51 c1 39 10 fb 96 ba 8c c3 f8 38 b7 21 1f 3b
       0.00036872257 -0.0011518914 0.00011861985 0.002428157
0001f0 a1 55 c1 bc 6c ce cd bc ec bb 93 3b 31 88 84 3b
       -0.023600401 -0.025122844 0.004508486 0.0040445556
000200 97 da 94 3c 9a 7e aa bc fd 66 53 3c 8b fe 7c 3b
       0.018170638 -0.020812321 0.012902972 0.0038603868
000210 5f c7 a3 3c 65 75 b7 bc 23 c1 1f ba 62 e8 70 3c
       0.019992528 -0.022394845 -0.0006094148 0.014703842
000220 3f d6 e1 bb d7 dc 0b bd 55 5d 36 bb 00 f4 7e bb
       -0.006891995 -0.034146156 -0.0027826626 -0.003890276
000230 51 46 78 3b 52 36 3d bb de 6e ed bc 08 80 e5 bb
       0.0037883709 -0.0028871489 -0.02898353 -0.007003788
000240 a1 21 19 ba 26 bb 15 3c e0 13 9b ba 97 88 0f bc
       -0.0005841498 0.009138858 -0.0011831485 -0.008760593
000250 0f b3 83 bc 57 d1 94 ba f3 c8 dc bb 76 d0 4b 3a
       -0.016076593 -0.0011353892 -0.006737822 0.00077748985
000260 d7 c9 d8 3c 1c 3a 15 3d 69 79 8a bc 2a 52 c0 3b
       0.026463432 0.03643237 -0.016903596 0.0058691697
000270 f5 44 1a 3c 27 d2 8b 3c 85 f8 a6 3c c0 cf a6 ba
       0.009415855 0.017067982 0.020382175 -0.0012726709
000280 8f 4d 65 3c dc 17 84 3b ce 62 b9 3c e1 9c 6f 3c
       0.013995542 0.0040311646 0.022630122 0.014624805
000290 c5 64 a8 3c 0f 3a e5 3b 77 58 ea bb 56 94 30 bc
       0.020555863 0.0069954465 -0.007151659 -0.010777554
0002a0 0e 6a 2e 3a 35 7e 5f 3c 7c e2 92 bb 07 50 b9 b9
       0.00066533766 0.01364093 -0.0044825654 -0.00035345575
0002b0 85 eb c3 bc 31 d9 b3 bb 2c 81 00 3d e7 7d 56 39
       -0.023916015 -0.0054885377 0.031373188 0.00020455533
0002c0 74 f5 1b bb 76 24 2e 3c a0 6a 98 3b 8d ef 23 3a
       -0.0023797425 0.01062881 0.0046513826 0.00062536524
0002d0 b6 bf 6b 3c 6e b7 02 bb 62 97 ae 3a 0f 94 4d bb
       0.014388969 -0.0019945758 0.0013320262 -0.0031368767
0002e0 c5 a0 ed bb 3b ed 84 3c 46 f9 bc 3c 20 d6 fb 3c
       -0.0072518312 0.016226402 0.023068082 0.030741751
0002f0 e6 81 db 3b 10 6b 25 39 5d 87 57 3c 47 24 42 bb
       0.0066988347 0.0001577551 0.013154832 -0.0029623674
000300 33 e3 00 bd 5d 49 42 39 1a 21 7a bb 48 85 ab bb
       -0.031466674 0.00018528612 -0.0038166703 -0.005234394
000310 57 01 27 3c 0e 2c 12 bb 44 db a4 3c 0e 2e e5 bb
       0.010193191 -0.002230409 0.020124085 -0.0069940155
000320 b8 55 17 3d 0f 16 1a 3b ec 30 36 bc d6 c6 24 3c
       0.036946982 0.0023511683 -0.011120062 0.010057172
000330 9a a8 a2 bc 40 c5 e8 bb e8 0b 92 ba f8 24 16 bc
       -0.019855786 -0.007103592 -0.0011142464 -0.0091640875
000340 b4 19 a4 bc 24 8b 27 bc 77 6d e6 3c 44 15 f7 3b
       -0.020031787 -0.010226045 0.028128369 0.007540377
000350 da 7c 06 3c 89 4c a5 3b 4d 69 04 3d 43 c4 51 3b
       0.008208478 0.005044524 0.032326985 0.003200785
000360 8b b6 42 bc e1 08 7a bc 74 06 3c 3c c1 df 1f bc
       -0.011884342 -0.015260906 0.011476148 -0.009757937
000370 59 ba f4 ba 9a f0 30 3c 1a 6b 6e 3b ec bf f7 ba
       -0.0018671259 0.010799551 0.0036379755 -0.0018901802
000380 45 21 90 bb f7 c3 1b 3a 5b 97 01 3d 60 ff 50 bc
       -0.0043984973 0.0005941982 0.031638484 -0.012756199
000390 42 e6 e0 bb de d6 b7 3b 67 4e d0 3a 6f fa a1 3b
       -0.0068633864 0.005610331 0.0015892506 0.004943184
0003a0 ae bb 26 3c e7 5b a0 3b 94 45 ca 3b 30 67 18 bb
       0.010176582 0.004893768 0.006172845 -0.0023254864
0003b0 cd 2a 51 bc dd 6d b3 3c 5f 2b 7f bc 2b f6 da b9
       -0.012766552 0.021902973 -0.015574305 -0.0004176361
0003c0 c1 47 32 be cc c9 85 3c 13 f8 0b 3c 82 f8 8e 3c
       -0.17410184 0.016331576 0.008543032 0.017452482
0003d0 91 d4 65 3b fb d2 24 3c 78 43 2e bc 08 30 0e 3b
       0.0035069326 0.010060067 -0.010636203 0.002169611
0003e0 26 68 ab bb 3c f7 3c ba 6f 23 16 bb 19 ef 48 3c
       -0.0052309213 -0.00072084717 -0.0022909304 0.012264037
0003f0 68 c5 5c bc 3b 25 50 ba a3 99 54 bc bd d8 c5 3c
       -0.0134748 -0.0007940118 -0.012976083 0.0241512
