embeddings/wavlm_large_6_12/b58986821881120c650d27d88d70702a159f4202.npy (npy, 4224 bytes, 1 tensors)

array f4 [1024]
0	0x3bd3983d	0.006457357
1	0x3c1f5668	0.009725191
2	0xbc9646c8	-0.018344298
3	0x3c9430c6	0.018089663
4	0xbb22b079	-0.0024824424
5	0x3c90fb59	0.017697977
6	0x3c00cb54	0.007860977
7	0x3c33f9d3	0.010984856
8	0x3bcd29f1	0.0062611033
9	0x3c87b9e3	0.01656813
10	0xbb4c7e44	-0.003120319
11	0xbb28fe45	-0.0025786322
12	0x3c0fe3a1	0.008782298
13	0xbd036253	-0.03207619
14	0xbc68c331	-0.0142066935
15	0xb93fbcac	-0.00018285465
16	0x3c35a023	0.011085543
17	0x3c1646c8	0.009172149
18	0x3b9b48e5	0.0047389143
19	0x3bc269f8	0.0059330426
20	0x3d21ffc5	0.03955056
21	0x3b0284c3	0.0019915558
22	0x3b75fb2c	0.0037533743
23	0x3c8de09e	0.01731902
24	0x3ada8cee	0.001667408
25	0x3b57fe30	0.0032957904
26	0xbb79af49	-0.0038098863
27	0xbb8fe74f	-0.004391588
28	0x3bfc179d	0.0076932446
29	0xbc4068f6	-0.011743775
30	0xba41f797	-0.00073992595
31	0x3a2e33ff	0.0006645321
32	0xbbede99f	-0.007260516
33	0xbc97cf56	-0.018531483
34	0xbc079055	-0.0082741575
35	0xbcb69e51	-0.022292288
36	0x3c4dd1be	0.012562213
37	0xbcca0683	-0.024661308
38	0x3c1ee691	0.009698526
39	0xbc29bcd6	-0.010359963
40	0x3ca0603c	0.019577138
41	0xbc3eedae	-0.011653347
42	0x3c27cb89	0.010241398
43	0xbc2b5c21	-0.010458977
44	0x3c021149	0.007938691
45	0x3c1205da	0.008912528
46	0x3c2856c2	0.010274591
47	0x3be02b2e	0.006841085
48	0xbc946869	-0.018116193
49	0x3c05f2f8	0.008175604
50	0x3c42d736	0.011892131
51	0xbbca2abc	-0.006169645
52	0xbcc85efb	-0.024459353
53	0x3c5e2db3	0.0135607
54	0xb80cc14b	-3.355862e-05
55	0x3c60e74d	0.013727021
56	0x3be0b1e2	0.006857143
57	0x3c860f70	0.016364783
58	0xbc14275f	-0.00904259
59	0x3b6012f4	0.0034190984
60	0x3b8bd713	0.004267582
61	0x3b38dd3c	0.0028208038
62	0x3bbbb0a5	0.005727845
63	0x3af2b9d1	0.0018518512
64	0xbc822a2a	-0.015889246
65	0xbbfee25b	-0.0077784485
66	0xbb3c80f8	-0.0028763395
67	0xbbb8df36	-0.005641843
68	0x3acca367	0.0015612663
69	0x3ab3f0f5	0.0013728427
70	0xbbcd9451	-0.006273784
71	0x3b8cbff0	0.0042953417
72	0x3c1c2e77	0.009532562
73	0xbd008367	-0.031375315
74	0x3bf91072	0.0076008374
75	0xbc8a6af4	-0.016896702
76	0xbb8b835b	-0.004257602
77	0xbbb41c5b	-0.0054965443
78	0xbba61b0f	-0.0050691436
79	0xbc213b87	-0.009840853
80	0xbcb55e0f	-0.022139577
81	0x3c2b5f4c	0.010459732
82	0x3cc9557d	0.024576897
83	0x3bf1b5e3	0.007376419
84	0xb738a188	-1.1004864e-05
85	0x3c3eb7f3	0.011640537
86	0x3c3a003d	0.011352596
87	0xbbad23a1	-0.0052837883
88	0xbc1b4873	-0.009477722
89	0x3c24118e	0.010013951
90	0x3bd7e28b	0.0065882853
91	0x3a86c25b	0.0010281311
92	0x3c008cb7	0.007846049
93	0x3ad5064d	0.0016252488
94	0xbb4d1cc5	-0.0031297666
95	0xbad1ae2c	-0.0015997342
96	0xbc2c3e7c	-0.010512944
97	0x3b164d41	0.002293423
98	0x3bc7fcde	0.006103142
99	0xbcab0983	-0.020878559
100	0x3c960292	0.018311772
101	0xbc0314ed	-0.008000595
102	0x3cbf273b	0.023334136
103	0x3a6c6b70	0.0009018695
104	0x3bf6bd81	0.007529915
105	0xbcb8edf3	-0.0225744
106	0x3b4c8022	0.0031204303
107	0x3cf3bb04	0.029752262
108	0x3b8ce50e	0.0042997664
109	0xbb347d1b	-0.002754039
110	0x3ca706db	0.020389011
111	0x3b79e47c	0.0038130572
112	0xbc8522c8	-0.016251937
113	0x3c313cb1	0.010817693
114	0x3ba68c6b	0.005082657
115	0x3c1c2f54	0.009532768
116	0xbc05c82e	-0.008165402
117	0x3be69b85	0.0070375823
118	0xbc2ede87	-0.010673172
119	0x3c277513	0.010220784
120	0x3c195db4	0.0093607195
121	0xbbc4dbb1	-0.0060076346
122	0x3bb0c3c3	0.0053944304
123	0xbba59e84	-0.005054297
124	0xb9ddc33b	-0.00042297863
125	0x3bb78e4c	0.00560168
126	0xbba9727d	-0.005171119
127	0xba27d4e9	-0.00064022705
128	0xbb94b6cb	-0.004538392
129	0xbc7c37f2	-0.015394198
130	0x3b82fa51	0.003997125
131	0xbbbfe004	-0.005855562
132	0x3c004c6e	0.007830722
133	0xbc9154e4	-0.017740674
134	0x3be80450	0.007080592
135	0x3d1d3b72	0.03838677
136	0xbbb02a73	-0.005376154
137	0xbcf7aaa6	-0.030232739
138	0x3baca510	0.0052687004
139	0xbb0e344f	-0.0021698659
140	0x3bd28bbe	0.00642535
141	0x3b1b85ba	0.002373083
142	0xbbce3e27	-0.00629403
143	0x3a3bd7be	0.0007165632
144	0x3b587d0f	0.0033033525
145	0x3b1b7f77	0.0023727098
146	0xbb8cb1ef	-0.0042936723
147	0xbbecb587	-0.007223788
148	0x3d59b2fc	0.05314921
149	0x3a48958e	0.000765168
150	0x3c48b394	0.012249846
151	0xbb8264bc	-0.0039792936
152	0x3bfd8240	0.0077364743
153	0x3c59cea6	0.013293898
154	0x3ada2798	0.001664388
155	0xbb885b6b	-0.0041612885
156	0xbba81d2d	-0.005130431
157	0x3bf64fba	0.0075168284
158	0x3d439467	0.04774895
159	0xbb2e2f53	-0.00265785
160	0x3c84d5ec	0.016215287
161	0xbb920c6b	-0.0044570467
162	0x3c7f70ad	0.015590829
163	0x3c4f1760	0.01263985
164	0x3cf50cc1	0.029913308
165	0x3bc71e66	0.006076622
166	0xbc3a4000	-0.011367798
167	0x3bd700c1	0.006561369
168	0xba9fb81a	-0.0012185604
169	0x3c8bb533	0.017054176
170	0xbc133e80	-0.008987069
171	0xbbe6377f	-0.0070256586
172	0xbd146a83	-0.03623439
173	0xbbac5bef	-0.005259983
174	0x3c26cbde	0.010180442
175	0x3cb26b7b	0.021779766
176	0x3cb7410d	0.022369886
177	0xbbfe7f9b	-0.0077666766
178	0x3b893f99	0.0041884896
179	0xbcd52fd7	-0.026023788
180	0x3c8e24cd	0.017351532
181	0x3a82c9bb	0.0009978333
182	0x3b900bf1	0.004395955
183	0xbcbcdf88	-0.023055807
184	0xbc0aa9c5	-0.008463328
185	0x3c50d638	0.012746386
186	0xb9520eac	-0.00020032626
187	0x3d03192b	0.032006424
188	0x3c396a09	0.011316785
189	0x3ce97e4c	0.028502606
190	0x3b9fd961	0.0048782085
191	0xbaaaaa9b	-0.0013020815
192	0xb91e32c7	-0.0001508697
193	0x3c05035c	0.008118477
194	0x3c23e977	0.010004393
195	0x3b1f4167	0.0024300457
196	0x3c3a4847	0.011369771
197	0xbc3d1928	-0.011541642
198	0x3b2325bb	0.0024894315
199	0x3c2f0299	0.010681772
200	0x3c90fb80	0.01769805
201	0xbb1e8b0c	-0.0024191765
202	0xbbd447a4	-0.006478267
203	0x3c7fc482	0.015610816
204	0x3c1efd9c	0.00970402
205	0xbc064860	-0.0081959665
206	0x3b129cd2	0.0022371304
207	0x3b1c2716	0.0023827008
208	0xbc260c5e	-0.0101347845
209	0xbb078944	-0.0020681182
210	0xba2c003e	-0.00065613154
211	0x3a67128b	0.0008814714
212	0x3c34663f	0.0110107055
213	0x39aee438	0.00033357902
214	0x3d0f6fb2	0.03501863
215	0x3bd0b814	0.0063696
216	0x3b86ada8	0.004110057
217	0xbcfb4e77	-0.030677063
218	0x3bea49ec	0.0071499255
219	0x3cdd5c2a	0.027021486
220	0x3b00fbef	0.0019681414
221	0x3c07efba	0.008296901
222	0xbcb118a2	-0.021618191
223	0x3b82d31c	0.0039924514
224	0xbbcb9fc4	-0.006214114
225	0xba8d3562	-0.0010773356
226	0x3c237c6c	0.009978395
227	0xbad73337	-0.0016418461
228	0xbc25a6c1	-0.010110558
229	0x3c328240	0.010895312
230	0x3b3529b0	0.0027643256
231	0x3baa882c	0.0052042212
232	0x3b972fe6	0.0046138642
233	0xbc8a0f20	-0.016852915
234	0xba82c548	-0.0009977007
235	0x3c2d33d6	0.010571441
236	0xbcf10a9a	-0.029424
237	0x3c5c7653	0.013455945
238	0xbc3bbdcd	-0.011458826
239	0xbc6314be	-0.013859926
240	0xbe2856d7	-0.16439377
241	0x3b79b41c	0.0038101738
242	0xbc10f11d	-0.008846548
243	0x3c35209f	0.011055141
244	0x3b9c72c0	0.0047744215
245	0xba011695	-0.00049243245
246	0x3bfa0ff0	0.0076312944
247	0x3c0cf85a	0.0086041335
248	0x3b91855a	0.0044409456
249	0xbbad8ca1	-0.0052963053
250	0xbbeb6f65	-0.00718491
251	0xbb67f4fa	-0.003539382
252	0x3c059536	0.00815325
253	0x3b1b796c	0.0023723496
254	0xbc0bd59d	-0.008534816
255	0xbce7de99	-0.028304385
