embeddings/wavlm_large_6_12/b594bfd098d84ec3c959c5eb103e6079db94f4e1.npy (npy, 4224 bytes, 1 tensors)

array f4 [1024]
0	0x3cab6278	0.020920977
1	0xbb8386d9	-0.004013878
2	0xbc530551	-0.0128796855
3	0x3c43337d	0.011914131
4	0x3b818d67	0.003953624
5	0x3c872e65	0.016501615
6	0xbb0aa98e	-0.0021158191
7	0x3c326d83	0.010890367
8	0x3bc0534b	0.0058693043
9	0x3c88a492	0.016680036
10	0xbaf14b47	-0.0018409275
11	0xbc79ff80	-0.01525867
12	0x3b867d30	0.004104279
13	0x3b7d2412	0.0038626236
14	0x3acd9b83	0.0015686605
15	0x3b7488f1	0.0037313069
16	0xbb9e7852	-0.0048361206
17	0x3d04a654	0.032385185
18	0x3b2409ee	0.0025030333
19	0xbc4048ca	-0.011736104
20	0x3ce7eaa7	0.028310133
21	0xbc0b3493	-0.008496421
22	0x398e4d42	0.00027141912
23	0x3c617a47	0.013762063
24	0xbc944a7f	-0.018101929
25	0x3b525704	0.0032095322
26	0xbc5e54e1	-0.013570041
27	0x3c494d0a	0.012286434
28	0x3be9a95e	0.007130786
29	0xbc2ac840	-0.01042372
30	0x3bb3b186	0.005483809
31	0x3a926353	0.0011168517
32	0x3c2da5bf	0.010598599
33	0xbc11f806	-0.008909231
34	0x3b06dbab	0.002057771
35	0xbde339e3	-0.110950254
36	0xbcde34d1	-0.027124794
37	0x3ad0a17c	0.0015917267
38	0xbbf954c3	-0.0076089813
39	0xbc0b37ea	-0.008497218
40	0x3bb0e593	0.005398461
41	0xbc7955d2	-0.015218215
42	0x3c894eb5	0.016761163
43	0xbbf35516	-0.0074259145
44	0x3c02773a	0.007962996
45	0x3c50e008	0.012748726
46	0x3b86a57c	0.0041090827
47	0x3cc981b2	0.024597976
48	0xbc4c93e9	-0.012486436
49	0x3c89b361	0.016809167
50	0x3b5d871b	0.0033802453
51	0xbc2d3238	-0.010571055
52	0xbc67ae34	-0.014140654
53	0x3cacc367	0.021089269
54	0x3c6f2324	0.0145957805
55	0x3c3c8f18	0.011508726
56	0x3aa526f1	0.0012600106
57	0x3c04dad9	0.008108818
58	0xbb20b529	-0.0024522042
59	0x3c94a3ed	0.018144572
60	0xbb5f63fb	-0.0034086693
61	0x3b88d8ed	0.00417625
62	0x3bd0096b	0.006348779
63	0x3ba82a0d	0.005131966
64	0xbb0d8410	-0.0021593608
65	0xbbccbf52	-0.006248393
66	0x3c41f2ef	0.011837705
67	0x3acf7fde	0.0015830954
68	0x3b1dc838	0.0024075639
69	0xbb5f774a	-0.0034098201
70	0xbaaa9b51	-0.0013016259
71	0xbb76522b	-0.0037585597
72	0x3c807f91	0.015685828
73	0xbc84c62e	-0.01620778
74	0x3b09cd15	0.002102678
75	0xbc0fc26f	-0.008774384
76	0xbca02ef3	-0.019553637
77	0xbcbd99d1	-0.023144634
78	0xb92d8efa	-0.00016551829
79	0xbc3c5656	-0.0114951935
80	0xbacdca3d	-0.001570053
81	0xbb8859dc	-0.0041611027
82	0x3c31eed6	0.010860166
83	0x3c521cdc	0.012824263
84	0x3c01c028	0.007919349
85	0xbbeb84fa	-0.007187483
86	0x3cce0652	0.025149498
87	0x3bddc437	0.0067677754
88	0x3b0c833a	0.0021440522
89	0x3ca38aa2	0.019963566
90	0x3ba353df	0.0049843634
91	0xb9b7c931	-0.0003505438
92	0x3988e416	0.0002610988
93	0xbba5c46d	-0.005058816
94	0x3b4ed2e5	0.0031558808
95	0xbbb426ce	-0.00549779
96	0x3c010dd4	0.007876832
97	0xbb3319a8	-0.0027328525
98	0x3c59a5b3	0.013284135
99	0xbbbe3fb4	-0.005805934
100	0x3c3fdd0a	0.011710415
101	0xbb8cd79e	-0.0042981645
102	0xbc36e525	-0.011163031
103	0xbb3f95c4	-0.0029233554
104	0x3bf24111	0.0073930104
105	0xbc1bfc25	-0.009520565
106	0x3b561019	0.0032663404
107	0x3c9e25f6	0.01930521
108	0x3b1b6090	0.0023708679
109	0x3bf9ba4f	0.0076210867
110	0x3c024048	0.007949896
111	0xbaa2d51f	-0.0012423134
112	0xbbcd4c51	-0.006265201
113	0xb9b48c6b	-0.00034436895
114	0x3aed1b37	0.0018089776
115	0x3bd004c4	0.0063482244
116	0xbc5d674b	-0.0135133965
117	0xbbc2e6aa	-0.0059479075
118	0xbc145551	-0.009053544
119	0x3c20c701	0.009813071
120	0x3b80708a	0.0039196657
121	0xbb4494d8	-0.0029995944
122	0xbbffea18	-0.0078098886
123	0x3b1ea900	0.0024209619
124	0xbc6a547f	-0.014302372
125	0xbcb3acea	-0.021933038
126	0x3b370743	0.0027927912
127	0x39e920a7	0.0004446555
128	0xbc795ba5	-0.015219604
129	0xbc38d29e	-0.011280684
130	0x3c62c3e9	0.013840654
131	0x3c04fc0e	0.008116735
132	0x3c325040	0.010883391
133	0xbc9089f8	-0.017643914
134	0x3c078fb1	0.008274005
135	0x3cc7861d	0.024355942
136	0xbad88451	-0.0016518926
137	0xbd42248b	-0.04739813
138	0xbbae9d75	-0.005328829
139	0xbb5ecc94	-0.003399645
140	0xbb32c555	-0.0027278264
141	0x3af140a4	0.0018406105
142	0xbcbd172d	-0.02308234
143	0xbbdbcbec	-0.006707659
144	0x3b575573	0.0032857328
145	0x3b95be24	0.0045697857
146	0xbbfafffa	-0.0076599093
147	0xbc9e302d	-0.019310081
148	0xbc964e58	-0.018347904
149	0x3ae348ff	0.001734048
150	0xbb4f43be	-0.003162607
151	0x3af0fd0a	0.0018385958
152	0x3cb9311e	0.022606429
153	0x3c463d43	0.012099567
154	0xbc809dea	-0.0157003
155	0xbb84073c	-0.0040291827
156	0x3bef10a4	0.007295685
157	0x3c64304d	0.013927531
158	0x3c4901b0	0.012268469
159	0xbaa27dae	-0.0012397075
160	0x3ca578e8	0.020199254
161	0xb9e0a1b0	-0.00042845076
162	0x3c7c433c	0.015396889
163	0x3af4462f	0.0018636639
164	0x3b77896f	0.0037771126
165	0x3c9e5c8b	0.019331237
166	0xbb15ba8b	-0.0022846784
167	0xbc01235b	-0.007881965
168	0x3b8fff2b	0.004394432
169	0x3c8a8f9c	0.016914181
170	0xba0a0d18	-0.00052662333
171	0x3c42b00a	0.011882791
172	0xbcab3cef	-0.020903079
173	0xbb8a8868	-0.0042276867
174	0x3c5ecf33	0.013599205
175	0x3b128e34	0.0022362592
176	0x3ad8259a	0.0016490698
177	0x3b9b8b51	0.0047468324
178	0x3c3e9224	0.011631522
179	0x3b4a7d63	0.003089749
180	0x3c2a423b	0.010391767
181	0xba1075cc	-0.0005510717
182	0xbb5b0a3b	-0.0033422846
183	0x3b9c3d76	0.004768069
184	0x3b7d7543	0.003867463
185	0x3c37558e	0.011189831
186	0x3c23c73d	0.009996233
187	0x3c9d4ace	0.019200709
188	0x3ba2e384	0.0049709696
189	0x3930b97b	0.00016853765
190	0x3cc0c92e	0.02353343
191	0x3ab7fc22	0.0014036933
192	0xbd0425e2	-0.03226269
193	0xbc018e11	-0.007907406
194	0xbc6b6748	-0.014367886
195	0xbb751451	-0.0037396143
196	0x3c5f882a	0.013643304
197	0x3c41a5d5	0.011819323
198	0x3c7323b9	0.01484006
199	0xbad10f87	-0.0015950062
200	0x3dad325b	0.0845687
201	0x3b94385e	0.004523321
202	0xba5d8918	-0.00084509095
203	0x3c629863	0.013830277
204	0xbd2fd560	-0.0429281
205	0xbc027925	-0.007963453
206	0x3b3adca9	0.0028512871
207	0x3b29db12	0.002591793
208	0xbc93b07e	-0.018028494
209	0xbc0facb5	-0.008769204
210	0x3c11dd8f	0.008902921
211	0x3c1a47bd	0.009416518
212	0x3bf60ff9	0.0075092283
213	0x3c144e11	0.009051816
214	0x3d3c72a3	0.046007764
215	0x3c178981	0.009249092
216	0xbc31e8b3	-0.0108587025
217	0xbce9c39d	-0.028535658
218	0x3c253136	0.010082534
219	0x3c196b9d	0.009364036
220	0xba2ef317	-0.00066737965
221	0x3caeb40e	0.021326091
222	0x3b6c2316	0.0036031655
223	0xbb6b7f0b	-0.0035933878
224	0xbb412d3a	-0.002947642
225	0x3a932a11	0.0011227747
226	0x3bc9487a	0.006142673
227	0xbc5923bb	-0.013253148
228	0x3afbd1eb	0.0019212341
229	0x3b993913	0.004675993
230	0xbbb51e0f	-0.005527265
231	0x3c827707	0.015925897
232	0xbbbdd3ce	-0.0057930714
233	0x3beaac7c	0.007161675
234	0x3c19fdd5	0.009398897
235	0x3a9bbee9	0.0011882457
236	0xbc768bf8	-0.01504802
237	0x3c93112c	0.017952524
238	0xbc073a30	-0.008253619
239	0x3b818f61	0.0039538597
240	0xbe103ca2	-0.1408563
241	0x3b58c0b4	0.0033073844
242	0x3a7dd7b9	0.0009683329
243	0x3b8002d3	0.0039065867
244	0xba093e6f	-0.00052354386
245	0x3ae6e819	0.0017616778
246	0xbc3df5d7	-0.011594257
247	0x3a1943f5	0.0005846613
248	0x3aeecd4b	0.0018219141
249	0xbb89e656	-0.0042083664
250	0xb9d9ea06	-0.00041563826
251	0x3c838674	0.016055323
252	0xbc1324ab	-0.00898091
253	0x3c406259	0.011742198
254	0xbcc01048	-0.023445264
255	0x3ca534ad	0.02016672
