embeddings/wavlm_large_6_12/b660503a54b25755f05a747e830d05b84f4a203f.npy (npy, 4224 bytes, 1 tensors)

array f4 [1024]
000000 2d 75 07 3c 9a fe 08 3c 57 0f 98 bc 45 94 24 3c
       0.008267683 0.008361483 -0.018562002 0.010045116
000010 7b e3 ee 3b c4 f9 dd 3c 45 ee c2 3b 2b fa 28 3c
       0.0072903014 0.027096637 0.005948814 0.010313551
000020 32 d4 b5 3a bf 08 6e 3c 8d 1f 0e 3b ae 9e 80 bb
       0.0013872443 0.014528452 0.0021686286 -0.003925166
000030 fb 3d 52 3c 0d 53 90 bc 08 06 c8 bb 8d f5 cb 3a
       0.01283216 -0.017617727 -0.0061042346 0.0015560851
000040 33 63 af 38 2e d3 80 3c 59 2b 8d 38 bd 03 21 bb
       8.3631276e-05 0.015725698 6.731478e-05 -0.0024568879
000050 24 ce 29 3d f8 39 c2 3a 49 3a ea 3b 97 e7 83 3c
       0.041456357 0.0014818301 0.0071480614 0.016101642
000060 7b 78 6d bc 55 d4 ae ba 09 84 64 bc d6 e8 cf 3b
       -0.014494057 -0.0013338426 -0.013947495 0.006344895
000070 9c ed 2e 3c 90 26 8e bc 7f 44 5f 3b 9c 33 a6 38
       0.010676768 -0.017352372 0.0034067926 7.92511e-05
000080 7f a1 e1 3b 0c 2b 90 bc 41 ab fa 39 9d 43 6b 3c
       0.006885707 -0.017598651 0.0004781131 0.014359382
000090 49 96 17 bc f6 cf 0f bc 01 c6 11 3c 9b 92 86 bc
       -0.009252139 -0.008777609 0.0088973055 -0.016427329
0000a0 a1 f7 3d 3c 23 a7 43 ba 44 73 09 3c 12 c7 4c 3b
       0.011594684 -0.0007463565 0.008389298 0.0031246585
0000b0 f3 9f fb 3b b2 7d 98 b9 57 37 4b ba f6 6b 95 3c
       0.0076789795 -0.0002908535 -0.0007752082 0.018239956
0000c0 d6 9c 71 bc c9 d6 20 3c 2d db c9 3b 0f c3 2d 3a
       -0.014746865 0.009816834 0.006160161 0.0006628492
0000d0 3d 2a cc bc 4b c3 9d 3c 5e a6 41 3c 86 23 47 3c
       -0.024922485 0.019258162 0.01181945 0.012154466
0000e0 4a 75 d6 3b 32 38 66 3c 3b 35 26 3b 1c 87 bf 3b
       0.0065447437 0.014051484 0.0025361318 0.0058449637
0000f0 4d a1 3f 3c 46 50 b5 bb c1 6b 8a 3b c0 ce 8e 3b
       0.011696172 -0.005533251 0.004224271 0.0043581426
000100 db c1 05 bc d1 18 93 bb 7d 49 8a 3a e5 48 2c 3a
       -0.0081638945 -0.0044890423 0.0010550466 0.00065721414
000110 f8 7a 50 ba ec 65 ef 3a 3e 74 05 bc 17 8e 09 3a
       -0.0007952894 0.0018264628 -0.00814539 0.0005247308
000120 42 2f aa 3c 0b 81 0b bd 18 42 5c 3b 80 82 72 bb
       0.020774487 -0.03405861 0.003360873 -0.0037004054
000130 74 85 9c bc 6c ea fb bc f1 15 b8 bb c4 1b 1e bb
       -0.019106604 -0.03075143 -0.00561785 -0.0024125436
000140 05 cc 93 bc e0 db 81 3b d5 48 8a 3c 7b 70 2c 3c
       -0.01804162 0.0039629787 0.016880432 0.010524864
000150 2d 0f 96 3b a7 11 66 bb 51 7a b5 3c 38 a6 09 3c
       0.004579446 -0.0035105736 0.022153052 0.008401446
000160 e9 99 ae 3b e2 e1 b5 3c d5 05 0d 3c 75 c2 6a 3b
       0.005328406 0.022202436 0.0086073475 0.0035821472
000170 b6 07 36 3c 74 7c 63 3a 24 11 46 3b 8b 02 4c 38
       0.011110237 0.0008677908 0.003022262 4.863976e-05
000180 c9 d6 98 3b 3c 57 34 3c 1a 6c 13 3c 5a 96 ad bb
       0.0046642763 0.011007126 0.008997941 -0.0052974643
000190 8f 57 db 3c 7e 09 95 b9 5f cd 97 3c 55 6a 36 bb
       0.02677515 -0.00028426567 0.018530546 -0.0027834375
0001a0 0b 8f 2f 3c 7b ba 8e bc 7b f9 d8 bb f8 d2 34 3d
       0.010715256 -0.017422905 -0.0066215373 0.044146508
0001b0 7c 15 23 bb b9 83 de 3b be b9 7b 3c db 82 0d bc
       -0.0024884632 0.006790605 0.015364109 -0.008637155
0001c0 32 89 d8 bc b8 e6 27 3c a3 c1 0e ba af 29 e3 3a
       -0.026432607 0.010247879 -0.0005445724 0.0017331148
0001d0 d6 41 22 bc 57 4d 27 3c 40 38 15 bc 05 61 06 3c
       -0.009903392 0.01021131 -0.009107649 0.008201842
0001e0 8b df 0f 3c 10 36 77 ba 31 e5 86 3b f2 3f 5b b8
       0.008781324 -0.0009430358 0.004116677 -5.2273223e-05
0001f0 9e 95 f5 3b fb 8d 9e bc 84 4e 6f 3b 11 76 01 3c
       0.0074946424 -0.019354811 0.0036515305 0.007901684
000200 c7 6e a8 bb 1d ce 1b bc 6e 00 e9 3b e1 8a 0b 3b
       -0.005140159 -0.00950959 0.007110647 0.0021292495
000210 30 e1 29 3c a9 27 0d bd 19 49 19 bc 50 4b 07 3d
       0.01036863 -0.03446165 -0.009355807 0.033030808
000220 dd 60 3e bc 4c 19 eb bc d6 2b 87 bb 24 95 cc bb
       -0.011619774 -0.028698586 -0.0041250987 -0.006243365
000230 ea f1 1c 3c 93 ed 80 3b 27 b1 b6 bc ea 6d ab bb
       0.009579161 0.003934571 -0.02230127 -0.0052316086
000240 f9 ce e9 3b 43 54 66 3a 19 10 16 bb c2 df 3f bc
       0.0071352688 0.00087863597 -0.0022897779 -0.011711063
000250 c0 cd 04 bd 06 16 91 3a 2b 7d e6 bb 3f ba 81 3b
       -0.03242278 0.0011069186 -0.007033964 0.00395897
000260 b1 00 15 3c ce 25 7e 3c c8 72 8a bc 67 ea 19 bb
       0.009094403 0.015511943 -0.016900435 -0.0023485662
000270 50 7b 3d 3b 3c 14 86 3c 3e dc c9 3c f6 ad 80 3b
       0.0028912611 0.01636707 0.024641152 0.0039269878
000280 07 15 a2 3c bd a1 f4 3b 23 63 e3 3c 05 81 7f 3c
       0.019785417 0.00746557 0.027757233 0.0155947255
000290 d2 7a 16 3c d2 db 27 3b 06 91 eb bb 1e 13 83 bb
       0.009184556 0.00256132 -0.007188919 -0.0040000817
0002a0 3a 26 c6 ba 8d f0 08 38 2a c3 9b ba 0f 65 55 bc
       -0.0015117594 3.2648957e-05 -0.0011883725 -0.0130245825
0002b0 f5 f8 21 bd 98 98 4c b9 00 64 bc 3c 12 30 11 bb
       -0.039544065 -0.00019511802 0.022996902 -0.0022153896
0002c0 2d f8 b6 3c 97 b7 be bb 03 56 43 bc e8 80 87 bc
       0.022335136 -0.0058202255 -0.011922362 -0.01654096
0002d0 26 f3 81 3c 8f f5 41 39 20 41 08 bc 20 f7 2f bb
       0.015863013 0.00018497392 -0.008316308 -0.002685018
0002e0 bb c5 04 bc cf dc b2 ba 15 b2 f6 3b 5e 69 f0 3c
       -0.008103783 -0.0013646128 0.0075285533 0.029347118
0002f0 d3 d4 15 3c e1 8b a4 3c 3a 29 44 3c 8d a6 30 bb
       0.0091449795 0.02008623 0.01197272 -0.002695474
000300 7a 77 04 bd 53 48 f9 3b a0 4f dc ba 84 2d 65 3c
       -0.032340504 0.0076074987 -0.0016808398 0.013987903
000310 aa cd 31 3c 09 44 37 3b 11 fc 63 3c f0 1e a4 3b
       0.010852257 0.0027964136 0.013915078 0.005008571
000320 52 d6 b3 3c 82 66 18 bb cb 35 4b bc 3e 04 37 3c
       0.021952782 -0.0023254459 -0.012402962 0.011170445
000330 b4 f3 51 3d 8e d9 80 bc 82 55 9e 3c f0 ff fb bb
       0.051257804 -0.015728738 0.019327883 -0.0076904222
000340 f9 0f 25 bc c6 0b ca 3a 4c 38 8c 3c 85 c6 19 3c
       -0.010074609 0.0015414886 0.017116688 0.00938571
000350 76 89 31 3c 86 0f 1f 3c b9 a1 5d 3d 3c 82 94 3b
       0.010835996 0.009708291 0.05410931 0.0045321267
000360 ce 0a 9b bb 01 57 c4 bc 24 2c 44 3c c7 e5 6f 3b
       -0.0047315126 -0.023967268 0.011973415 0.0036605464
000370 44 b2 a0 ba 0d 0c 01 3c f7 3d 8f bc 88 20 07 3c
       -0.0012260159 0.007876408 -0.017485602 0.008247502
000380 39 22 1b bc 82 83 ac 3b b8 5a a0 3c ad be f7 bb
       -0.009468609 0.0052647004 0.019574508 -0.007560572
000390 b4 ce d6 bb 92 da 8a 3b 8d 34 3d bb 4d 1d b9 3b
       -0.0065554027 0.0042374814 -0.0028870434 0.005649245
0003a0 c8 d5 a0 3b 68 bc 52 bb 04 2d 29 ba 38 e5 86 3b
       0.004908297 -0.0032155756 -0.0006453546 0.0041166805
0003b0 0e e2 88 bc a0 ab 02 3d 63 eb 02 bc d1 6c c3 3b
       -0.016709354 0.031901956 -0.007990691 0.0059638997
0003c0 fd 44 11 be 05 d4 ef 3a 22 95 4c bb 15 03 e3 3b
       -0.14186473 0.001829744 -0.003121682 0.0069278576
0003d0 de c2 5e 3c 47 59 ab 3b 52 1a f6 3a 1c 97 41 bb
       0.013596265 0.0052291485 0.0018776155 -0.002953953
0003e0 18 52 f6 bb 30 60 83 3a 28 0b 63 bb 3e dd 8f 3c
       -0.0075171106 0.0010023173 -0.00346441 0.017561551
0003f0 a2 ac 96 3b cc d0 74 3b 4c 3e 01 bb 39 99 3f 3d
       0.004598216 0.0037355898 -0.001972097 0.046776984
