embeddings/wavlm_large_24/b4ef93b2e09ee2f3c62441f9c92c35e91e0cf933.npy (npy, 4224 bytes, 1 tensors)

array f4 [1024]
0	0xbd3d0fad	-0.046157528
1	0x3c4992df	0.012303083
2	0x3bf6aaf6	0.0075277044
3	0x3d1973a7	0.03746381
4	0x3c59569d	0.013265279
5	0xbc471b07	-0.01215244
6	0xbcff317c	-0.031151526
7	0x3b36dc3a	0.0027902261
8	0xbd0a5917	-0.03377637
9	0x3c57939f	0.013157754
10	0x3c9d3e50	0.019194752
11	0xbcbb68ba	-0.022877086
12	0x3c9a4789	0.018832939
13	0xbd196baa	-0.037456192
14	0xbd069734	-0.032859042
15	0xbd413edd	-0.04717909
16	0xbc6f7dbe	-0.014617382
17	0xbc28c10a	-0.01029993
18	0x3c1b1014	0.009464283
19	0x3cba26bd	0.02272355
20	0xbb82b4ea	-0.003988852
21	0xbc6fd4f9	-0.014638179
22	0xbb4f24ad	-0.0031607554
23	0x3c0aea46	0.008478707
24	0xbc4e9d8d	-0.012610805
25	0xbc3a64f8	-0.011376612
26	0x3ce979ef	0.028500525
27	0xbca78667	-0.02044983
28	0xbd60a3d4	-0.05484374
29	0x3cea77c4	0.028621562
30	0x3c84fae4	0.016232915
31	0x3cb5b2b3	0.022179937
32	0xbd078358	-0.033084244
33	0xbd0d2bbf	-0.034465548
34	0x3cac4ae4	0.021031804
35	0xbc18ec30	-0.009333655
36	0x3d4267d4	0.0474623
37	0x3cd3a226	0.025834154
38	0xbbb26c55	-0.005445043
39	0xbd0c2038	-0.034210414
40	0x3c9efd4e	0.019407894
41	0xbce1a27e	-0.027543303
42	0x3d95fa1e	0.07323097
43	0xbb931b5f	-0.004489347
44	0xbdb00911	-0.08595479
45	0x3d3e59e3	0.04647244
46	0xbc4c1f24	-0.012458596
47	0xbcdd41b3	-0.027008867
48	0x3d4e342e	0.05034273
49	0xbcace5f8	-0.021105751
50	0x3d31053a	0.043217875
51	0x3d3355f1	0.043783132
52	0x3d00e1ee	0.031465463
53	0x3c2884f9	0.010285609
54	0xbbc9c273	-0.0061572134
55	0xbceadb75	-0.028669098
56	0x3d235b64	0.03988208
57	0xbd408e0e	-0.047010474
58	0x3b342aa5	0.0027491238
59	0x3d1937b4	0.03740664
60	0x3c597e4c	0.01327474
61	0x3c20c6ba	0.009813005
62	0x3d2b2bb4	0.041789725
63	0x3d2e68b1	0.04258031
64	0x3b8367d7	0.0040101814
65	0xbd76ffc0	-0.060302496
66	0x3cfc40c1	0.030792596
67	0xbd118ab5	-0.035532672
68	0x3cd5057e	0.026003595
69	0xbd422805	-0.047401447
70	0x3cb2d2a2	0.021828953
71	0x3d370245	0.0446799
72	0x3ca59cc1	0.020216348
73	0xbb5e5dfe	-0.0033930535
74	0x3b59780f	0.0033183133
75	0x3be86bde	0.007092937
76	0xbcaf01f2	-0.021363232
77	0x3c18f402	0.00933552
78	0xbd1b040d	-0.03784566
79	0xbd09ee26	-0.03367438
80	0xbba8e3ef	-0.005154125
81	0xbb7025ac	-0.0036643548
82	0xbd157a51	-0.036493603
83	0xbc5cf8d7	-0.013487062
84	0xbd3225d0	-0.043493092
85	0xbccb05b6	-0.024782997
86	0x3d66469e	0.05621969
87	0xbbee1e97	-0.00726683
88	0x3aeda505	0.0018130845
89	0xbc865133	-0.01639614
90	0xbb997141	-0.0046826904
91	0xbc8de15e	-0.017319378
92	0x3d060fd7	0.03272995
93	0x3b669f70	0.0035190247
94	0xbc819c27	-0.01582153
95	0xbba4acc3	-0.0050254776
96	0x3d083752	0.033255883
97	0xbb520189	-0.0032044372
98	0xbca56d4f	-0.020193724
99	0x3c4efc2d	0.012633366
100	0xbbf3a467	-0.00743537
101	0xbd0b8c94	-0.034069613
102	0x3cffe7cb	0.031238457
103	0x3d808f15	0.06277291
104	0xbafcc551	-0.0019284879
105	0x3ca4e78e	0.020129945
106	0x3c60cc12	0.013720529
107	0xbccb48cc	-0.024814986
108	0xbd0c5773	-0.034263086
109	0x3d34d615	0.044149477
110	0x3cff1651	0.031138571
111	0x3c36f679	0.011167162
112	0xbce956a3	-0.028483694
113	0x3cfc6b8f	0.030813007
114	0xbcaa58b0	-0.020794243
115	0xbce4a13d	-0.027908916
116	0x3c9d4137	0.019196136
117	0x3d2a7a2b	0.041620415
118	0x3c562ac4	0.01307172
119	0xbd09d747	-0.03365257
120	0x3a1db064	0.0006015359
121	0xbda61dbe	-0.081111416
122	0x3b4fed22	0.0031727036
123	0x3d21ba11	0.039484087
124	0xbc3a76e6	-0.011380887
125	0xbd273d7f	-0.04083013
126	0xbc662a44	-0.014048163
127	0xbb1de620	-0.0024093464
128	0x3d1b707a	0.037949063
129	0x3befa03c	0.0073128026
130	0x3c8ae767	0.016956044
131	0x3b626764	0.003454649
132	0x3d4663e7	0.048435118
133	0x3d077f27	0.033080246
134	0xbc808316	-0.015687507
135	0xbcb8722a	-0.022515375
136	0x3d18ead6	0.037333332
137	0x3c8a3c69	0.016874509
138	0x3cffde60	0.031233966
139	0xbc2bffef	-0.010498031
140	0x3b5af3a9	0.0033409393
141	0x3b8fbb07	0.004386309
142	0xba17657e	-0.00057753164
143	0x3c106509	0.008813151
144	0xbc3e4ed0	-0.01161547
145	0xbc35cd41	-0.0110963
146	0xba7538b4	-0.0009354458
147	0xbc9eca50	-0.01938358
148	0xbd6481d6	-0.055787884
149	0x3d15d05c	0.03657566
150	0xbbc08056	-0.005874674
151	0x3c91b54a	0.01778664
152	0xbd287665	-0.041128535
153	0x3cc62003	0.024185186
154	0xbc990b4a	-0.01868214
155	0xbb3488f3	-0.0027547448
156	0xbc888460	-0.016664684
157	0x3cb84929	0.022495823
158	0xbbe241ae	-0.0069048023
159	0xbc57f33b	-0.013180549
160	0x3d389926	0.04506793
161	0x3c430810	0.011903778
162	0x3c2b1f94	0.0104445405
163	0xbc971826	-0.018444132
164	0xbbb7155e	-0.005587264
165	0x3c56e841	0.013116897
166	0x3c6adfba	0.014335567
167	0xbc0929d5	-0.00837179
168	0x3d4a6e82	0.049421795
169	0xbc436211	-0.011925236
170	0x3bb24f65	0.0054415935
171	0x3c4cfe34	0.012511779
172	0x3b2368b0	0.0024934225
173	0x3a4d62dd	0.0007834861
174	0x3bac047c	0.005249558
175	0xbd24d4be	-0.04024195
176	0x3bdc4895	0.0067225196
177	0x3ce35a19	0.027752923
178	0xbd5b273e	-0.05350422
179	0xba021639	-0.0004962418
180	0x3d9a2efd	0.075284936
181	0x3ccbbd94	0.024870671
182	0x3c6462d7	0.013939581
183	0xbd2a8e9d	-0.041639913
184	0xbaf42191	-0.0018625726
185	0x3cc7e01b	0.024398854
186	0x3c1d65c8	0.009606786
187	0x3d6339a6	0.0554749
188	0xbc5273e1	-0.0128450105
189	0xbbbed281	-0.005823434
190	0x3cb04374	0.02151654
191	0x3d12a7a9	0.035804424
192	0xbd28e7c8	-0.04123667
193	0xbbb40c6f	-0.0054946463
194	0xbc84e691	-0.016223224
195	0x3be8f917	0.007109772
196	0x3c2ff436	0.010739377
197	0xbc1a3646	-0.009412354
198	0x3d05bac5	0.03264882
199	0xbc5dc260	-0.013535112
200	0x3c36bd88	0.011153586
201	0xbb544f70	-0.0032395981
202	0x3c2a17f7	0.01038169
203	0x3b2c32e1	0.0026275443
204	0xbd7282b8	-0.059206694
205	0x3c978d50	0.0185
206	0x3c288453	0.010285455
207	0x3c641ee6	0.013923382
208	0x3d60bfc3	0.05487038
209	0xbd3951d1	-0.04524404
210	0xbbad5e0a	-0.0052907513
211	0xbd0bb1e9	-0.034105215
212	0x3b9e974d	0.004839814
213	0x3c8466e8	0.01616235
214	0x3c6104d1	0.0137340585
215	0xbaf710df	-0.0018849632
216	0xbc40c1d9	-0.011764967
217	0xbc0d833a	-0.008637244
218	0xbcb2e4c9	-0.021837609
219	0xbcf63bea	-0.030057866
220	0x3ca99f32	0.020705793
221	0xbc6c560a	-0.01442481
222	0x3cad8184	0.021179922
223	0x3c324bfc	0.010882374
224	0xbc445265	-0.011982535
225	0xbc1786ef	-0.009248479
226	0x3c48d4ed	0.012257797
227	0xbd708ad3	-0.058726143
228	0xbd22a170	-0.03970474
229	0xbcc578aa	-0.024105389
230	0x3babbbc8	0.005240891
231	0xbcde7ac7	-0.027158154
232	0xbd13e351	-0.036105458
233	0xbd79eed8	-0.061018795
234	0xbc859e1c	-0.016310744
235	0xbd0131c8	-0.031541616
236	0xb9f97962	-0.00047583418
237	0xbc72f458	-0.014828764
238	0xbc14cf42	-0.009082617
239	0x3d2cce53	0.042188954
240	0xbe266aa1	-0.16251613
241	0x3ca15905	0.019695768
242	0xbc483acf	-0.012221052
243	0xbc9b0d1e	-0.018927153
244	0x3c47c7ce	0.012193633
245	0x3c9f1ad0	0.019421965
246	0x3ae23d05	0.0017260617
247	0xbd2f018d	-0.04272609
248	0xbc898919	-0.016789006
249	0x3c947cac	0.018125854
250	0xbc665e5e	-0.014060585
251	0x38f0f012	0.000114888084
252	0xbcb515fc	-0.02210521
253	0xbc5cc926	-0.013475692
254	0xbbb45350	-0.0055030957
255	0xbc86642e	-0.016405191
