embeddings/wavlm_large_24/b5b10bc8236b3b0bade5ec708d86878eb9def88c.npy (npy, 4224 bytes, 1 tensors)

array f4 [1024]
00000000: c7a9 7abc 3e53 3e3c 272a 113c 3851 243c
00000010: b4cf 2e3c 488e 07bd 79f6 acbc 8520 903c
00000020: 1c18 62bc 39e8 63bc 691e 6b3c 7182 c9ba
00000030: a7e9 1a3d 172b 93bd f973 51bc 4892 bf3c
00000040: cda0 72bc c7a7 59bc 8a7b 2c3c 498c 67bc
00000050: 8553 efbc d563 3a3d 9f75 923c aa7b 943c
00000060: f95a 94bc f8aa 96bc 14a7 d13b 0ab1 a3ba
00000070: 8c3d 40bc 1232 d63b 1a45 55bd cbf8 423d
00000080: 6f28 7a3c b0f5 7abc 7530 3d3c 8601 253e
00000090: d59d b73c a45a ef3c d242 b03b 7c39 ebbc
000000a0: 19a6 863d b56d 863c d454 ee3b d60e 113d
000000b0: cfed 28bd a3fe 843b 1df2 5ebd 3790 dc3c
000000c0: a619 a8bb 28e7 4a3c 8f3a b63c 62dd ec3c
000000d0: 5f4f a43b ec16 49bd 98b3 f53b 7b77 73bc
000000e0: c9de 213c f8b1 a43c c698 1fbd e7de 00bc
000000f0: a5a2 ddb9 1001 b93b fb7a 22bd 4722 433d
00000100: 0662 d3bc da95 90bb b558 10bd 8cd2 f93c
00000110: 43be a9bc cb95 f9bc 51c3 1b3c 0db9 f53c
00000120: c395 e13c 9bdd fa3b 18e9 523b c773 67bb
00000130: 41c7 03bd c867 393c f3c1 e9bc 49b9 c93c
00000140: be0d 8bbc 7162 993b ba7c 503c 6489 41bc
00000150: 7982 ce3c 2b2f 42bc 9acc 02bd a6e4 cebc
00000160: 186d bb3c cb0b bbbb 6d80 803c 45fd c6bc
00000170: 5918 493c 147e bebc 03c1 c3bc de8b 94bd
00000180: 36d0 dd3b bb38 37bd 2e61 5bbc 3ee7 e13a
00000190: 374e fe3a 867a 5d3a d846 023d e09a 4c3d
000001a0: cb20 02bc 5821 5b3c 84f4 89bb 2d3d 83b9
000001b0: 5b2c b3bc 775e 1c3d 78a5 07bc 9345 be3c
000001c0: a342 37bd 7d4d e23c 725e c939 91c6 95bd
000001d0: 97b6 bb3c 92d9 1cbb 2fb0 e33b c1e6 de3a
000001e0: e282 6abd 720a 30bc bd17 0c3b 1f40 103d
000001f0: 99e0 cc3c 1c4f 40bd cedb 703b 334b b8bb
00000200: 9281 b63c 550d 793c b63c 8d3c b07f 1bbc
00000210: bf38 c6bc b293 cc3c 386f 49bd 84de a0bc
00000220: cc64 32bc 8745 a33c d008 4d3d 98e6 5abc
00000230: b250 313d cc13 c7bb a9bf 163d 6e13 1e3d
00000240: a0a6 723c 73a6 4e3b 88c1 4bbc 438e 323d
00000250: a527 163c 2cae 0e3d b065 dd3c f62a 1b3d
00000260: 5880 cbbc 142e 813c 05c9 c43c ceb5 cdbc
00000270: 993f 8e3b 1e28 1a3d 5340 273d 4c6f 8ebc
00000280: fbe3 0a3d 0dd4 4038 f6c7 06bd 3a13 0dbc
00000290: 2f55 8a3d 7d4e dfbb 5b63 1e3c 1b9e a1bc
000002a0: 6ea5 673c 1170 a8bc 2b32 943b 9384 b53c
000002b0: c529 83bb baa9 7b3b 665d e8bc 16c6 6ebd
000002c0: 7b48 e5bc aa5b 4ebc f2b1 a4bb 834c 07bd
000002d0: 15f3 a83c 8ea8 153a c54c 71bb f1b3 15bd
000002e0: a7de 223c 8eef 523d 0fcd 963d d966 173c
000002f0: 6e78 613c e2cc 7fbb 7c66 c1bc 217d 943c
00000300: deca 1b3d ffd4 393d 6ac5 1dbc 6202 46ba
00000310: b5cd 18bc 46f1 893b 0766 993c 9dae 63bc
00000320: 34d7 2a3d 514d b7bc 10bd e73c 8ed6 2ebd
00000330: 74d8 b1bd cd66 0b3d 103c c93b 58c3 8c3c
00000340: 172c 89bb 254d 0dbd ff1c a5bc 9f14 1cbd
00000350: 38ac 4abd 4158 d23b b7cd a9bb 8af2 f8bc
00000360: c536 f7bb 6cea 38bd 011b 16bd f1f0 2f3c
00000370: 3130 923c def8 e33b 60a8 743d b983 8cbc
00000380: 4a68 01bd f38c 403c 33df 91bc a03c 15bd
00000390: 4eb5 61bc 1b22 b03c f809 713c d31c 7cbc
000003a0: 27b9 5bbd 6f25 85bc 59b4 94b9 bfcf 18bd
000003b0: 512b 3d3d 0491 b2bc cfde 793d 1e68 edbc
000003c0: d6c2 16bd ea02 d83c 8b3a b7bc 4cee 4a3c
000003d0: 19ad 1e3a 46bb 433d 8127 53bc 9d26 11bd
000003e0: 9c9f 4dbd 1637 e9bc f546 503d ba04 cabc
000003f0: c44f 21bc ce31 403d 25c2 6d3c 1f13 0abc
-0.015299267 0.011616526 0.008860148 0.01002913 0.0106696375 -0.033094674 -0.021113621 0.017593632
-0.013799693 -0.013910347 0.014350512 -0.0015373958 0.037820484 -0.07185953 -0.012783998 0.023385182
-0.014808846 -0.01328463 0.010527501 -0.014132568 -0.02921463 0.045505363 0.017878352 0.018125374
-0.018109785 -0.018392071 0.006398091 -0.0012488675 -0.011733424 0.0065367306 -0.052067854 0.04760055
0.015268429 -0.0153173655 0.011547198 0.16113862 0.022414127 0.029218026 0.0053790594 -0.028713934
0.06574649 0.016409734 0.007273296 0.03541454 -0.041242417 0.0040586754 -0.054430116 0.026924236
-0.0051300107 0.0123842135 0.02224472 0.028914157 0.0050143446 -0.049094126 0.007498216 -0.014860029
0.009879776 0.020104393 -0.038964055 -0.007865644 -0.00042273584 0.0056458786 -0.039668065 0.04764011
-0.025803577 -0.004412395 -0.035240848 0.030495904 -0.020720607 -0.030466935 0.009507016 0.029995466
0.027537232 0.007655812 0.0032182392 -0.0035316811 -0.032172445 0.011316247 -0.028534865 0.024624484
-0.016974326 0.0046809246 0.01272505 -0.011812542 0.025208699 -0.011852066 -0.031933405 -0.025255512
0.022879168 -0.005708193 0.015686238 -0.02429069 0.012273871 -0.023253478 -0.023895746 -0.0725324
0.0067692054 -0.044731837 -0.013389869 0.0017235053 0.0019401972 0.00084487384 0.031805843 0.049952388
-0.007942389 0.013374649 -0.0042100567 -0.00025031847 -0.021871736 0.038176026 -0.008279197 0.023226535
-0.044741284 0.02762484 0.00038408075 -0.07313264 0.022914214 -0.0023933393 0.006948493 0.0017006026
-0.057253726 -0.010744678 0.0021376454 0.0352174 0.02500944 -0.046950445 0.0036752108 -0.005624199
0.02227858 0.0152009325 0.017240863 -0.009490892 -0.02419698 0.02497277 -0.049178332 -0.019637354
-0.01088829 0.019930614 0.050057232 -0.013360642 0.043289848 -0.006075358 0.036803875 0.03859275
0.014810234 0.0031532317 -0.012436278 0.043592703 0.009164725 0.034834072 0.027026027 0.037882768
-0.024841473 0.015769042 0.024021635 -0.025111105 0.0043410775 0.037635915 0.04083283 -0.017387055
0.033908825 4.5973855e-05 -0.03290554 -0.008610541 0.06754529 -0.0068147765 0.009667243 -0.01972871
0.014138563 -0.02056125 0.004522582 0.022157943 -0.004002782 0.0038400725 -0.028364848 -0.05829438
-0.027988663 -0.012595097 -0.0050260955 -0.03303195 0.020623723 0.00057090155 -0.003681944 -0.03654856
0.00994078 0.05149799 0.073633306 0.009240829 0.013761623 -0.0039032032 -0.023608439 0.018126072
0.038035266 0.045369145 -0.009629587 -0.00075534557 -0.009326388 0.0042096702 0.018725408 -0.0138966115
0.04170914 -0.022375735 0.028288394 -0.042685084 -0.08683863 0.034033585 0.006141193 0.01718299
-0.004186164 -0.0344974 -0.020155428 -0.038105603 -0.049480647 0.006419212 -0.005181994 -0.03038909
-0.007544371 -0.045145437 -0.036646847 0.010738597 0.017845245 0.0069571575 0.059730887 -0.017152654
-0.0315936 0.011752355 -0.017806625 -0.03643477 -0.013776137 0.021500638 0.014711849 -0.015387732
-0.053643372 -0.016253201 -0.0002836313 -0.037307497 0.046183888 -0.021797664 0.061003502 -0.028980311
-0.036806904 0.026368577 -0.022366783 0.012385916 0.0006053015 0.04778602 -0.012887836 -0.035437215
-0.050201043 -0.02846865 0.05084892 -0.024660457 -0.009845678 0.046922497 0.01451162 -0.00842741
