embeddings/wavlm_large_24/b778b81167ae663747672041741e3d6bb8a18542.npy (npy, 4224 bytes, 1 tensors)

array f4 [1024]
-0.013964091 -0.012480527 -0.0044062296 0.05057015 0.004923881 0.0153563535 -0.021088196 -0.013318443
0.008125381 -0.043653004 -0.033449724 0.003372516 -0.0012601602 -0.033942997 -0.007698579 0.011629276
0.0072394907 -0.010733465 0.0150874015 -0.0199583 0.02430149 0.0057788203 -0.0067628026 0.06787833
-0.046382952 0.03179262 0.038196858 0.0027883693 -0.032624684 0.02453597 -0.0034002566 0.0174681
-0.009505732 -0.077079855 0.021587491 0.003901084 0.027330633 0.022533726 -0.05737548 -0.01169688
0.038787235 -0.012928148 0.052785397 -0.004054794 0.0049526747 0.035817016 -0.0037104047 0.01633964
-0.04294701 -0.016313601 0.010395485 0.027739968 0.008225495 -0.007640967 -0.015682023 -0.051148314
0.029984979 -0.028951045 -0.04255231 0.022227867 0.00840393 -0.022643566 0.02406542 0.02594409
-0.003711311 -0.10489975 -0.024151316 0.00559111 -0.0039638 -0.03358699 0.011535694 0.028254911
0.026108595 0.023260124 0.03076958 0.0061628725 -0.03176722 0.037967514 0.005243901 -0.0066155335
0.03371474 0.01469847 -0.0009919162 -0.007966485 0.042899966 -0.029714826 0.04267094 -0.0009343405
-0.016821934 -0.014602961 -0.02084496 -0.015516032 0.015611535 0.019483961 0.0045118895 -0.01192436
0.040269237 -0.046202894 -0.05164972 0.005161327 0.007825088 -0.030753873 0.024227532 0.0016232469
-0.03153776 0.024939535 0.018507084 0.018066874 -0.021392524 0.050896734 -0.00016534941 0.031795934
-0.0272529 -0.006426374 -0.0048939693 -0.02881235 0.056084637 0.03654904 -0.034808185 0.0084798
-0.0253619 -0.08278593 -0.017666515 0.004857705 0.039056964 -0.0011699076 -0.014953588 -0.018021738
0.0060899146 0.011622978 0.025538838 -0.010302586 0.029262206 -0.017228259 -0.032285586 -0.003437768
0.012120411 0.034438875 0.017719029 0.031396203 -0.005891566 0.017370883 -0.0037798414 0.06517086
-0.0181291 -0.02118843 0.049386207 0.04291339 -0.030097911 0.012513525 0.009921446 0.020597957
0.007553536 -0.0129052475 0.013810635 0.019165171 -0.0004024165 0.036295958 0.030022139 -0.016126575
0.02134945 0.009452037 -0.011575002 -0.049257275 0.047954388 0.0075598806 -0.0076418095 -0.028791638
0.041677848 -0.050306726 0.0056655384 -0.0076621976 0.009156537 -0.033174474 -0.00807139 -0.016606834
-0.017199451 0.0040629 -0.025463043 -0.0014075228 -0.0035314616 0.011773735 -0.037226543 -0.05614446
0.024334053 0.008776937 0.01654596 0.041391708 0.0050637196 -0.01753212 0.0197126 0.0027006431
0.0035238725 0.03594378 -0.021288699 0.0050972095 -0.011067274 0.00798782 0.022993812 -0.0023564724
0.04312346 -0.047057454 -0.0070594107 -0.003040544 -0.05952386 0.033770084 0.012863277 -0.0029611278
-0.0005860798 -0.009506446 0.0041264654 -0.022435177 -0.041174643 -0.0051261527 0.0022403048 -0.018635059
0.010740836 0.018244071 0.0014760076 -0.007703528 0.012517737 -0.029770713 -0.004690713 -0.028691087
-0.025631199 0.018371498 0.0033778904 0.011573638 -0.0233824 -0.0583387 0.020704998 -0.024518896
-0.04720347 -0.07019576 0.0069579603 0.019797813 0.013851508 0.007695922 0.07483483 0.029789865
-0.05699529 0.008496242 -0.016651504 0.0031788945 0.020443168 0.003329881 -0.035009168 -0.061875954
-0.055564266 -0.02276357 0.02353187 -4.8458533e-05 0.004702925 0.02966449 -0.02177591 -0.019529672
00000000: a5c9 64bc 207b 4cbc 2262 90bb a522 4f3d
00000010: 8258 a13b 3799 7b3c 27c1 acbc 9935 5abc
00000020: 5120 053c 7ecd 32bd 9402 09bd 6e05 5d3b
00000030: f62b a5ba d007 0bbd 5d44 fcbb b888 3e3c
00000040: 4039 ed3b 6adb 2fbc 2631 773c 977f a3bc
00000050: eb13 c73c 425c bd3b 809a ddbb cb03 8b3d
00000060: 0dfc 3dbd fa38 023d 4f74 1c3d 13bd 363b
00000070: 76a1 05bd a9ff c83c d7d6 5ebb 4319 8f3c
00000080: eebd 1bbc 0bdc 9dbd 40d8 b03c 54a9 7f3b
00000090: 7ee4 df3c a698 b83c 8d02 6bbd 45a4 3fbc
000000a0: 5ddf 1e3d 95d0 53bc 8035 583d 14de 84bb
000000b0: 0c4a a23b ddb4 123d 432a 73bb b5da 853c
000000c0: 34e9 2fbd 1aa4 85bc d351 2a3c ee3e e33c
000000d0: 3ac4 063c 1461 fabb 9677 80bc e580 51bd
000000e0: 0fa3 f53c be2a edbc 554b 2ebd 3717 b63c
000000f0: a3b0 093c 007f b9bc d824 c53c b388 d43c
00000100: 7739 73bb aed5 d6bd fbd8 c5bc a135 b73b
00000110: c4e2 81bb 8392 09bd 3500 3d3c d876 e73c
00000120: b1e1 d53c 048c be3c 7c10 fc3c ecf1 c93b
00000130: 581e 02bd d383 1b3d 08d5 ab3b 1ec7 d8bb
00000140: 7818 0a3d dad1 703c 2f03 82ba dc85 02bc
00000150: e0b7 2f3d 826c f3bc b9c7 2e3d 88ee 74ba
00000160: 27ce 89bc 4241 6fbc 0dc3 aabc f536 7ebc
00000170: 86c7 7f3c d49c 9f3c 79d8 933b 645e 43bc
00000180: 5bf1 243d 3f3f 3dbd a88e 53bd 5920 a93b
00000190: cc34 003c 8cef fbbc d178 c63c 21c3 d43a
000001a0: bd2d 01bd ff4d cc3c 2b9c 973c fb00 943c
000001b0: 603f afbc 1879 503d a561 2db9 743c 023d
000001c0: 7941 dfbc 5594 d2bb 975d a0bb e107 ecbc
000001d0: 01b9 653d 72b4 153d 0793 0ebd dcee 0a3c
000001e0: c2c3 cfbc ab8b a9bd 5eb9 90bc 622d 9f3b
000001f0: 32fa 1f3d 9657 99ba e5ff 74bc 53a2 93bc
00000200: e88d c73b 4e6e 3e3c d336 d13c 2dcc 28bc
00000210: 4bb7 ef3c 4722 8dbc e43d 04bd 2d4c 61bb
00000220: b094 463c c70f 0d3d 7f27 913c 4e99 003d
00000230: 0a0e c1bb 624d 8e3c 37b7 77bb 4d78 853d
00000240: 7a83 94bc 5c93 adbc 3149 4a3d f3c5 2f3d
00000250: e58f f6bc 8705 4d3c 908d 223c 0cbd a83c
00000260: a783 f73b 8870 53bc 0046 623c 4700 9d3c
00000270: 6efb d2b9 12ab 143d fdf0 f53c e11b 84bc
00000280: 0be5 ae3c b7dc 1a3c 14a5 3dbc ffc1 49bd
00000290: d26b 443d e0b8 f73b 2568 fabb 71dc ebbc
000002a0: 64b6 2a3d 6d0e 4ebd fba5 b93b 2c13 fbbb
000002b0: 4d05 163c f5e1 07bd dd3d 04bc 0e0b 88bc
000002c0: dde5 8cbc 1322 853b df97 d0bc a17c b8ba
000002d0: 1870 67bb a0e6 403c dc7a 18bd bcf7 65bd
000002e0: 3558 c73c 24cd 0f3c 658b 873c 5a8a 293d
000002f0: 8fed a53b 859f 8fbc 527c a13c 46fd 303b
00000300: c5f0 663b c939 133d a365 aebc 7e06 a73b
00000310: 8353 35bc 58df 023c 855d bc3c 0c6f 1abb
00000320: 3aa2 303d 51bf 40bd a152 e7bb dd43 47bb
00000330: 4bcf 73bd 8052 0a3d 7fc0 523c 7b0f 42bb
00000340: 26a3 19ba edc0 1bbc 4d37 873b fac9 b7bc
00000350: bea6 28bd 49f9 a7bb 14d2 123b 8da8 98bc
00000360: 55fa 2f3c 9774 953c 9976 c13a e06d fcbb
00000370: 3217 4d3c b6e1 f3bc 8db4 99bb 9209 ebbc
00000380: 85f8 d1bc d37f 963c 995f 5d3b 5b9f 3d3c
00000390: 728c bfbc 90f4 6ebd 879d a93c dadb c8bc
000003a0: 6d58 41bd cbc2 8fbd 9aff e33b 062f a23c
000003b0: 6ff1 623c 132e fc3b 0143 993d e009 f43c
000003c0: e573 69bd d233 0b3c bc68 88bc 0055 503b
000003d0: 6e78 a73c 223a 5a3b c665 0fbd a471 7dbd
000003e0: 5b97 63bd ab7a babc e9c5 c03c f43f 4bb8
000003f0: ff1a 9a3b f202 f33c 6563 b2bc b1fc 9fbc
