embeddings/wavlm_large_14_20/b156b8629a4a637c1fae3ab28ff5e7c0c0f3b55f.npy (npy, 4224 bytes, 1 tensors)

array f4 [1024]
0	0xbb3f44b2	-0.0029185233
1	0xbafc3c75	-0.0019244092
2	0xbb3e9613	-0.002908115
3	0x3c239d17	0.009986184
4	0xbbd92b7d	-0.0066274987
5	0xbb3965cf	-0.0028289442
6	0x3ca3f2c2	0.020013217
7	0x3c557748	0.013028927
8	0xbc0c5096	-0.008564135
9	0x3c0c08f7	0.008547059
10	0x3ba5782f	0.0050497274
11	0xbce2b6f2	-0.027675126
12	0x3a187644	0.0005815963
13	0xbc4714b7	-0.012150935
14	0x3ca136d6	0.019679468
15	0xbc051da2	-0.008124741
16	0xbaac404d	-0.0013141722
17	0x3a816604	0.0009872322
18	0x3bf69d24	0.007526057
19	0xbabfdac6	-0.0014637343
20	0x3c30f284	0.010800008
21	0xbb90f259	-0.0044234213
22	0xbb421adc	-0.002961806
23	0x3c815ba1	0.015790762
24	0x3bc85011	0.0061130603
25	0x3996833e	0.00028708013
26	0x3be6e9be	0.007046907
27	0x3c020dfd	0.007937905
28	0x3c01b652	0.007917004
29	0x3c14d37f	0.009083628
30	0xbc0a7c07	-0.008452422
31	0x3c95120e	0.018197086
32	0x3c000739	0.007814222
33	0x3baf829f	0.0053561474
34	0xbc9c5b55	-0.01908652
35	0xbd96059a	-0.07325287
36	0xb9d7f007	-0.0004118683
37	0xb871b3e6	-5.762642e-05
38	0xbb020fab	-0.0019845765
39	0x3bb07029	0.0053844643
40	0x3a29ed3c	0.0006482189
41	0xbc212603	-0.009835723
42	0x3b9e20e5	0.0048256987
43	0xbbbf89bc	-0.0058452766
44	0x3b1c3b61	0.0023839104
45	0x3c36e7d9	0.011163675
46	0xbb524368	-0.0032083634
47	0xbb9c84ac	-0.004776558
48	0xbcf2c7a3	-0.02963621
49	0x3bdc06f1	0.0067146947
50	0xbb8ca3c7	-0.0042919847
51	0x3c02dcbe	0.007987199
52	0x3c53af94	0.012920279
53	0x3c119525	0.0088856565
54	0xbc0acbad	-0.008471412
55	0xbb7ab409	-0.0038254282
56	0x3be31f17	0.0069311964
57	0xbb9cd514	-0.004786143
58	0xbc0713de	-0.008244483
59	0xbb82d2f6	-0.0039924337
60	0xbbdc73bd	-0.0067276643
61	0x3b6a99ba	0.0035797195
62	0xbb9bcab3	-0.0047543882
63	0x3c1b6d2d	0.009486479
64	0x3a9103e3	0.001106378
65	0x3bd05eda	0.0063589634
66	0xbc59cf06	-0.013293987
67	0x3b8e484b	0.004342114
68	0x3c95c56d	0.018282617
69	0x3c25bb2f	0.010115429
70	0x3bcead6e	0.0063072955
71	0x3a357838	0.0006922516
72	0x3c9428df	0.018085895
73	0x3b1545a7	0.0022777112
74	0x3bdc7ced	0.0067287595
75	0x3bd41de0	0.006473288
76	0xba2694ea	-0.00063545874
77	0xbbd85579	-0.006601986
78	0x3b9f94d4	0.0048700366
79	0x3c3db6d1	0.011579231
80	0x3c205271	0.009785281
81	0xba5ddc7f	-0.00084633374
82	0xbc383271	-0.011242495
83	0x3b49925c	0.0030757403
84	0x3bdc1346	0.0067161648
85	0xbbfe37bc	-0.007758109
86	0xbbbc0875	-0.005738313
87	0x3b12df50	0.0022410937
88	0xbacaaa9e	-0.0015462225
89	0x3ab7a504	0.001401097
90	0xbc261743	-0.010137382
91	0xbb57b630	-0.0032914989
92	0x3beafe4d	0.0071714283
93	0x3ad5009d	0.0016250793
94	0xbbfa48ee	-0.0076380884
95	0x3c8bec9d	0.0170806
96	0x3c5c56d2	0.013448434
97	0xbb1d751a	-0.0024026097
98	0x3c28e273	0.010307896
99	0x3cc17acf	0.02361813
100	0x3aaa5b3e	0.0012997163
101	0xbb033618	-0.0020021256
102	0xbb33f517	-0.0027459317
103	0x3c4b8f9b	0.012424375
104	0x3c25a55b	0.010110225
105	0x3b6f3b20	0.0036503747
106	0x3c16e297	0.009209297
107	0x3caa46fe	0.020785805
108	0xbc26ac5f	-0.010172932
109	0xbc389236	-0.011265328
110	0x3c58a6ef	0.013223394
111	0x3a52afe9	0.0008037077
112	0x3cc4ddbf	0.024031518
113	0xbc4ff8de	-0.012693612
114	0xba4b51f7	-0.0007756049
115	0x3c11c712	0.00889756
116	0x3bbb7ff4	0.0057220403
117	0xbb65f7d0	-0.0035090335
118	0x3b9cd688	0.0047863163
119	0xb9843b9a	-0.0002522141
120	0xba882ee5	-0.0010389952
121	0xb99b006b	-0.00029564215
122	0x38cfb090	9.9034165e-05
123	0xbb4a92b3	-0.0030910193
124	0x3be1cbb5	0.006890739
125	0x3c21066a	0.009828189
126	0xbc0eeebf	-0.008723914
127	0xba8a054b	-0.0010530142
128	0x3b4e31bf	0.0031462756
129	0xba539aed	-0.0008072097
130	0xbc3083ca	-0.010773608
131	0x3914ef2b	0.00014203477
132	0x3c3ff131	0.011715219
133	0xbc73b6b8	-0.0148751065
134	0xbc78dc9b	-0.015189315
135	0x3c35ebc3	0.011103573
136	0x3b7151e8	0.0036822502
137	0x3c30e951	0.0107978145
138	0xba9e6bbb	-0.001208655
139	0x3a9ff97e	0.0012205092
140	0x3ada4988	0.0016653994
141	0x3bc0263b	0.0058639324
142	0x392529d2	0.00015751206
143	0xbb4b976f	-0.0031065603
144	0x3bb42960	0.0054980963
145	0xbb0d76e0	-0.0021585748
146	0x3b949759	0.0045346436
147	0xbbe7e319	-0.0070766327
148	0xbc832ff0	-0.01601407
149	0x3c8496fa	0.016185272
150	0xbb171db7	-0.0023058483
151	0x3c28392f	0.01026754
152	0x3c2f8be3	0.010714504
153	0x3c96b0a9	0.018394785
154	0xbb7bcc78	-0.0038421433
155	0xbc8847f3	-0.01663587
156	0x3be852b7	0.0070899385
157	0x3c0180d7	0.007904253
158	0xbc198983	-0.009371164
159	0x3b95c2f9	0.0045703617
160	0x3a8b55e6	0.0010630458
161	0x3c0d63bb	0.008629735
162	0xb982d4c6	-0.0002495406
163	0xbc69a902	-0.014261486
164	0x3b3fcffd	0.0029268258
165	0x3bd6b531	0.0065523614
166	0xbb6e2a06	-0.0036340966
167	0xbc62ff0a	-0.013854751
168	0xbba51320	-0.0050376803
169	0xbab0ae59	-0.0013479694
170	0xbb3bd945	-0.0028663438
171	0xbc2da2a0	-0.010597855
172	0xbc34e283	-0.011040333
173	0x3c074bcc	0.0082578175
174	0x3c21b87b	0.009870644
175	0x3c155f89	0.009117016
176	0x3c452019	0.012031578
177	0xbbee5826	-0.0072736917
178	0xbc52b635	-0.012860824
179	0xbc24dcd8	-0.010062419
180	0x3aa505c8	0.0012590224
181	0xba9edb7c	-0.0012119855
182	0xbbb5830d	-0.005539304
183	0xbbbacb15	-0.005700479
184	0xbc7a87fe	-0.015291212
185	0x3b8cf7f4	0.0043020193
186	0x3ab71be0	0.0013970099
187	0x3bf8a340	0.0075878203
188	0x3c3f874e	0.011689974
189	0x3a92c679	0.0011198065
190	0xbb720b63	-0.0036933057
191	0x3a28902e	0.0006430176
192	0xbb836236	-0.0040095104
193	0xba94b7bc	-0.0011346261
194	0x3af21c10	0.0018471498
195	0x3c21906b	0.009861092
196	0x3c39e4d4	0.011346061
197	0xbb76f75e	-0.0037684063
198	0xbbc8bfa9	-0.0061263633
199	0x39bb39b3	0.0003571041
200	0xbc1439ea	-0.009047011
201	0x3ae2626a	0.0017271761
202	0xbc742e4e	-0.014903618
203	0x3aa0a5d6	0.0012256454
204	0xbc9da8b4	-0.019245483
205	0xbb8e975f	-0.004351541
206	0x3c7f417b	0.015579577
207	0xb988e3fa	-0.00026109797
208	0xbbb9ad25	-0.0056663924
209	0xbc0e920c	-0.0087018125
210	0x3c9c44e8	0.019075826
211	0xbbf90e69	-0.007600595
212	0xba6e8c87	-0.00090999197
213	0x3b1d077f	0.0023960767
214	0x3c75fc56	0.015013775
215	0x3ba708dc	0.0050974917
216	0xbc716b12	-0.014735
217	0xbc04716a	-0.008083681
218	0x3c3d278f	0.011545076
219	0x3cf15672	0.029460166
220	0xbc0d963f	-0.0086417785
221	0x389078a3	6.8889254e-05
222	0xbb7e38fe	-0.0038791294
223	0x3c7d4b6d	0.015459877
224	0xbb50ad5b	-0.003184161
225	0x3c8d5d30	0.01725635
226	0xbc33ae3c	-0.010966834
227	0xbbeb046a	-0.007172157
228	0x3a180dc7	0.0005800393
229	0x3a8416af	0.0010077561
230	0x3c832a85	0.016011486
231	0x3c25e10a	0.010124454
232	0xb9aa2c48	-0.0003245792
233	0xbd0475f7	-0.032339063
234	0x3c41a918	0.0118201
235	0xbc43ffe8	-0.011962868
236	0x3b980fe7	0.0046405676
237	0xbb4c4297	-0.003116762
238	0xba835ee5	-0.0010022788
239	0xbb853765	-0.0040654414
240	0xbdb73364	-0.08945349
241	0x3c64a90b	0.013956319
242	0xbcbc2074	-0.022964694
243	0xbc682c67	-0.014170743
244	0x3b715520	0.003682442
245	0xbc8f0ce1	-0.017462196
246	0x3b756ff7	0.003745077
247	0xb80c2a7d	-3.341817e-05
248	0x3c4260f8	0.011863939
249	0x3b8321ad	0.004001817
250	0xbb71e194	-0.0036908137
251	0x3c8a680b	0.016895315
252	0x3bb0cf57	0.0053958106
253	0x3c065fcb	0.00820155
254	0xbc2637e6	-0.010145163
255	0x3cb9babd	0.022672052
