embeddings/wavlm_large_14_20/b305c602242e9f56a196200b33c942c3a3896347.npy (npy, 4224 bytes, 1 tensors)

array f4 [1024]
0	0xbbc969d6	-0.00614665
1	0x3bd7711a	0.006574762
2	0xbc0d39fe	-0.008619783
3	0x3b4f1523	0.0031598292
4	0xbb32c157	-0.0027275884
5	0xbbab125a	-0.0052206935
6	0x3cd41955	0.025890986
7	0x3c1edd86	0.00969637
8	0xbbbc21ef	-0.00574135
9	0x3bae7181	0.0053235893
10	0x3c4e70c6	0.0126001295
11	0xbcead274	-0.028664805
12	0x3b05cb8e	0.0020415518
13	0xbc67b769	-0.0141428495
14	0x3c95714a	0.018242497
15	0xbc42dbc0	-0.011893213
16	0xbb33f98b	-0.0027461972
17	0x3c0f32b4	0.008740116
18	0xbb625c9d	-0.0034540065
19	0xbb9a6b4c	-0.004712498
20	0x3c2376e6	0.009977078
21	0xbc23c5f2	-0.009995924
22	0x3bd8bf29	0.006614585
23	0x3ae12620	0.00171775
24	0x3b830e28	0.0039994903
25	0xba77c56f	-0.0009451722
26	0x3b49bc91	0.003078256
27	0x3c113aac	0.008864086
28	0xbb6d8560	-0.0036242828
29	0x3c2eabdf	0.010661094
30	0xbc8205fe	-0.015871998
31	0x3ca4a83f	0.020099757
32	0x3c884155	0.016632715
33	0x3be4ac27	0.00697853
34	0xbc79ac2b	-0.015238802
35	0xbd936637	-0.0719723
36	0xbc306bc8	-0.010767885
37	0x3a01d6b7	0.00049529545
38	0xbb9bd479	-0.0047555533
39	0x3bf6adef	0.0075280587
40	0xb7e33585	-2.708543e-05
41	0xbbc75071	-0.0060825874
42	0xbbd3faa7	-0.006469089
43	0xbc7f2dbf	-0.015574872
44	0xbb42fb93	-0.0029752
45	0x3c740be8	0.014895417
46	0xbb790468	-0.003799701
47	0xbacc6a76	-0.0015595693
48	0xbce82626	-0.028338503
49	0x3c2286c3	0.009919825
50	0xbc041c5e	-0.008063404
51	0x3b7c22fa	0.0038472996
52	0x3c25e079	0.010124319
53	0x3c02367b	0.0079475595
54	0xbbc5e6bd	-0.006039469
55	0xbac7e4cf	-0.0015250685
56	0x3b5eb1e3	0.003398054
57	0x3bb108e2	0.0054026702
58	0x3b02ae36	0.0019940264
59	0x3b906b49	0.0044073206
60	0xbb845673	-0.004038626
61	0xbc05f0ff	-0.008175134
62	0xbaeb9113	-0.0017972313
63	0x3bb37702	0.0054768333
64	0xbc1229bd	-0.008921084
65	0x3c359b8c	0.011084449
66	0xbc0122f4	-0.007881869
67	0xbb3a57e2	-0.002843373
68	0x3c9f55f7	0.01945017
69	0x3c7a7852	0.015287476
70	0xbb1b3d28	-0.0023687575
71	0x3c321d73	0.010871279
72	0x3bf89412	0.0075860107
73	0x3c656d85	0.014003162
74	0x3b239eb0	0.0024966411
75	0x3c3f2b0c	0.011667978
76	0xbb5f35b8	-0.0034059118
77	0xbb82cd25	-0.0039917403
78	0x3af7b230	0.0018897709
79	0x3c0d2f60	0.008617252
80	0x3c2566d6	0.010095319
81	0xbb370ac8	-0.002793001
82	0xbbf8b731	-0.0075901975
83	0x3bd371ef	0.006452791
84	0x3b85525f	0.0040686573
85	0xbc3daa82	-0.011576297
86	0x3a649c3f	0.0008720792
87	0x3c06454d	0.0081952335
88	0xba945fab	-0.0011320015
89	0x3bdb6f6b	0.0066966317
90	0xbb92d36d	-0.0044807703
91	0xb9b430d1	-0.00034368646
92	0x3c0f5333	0.008747864
93	0x39cf792a	0.0003957239
94	0xbaa1bdd1	-0.0012339895
95	0x3c35e4db	0.011101927
96	0x3c5899a0	0.013220221
97	0xbbc48d0f	-0.005998261
98	0x3c674654	0.014115889
99	0x3cba327a	0.022729147
100	0x3c222595	0.009896656
101	0xb9db648b	-0.00041845845
102	0xbc2be3ae	-0.010491295
103	0x3bfe76b2	0.0077656144
104	0x3c751442	0.014958443
105	0x3ad71379	0.0016409002
106	0x3beff65c	0.0073230695
107	0x3c22e528	0.00994233
108	0xbb3b7131	-0.0028601403
109	0xbc7c5653	-0.015401441
110	0x3bae52b4	0.0053199176
111	0x3a228f16	0.0006201131
112	0x3ca099f3	0.019604659
113	0xbc26c32d	-0.0101783695
114	0x3b231e4c	0.0024889885
115	0x3bd63686	0.0065372614
116	0xbb8fb342	-0.004385383
117	0xbabc880b	-0.0014383806
118	0x3c31f7c1	0.010862292
119	0x3bdfcf95	0.0068301656
120	0x3ad4e1c9	0.0016241606
121	0x3b10b3bf	0.0022079793
122	0x3ba80fb6	0.005128826
123	0x3aea7aae	0.0017889345
124	0x3c00a1ac	0.007851046
125	0x3b5d0604	0.003372551
126	0xbc2850a0	-0.010273129
127	0x3b3960f4	0.0028286548
128	0x3bacf9d8	0.005278807
129	0x3b37f125	0.0028067317
130	0xbc61e5b9	-0.01378768
131	0xbc04a39d	-0.008095649
132	0x3c7654d2	0.015034871
133	0xbc6ddedb	-0.014518465
134	0xbc67e1f5	-0.014152993
135	0x3b494da9	0.0030716455
136	0x3b7cf203	0.0038596399
137	0x3bae42aa	0.0053180056
138	0xbb8ff191	-0.0043928106
139	0x39ad3ebf	0.0003304388
140	0x3c0b11a6	0.008488094
141	0x3b96c29e	0.004600837
142	0xbc09c5e6	-0.008408999
143	0xbb0d38e5	-0.0021548804
144	0x3ab4b634	0.0013787211
145	0x3c061094	0.0081826635
146	0x3a72f19c	0.000926757
147	0xbb58e702	-0.0033096676
148	0xbc577827	-0.013151205
149	0x3c4996a6	0.012303984
150	0x3b97a41d	0.004627718
151	0x3c141535	0.009038259
152	0x3cc1efe2	0.023673955
153	0x3c976b65	0.018483827
154	0xbbb76a3a	-0.00559738
155	0xbc88886f	-0.01666662
156	0xbb787514	-0.003791158
157	0x3bd60495	0.006531308
158	0xbc80ae6d	-0.015708173
159	0x3b3824a9	0.0028098023
160	0x3ab42a2f	0.0013745482
161	0x3c3bc862	0.011461349
162	0x3be1d29f	0.006891563
163	0xbc49a877	-0.012308232
164	0x3bcbc9a5	0.0062191063
165	0xbb8be520	-0.004269257
166	0xbbd4987c	-0.006487904
167	0xbc58d3aa	-0.013234058
168	0xbc1215f2	-0.008916365
169	0x3bae43ca	0.0053181397
170	0xbc7eaf47	-0.015544719
171	0xbc2799d7	-0.010229549
172	0xbc1c0cfc	-0.00952458
173	0x3c439e97	0.011939666
174	0x3c9122a5	0.017716715
175	0x3c17f553	0.009274798
176	0x3c477333	0.012173462
177	0xbbe63d82	-0.0070263753
178	0xbc879deb	-0.016554793
179	0xbb876e6c	-0.0041330364
180	0x3b922fc9	0.004461263
181	0xba9e9a75	-0.0012100475
182	0xbbbc8f89	-0.0057544154
183	0xbbefe9a8	-0.007321555
184	0xbcd9cc9e	-0.026586827
185	0xbbccef74	-0.006254131
186	0x3c4de869	0.012567618
187	0x3b59c916	0.0033231429
188	0x3c25f173	0.010128367
189	0xbb5f10ef	-0.0034037193
190	0xbb3cd86f	-0.0028815528
191	0x3b55c162	0.0032616486
192	0xbb506e7e	-0.003180414
193	0xbb8884f4	-0.00416624
194	0x3c1343c7	0.008988327
195	0x3c829b0d	0.015943075
196	0x3c4899a2	0.01224366
197	0xbaaf3fa7	-0.001337041
198	0x3b13d83a	0.00225593
199	0xbba2385b	-0.0049505658
200	0xbc255adf	-0.010092466
201	0xbaee2fcc	-0.0018172204
202	0xbc88acd4	-0.016683973
203	0x3ba15712	0.0049237097
204	0x3ce6aee7	0.028159572
205	0xbc050bbf	-0.008120476
206	0x3c79c834	0.015245486
207	0xbb8698fa	-0.0041075917
208	0x3a0254d3	0.0004971746
209	0xbb701b0c	-0.0036637215
210	0x3cab882c	0.020938955
211	0xbbce309f	-0.006292417
212	0x3c24220d	0.010017884
213	0x3a2b2c0c	0.0006529696
214	0x3b7e5d60	0.003881298
215	0x3b72e341	0.0037061723
216	0xbc323151	-0.010876016
217	0xbc2d48cc	-0.010576438
218	0x3c2f6af6	0.010706654
219	0x3c8f0cca	0.017462153
220	0xbbf246b3	-0.007393682
221	0xbad8fef3	-0.0016555473
222	0xbbb44419	-0.005501282
223	0x3c7f496a	0.015581468
224	0xbc2c361d	-0.0105109485
225	0x3ca28797	0.019840045
226	0x3b9184e7	0.004440892
227	0xbc51a0a3	-0.012794646
228	0x3b5bf186	0.0033560707
229	0x3bc12520	0.005894318
230	0x3c6e9d20	0.014563829
231	0x3b925001	0.0044651036
232	0xbb287cb2	-0.002570909
233	0xbd30dc62	-0.043178923
234	0x3c8a802f	0.016906826
235	0xbc63c113	-0.013901013
236	0xbaf8f956	-0.0018995206
237	0xbaf98b36	-0.001903868
238	0x3c31ab7c	0.010844108
239	0x3bb5a213	0.0055430024
240	0xbd8cbe3b	-0.06872221
241	0x3bd24fcf	0.0064182053
242	0xbce1eccb	-0.027578732
243	0xbc1018f0	-0.008795008
244	0x3bbb5d09	0.0057178778
245	0xbc7350c9	-0.014850804
246	0x3c3ccc64	0.01152334
247	0xba38f828	-0.0007056021
248	0x3bdf26fc	0.006810067
249	0x3bb518bf	0.0055266316
250	0xbc4d1812	-0.012517946
251	0x3ccb8938	0.024845704
252	0x3c42f11e	0.011898307
253	0x3bd95dde	0.0066335043
254	0xbc967fca	-0.018371481
255	0x3d5978d8	0.05309376
