embeddings/wavlm_large_14_20/b3e1e17ade8713423003864809df865fe0cf42e6.npy (npy, 4224 bytes, 1 tensors)

array f4 [1024]
00000000: 5720 333c db6e 9339 7233 bc3b 4e53 473c
00000010: f431 993a 0751 58ba 48f8 923c 5cd9 703c
00000020: 1a76 19bc 15dd b13b eea4 803c 346d a7bc
00000030: 981a 7e3a e390 f7bb daeb 793c e302 29bc
00000040: 15a6 abbb ab28 8c3c 334b 7dbb d9dc 663b
00000050: 08bb 0b3c 04dc cebb 69b2 e03b 5348 8f3b
00000060: ac12 003c c1a9 f03b 93dc bb3b 350a 113c
00000070: aa97 cd3b 0180 0f3c 99ab e4b9 2b4f a43c
00000080: f9c9 853c 2a92 203c a8c5 65bc 16b4 4dbd
00000090: 7af2 e5ba 79f5 8ebb 4104 9e3a bef9 893b
000000a0: d6d1 80ba 4dc2 f3bb 2944 bb3b 9bff a43a
000000b0: eee3 efbb a343 1c3c 4272 1e3a 57e5 3c3a
000000c0: 0fc4 d4bc 1e80 b03b f326 05bc b548 563b
000000d0: 2671 943c bfab 463b 279a 05bc 4b53 b6b9
000000e0: f120 ff3b 057e b43a 7693 3dbb 9c72 bfbb
000000f0: 1737 6dbc 367f 0fbb aa7d 97bb 68c5 013c
00000100: abef 5cbb 4b29 ea3a 28f5 83bc 4eca 9f3b
00000110: 0377 4e3c ae0c 623c fab3 bd3b 81f4 d53b
00000120: 606a c83a 1f8e 613c 3199 bd3b 363c 033c
00000130: 5ec8 71bb 9d13 88bb 6bee 573a 3f69 16ba
00000140: a8b1 ca3b f0f3 0fba f55b efbb 54a4 d23b
00000150: 18df 853b 6b15 85bb 7c92 78bb e811 2c3a
00000160: d39f 9bba 79ee 2f39 d9b0 74bb 9227 3d3a
00000170: 5361 dc3b f6b7 e1ba bc7d 57bb 9f3c 5f3c
00000180: 2386 753c 4d05 b6bb 61c9 4c3b b1a3 8b3c
00000190: 1921 12bb 4b93 49ba eb3c d5bb 0591 d53b
000001a0: 23e5 6f3c a765 4cbb 2893 833a ca60 553c
000001b0: c31a cfbb 26d0 ccbb 7fe5 363b 3a66 6abb
000001c0: f860 ab3c 7365 04bc e2ec 803b 9f4d d83b
000001d0: 9ef4 3dbb 30c0 863a 16a8 d13b a3bd d539
000001e0: 707d 95bb b11d c3bc 3fe3 91bb 6ea0 363b
000001f0: c9ba 813b 3a9c d93b 6b95 0fbc 104a eb3a
00000200: 7e44 aabb 2109 793a d205 15bc 0fcd b9ba
00000210: 0cf8 c43b ea3a 0ebc 782d 32bc 38a5 883b
00000220: 08d5 6a3b 0851 18ba 0ff7 4dbb d533 e9bb
00000230: 6bd6 93ba c1f1 123c 56d3 443b 8603 eebb
00000240: 0394 eeba c00e 243b 4bc3 c63a a017 ecbb
00000250: 487d 9dbc 0564 8a3c 9cc5 80b9 6cbe ec3b
00000260: 2e99 453c e1c4 c03c 0950 85ba cfe7 2cbc
00000270: 9bd1 e53b dc15 4f3c 400c a5bc 70b4 9fba
00000280: a501 813b 14f2 293c a12e 12bb 993e 36bc
00000290: 7dd0 633b 70bc 4ebc 2876 f6ba 7294 19bc
000002a0: 1f1b c5bb e4af ee3a 6f1c 10bc 334e 03bc
000002b0: 126d f6bb 8cbc 713c ac09 6f3c bf94 903b
000002c0: 794e 593c 84e4 4bbc 459d a9bb 1c9e c4ba
000002d0: de74 b43b f31b 8d3a ad73 bcba c37e 03bc
000002e0: 483e 94bc b303 973b 7746 b33a 0df8 413c
000002f0: 4479 773c 7ee8 f639 ca2b 03b8 19c2 613b
00000300: bf0e 5abb 07d9 12ba de18 ce3a 9bda 263c
00000310: f433 173c 7d9b bebb 6c47 0bbc 6794 26bb
00000320: 0ed5 afb9 2fdb 13bb f096 17bb 90e9 0a3b
00000330: 1a3c 8dbc 4dcb e3bb d19e 5b3c e366 bfbb
00000340: 6e54 18bb 34c3 40bc 6fb6 c53c ce5c 02bc
00000350: cb8a 13bc e560 273a cb68 433c d916 233c
00000360: b28d 95bc a82d 1cbc fa53 163c b72d bc3c
00000370: 7ff2 f8bb c43b 723b 8fca 17bc 2294 9a3c
00000380: bcbe fa3a a2b1 8f3c ab53 61bb 64ed 4cbb
00000390: 5e18 4d3a bad3 073c dc88 583c a4f4 323b
000003a0: f2b9 c4ba f8c4 0cbd efa1 053c 0264 6abc
000003b0: 8c87 f53b 45f9 fdbb 9ad5 513b 5d91 e2bb
000003c0: efd0 c8bd 8474 a53c ac7b 9cbc a1b4 2cbc
000003d0: 916e ef37 0661 8bbc b57c 7a3c 1c1e edbb
000003e0: 7101 9a3c 28eb b1bb c83d cebb 9225 223c
000003f0: 6fef 2c3c 148d 883c 182d 2bbc fd5b f9b9
0.010933003 0.0002812062 0.0057434374 0.0121658575 0.0011687861 -0.000825182 0.017940655 0.01470026
-0.0093665365 0.0054279664 0.015703645 -0.020437814 0.0009693294 -0.0075551136 0.015253985 -0.01031563
-0.0052383044 0.017109236 -0.0038649559 0.003522685 0.008528478 -0.006312849 0.0068572056 0.0043726354
0.007816952 0.007344455 0.0057330816 0.008852531 0.0062741833 0.008758546 -0.000436154 0.020057281
0.01633166 0.009800473 -0.014024176 -0.05022057 -0.0017543577 -0.0043627587 0.0012055711 0.00421068
-0.0009828161 -0.007438934 0.0057149124 0.0012588383 -0.0073208725 0.00953761 0.00060442474 0.0007205805
-0.025972394 0.0053863665 -0.008126962 0.0032697145 0.01812036 0.003031477 -0.008154429 -0.00034775803
0.0077859093 0.0013770467 -0.0028927005 -0.00584252 -0.0144784665 -0.0021895892 -0.0046231346 0.0079206005
-0.003371219 0.001786509 -0.01610811 0.0048764115 0.012601617 0.013796968 0.005789277 0.0065293913
0.0015290491 0.013766794 0.005786084 0.008009961 -0.003689311 -0.0041527287 0.0008237126 -0.0005737729
0.006185729 -0.00054913666 -0.0073046633 0.006428281 0.0040854327 -0.004061391 -0.0037929108 0.00065639475
-0.0011873193 0.00016778139 -0.0037336855 0.0007215674 0.006725469 -0.0017220962 -0.003288134 0.013625293
0.014985594 -0.005554831 0.003124796 0.017045828 -0.002229756 -0.000768949 -0.006507506 0.006517532
0.014642033 -0.003118852 0.0010038363 0.013023565 -0.006320329 -0.006250399 0.0027907786 -0.0035766498
0.020920262 -0.008080828 0.0039344886 0.00660105 -0.0028984915 0.0010280665 0.0063982112 0.00040767816
-0.0045620725 -0.023817869 -0.0044521387 0.002786662 0.003959034 0.006640938 -0.008763651 0.001795115
-0.005196153 0.00094999565 -0.009095626 -0.0014175492 0.006011015 -0.008681038 -0.010875098 0.0041700862
0.0035832543 -0.00058104144 -0.0031427776 -0.0071167746 -0.0011279111 0.008968771 0.0030033193 -0.0072636036
-0.001820207 0.0025033206 0.0015164403 -0.0072049648 -0.019224778 0.016893396 -0.00024561293 0.0072248485
0.012060447 0.02353138 -0.0010170947 -0.010553314 0.0070135123 0.012639489 -0.020147443 -0.0012184512
0.0039369636 0.010372657 -0.0022305625 -0.011123323 0.003476172 -0.012618169 -0.0018803524 -0.009373771
-0.006015196 0.0018210378 -0.008795842 -0.00801425 -0.0075203264 0.014754426 0.014589708 0.004412263
0.013263338 -0.012444619 -0.0051762187 -0.0015000734 0.0055070957 0.0010765776 -0.0014377736 -0.008025828
-0.018096104 0.0046085953 0.0013677616 0.011838925 0.015104596 0.00047093997 -3.1273616e-05 0.0034447967
-0.003327295 -0.00056017976 0.0015723964 0.010183956 0.009228695 -0.0058168755 -0.008500915 -0.0025418045
-0.0003353734 -0.0022561064 -0.0023130737 0.0021196343 -0.017240573 -0.0069517256 0.013404564 -0.0058411225
-0.0023243683 -0.01176529 0.024134843 -0.007956697 -0.009005259 0.0006384983 0.01192684 0.009954178
-0.018256042 -0.00953237 0.009175295 0.022971017 -0.007597267 0.0036961893 -0.009264602 0.018869463
0.001913033 0.017540757 -0.0034382145 -0.0031269426 0.00078237604 0.008290226 0.013216224 0.0027306462
-0.0015009029 -0.03436753 0.008156284 -0.01430607 0.007492965 -0.0077506625 0.0032018186 -0.0069143013
-0.09805476 0.02019716 -0.01910194 -0.010541112 2.8542507e-05 -0.017014038 0.015288522 -0.0072362553
0.018799515 -0.005429644 -0.006293986 0.009896653 0.010555132 0.016668834 -0.010447763 -0.00047561518
