embeddings/wavlm_large_14_20/b3eeae5a270af0a1f03916e020da3eefd8149935.npy (npy, 4224 bytes, 1 tensors)

array f4 [1024]
000000 62 11 98 ba 58 be 7d 3b a7 e3 ad bb 80 b5 be 3b
       -0.001160186 0.003871819 -0.0053066793 0.0058199763
000010 9d 91 c2 bb 8a a7 e6 bb 49 15 87 3c c4 75 5a 3c
       -0.0059377686 -0.007039015 0.016489642 0.013333742
000020 ef c9 a0 bb 7c 81 8d bb 93 8f 7d 3c c8 ac b2 bc
       -0.004906885 -0.0043184143 0.015476125 -0.021810904
000030 0f 8f 82 ba 7f af 6b bb 2a 1a 8c 3c 80 bd 2d bc
       -0.0009960848 -0.0035962758 0.01710232 -0.010604262
000040 f8 31 eb ba 79 2c 9c 3c de 02 a1 b8 55 fa cb ba
       -0.0017943969 0.019064175 -7.677612e-05 -0.0015562276
000050 1d 54 ce 3b c2 c6 23 bc f1 74 b0 3b 75 d6 28 3c
       0.006296648 -0.009996118 0.0053850343 0.010305037
000060 35 6a ca 3b e5 ce 53 3b a7 6c 12 3c 92 c3 40 3c
       0.0061772116 0.0032319364 0.008937038 0.011765378
000070 ae 44 be 3b 06 61 f8 3b 87 56 2d bc 21 17 5d 3c
       0.005806527 0.0075799255 -0.010579712 0.013494284
000080 2e d3 31 3c f3 ef 67 3b be fe 00 bc bb 02 54 bd
       0.010853572 0.0035390824 -0.007873235 -0.051760416
000090 f7 7b 0e 3c 5e 20 2b 3b df 78 3b bb b8 51 de 3b
       0.008696548 0.0026111822 -0.002860598 0.006784644
0000a0 ec b7 08 bb 5d a8 43 bc 8a fa e3 3b 73 42 23 bc
       -0.002086158 -0.011941996 0.006957357 -0.009964573
0000b0 1d ca a3 bb 79 6c c0 3b bf c4 d2 ba cd f7 01 3b
       -0.004998459 0.005872306 -0.0016080363 0.0019831539
0000c0 22 0b 8d bc 65 b9 c0 3b 81 37 02 bc 3c c0 89 3b
       -0.017217223 0.0058814758 -0.0079478035 0.0042038243
0000d0 81 ef 86 3c e9 d1 ad 3a 6c cc 38 bb 57 f6 1f bc
       0.016471626 0.0013261411 -0.0028198017 -0.009763322
0000e0 06 6a 82 bb 4d 5f e7 3b 4b b5 05 bc 87 d7 20 bb
       -0.003979924 0.0070609213 -0.008160899 -0.0024542527
0000f0 17 c4 dc bb 80 9d 16 3b dd 3b d7 bb 09 50 da 3b
       -0.006737243 0.002298206 -0.0065684156 0.006662373
000100 f6 d5 ab bb d2 8d 83 3c c8 ec 1c bc 65 4b 1b bb
       -0.005244012 0.016058836 -0.009577937 -0.0023696062
000110 77 eb 55 3c b1 74 14 3c 2d 17 9b 3b 8d a3 dc 3b
       0.0130566275 0.0090610245 0.0047329874 0.006733364
000120 56 5d 81 3c 78 33 47 3c 35 82 88 3c 7b 99 21 3c
       0.015791576 0.012158267 0.01666365 0.009863253
000130 29 d2 ac bb 7f f3 2d 3a 68 db a1 3b 00 12 0c 3c
       -0.0052740765 0.000663571 0.0049394853 0.008549213
000140 25 76 19 3c 13 9c 99 39 97 ac c7 bb 5f bf a4 3b
       0.009366547 0.00029298718 -0.0060935724 0.005027696
000150 7b 5b 3a 3c 77 79 b6 bb fc 70 34 bb cb a7 ca 3b
       0.01137435 -0.005568679 -0.0027533164 0.0061845533
000160 db 35 3c bb 38 e5 68 3b a7 7d 16 bc 45 62 1c ba
       -0.0028718624 0.0035537016 -0.009185231 -0.0005965571
000170 db 8f a2 3b 90 00 d4 bb 98 c3 39 bb 67 90 19 3c
       0.0049609966 -0.0064697936 -0.0028345343 0.009372807
000180 52 7a 5e 3c e3 8b 8e bb f6 7d 23 3c 97 17 c1 3c
       0.013578968 -0.004350172 0.009978762 0.023570819
000190 06 71 55 3a 78 86 09 3b 7d 02 e2 ba 0a 09 ac 3b
       0.0008142147 0.002098469 -0.0017243173 0.005250101
0001a0 ab 51 5c 3c f5 2b 88 bb c3 3a 71 ba 89 bd b3 3b
       0.013447206 -0.0041556307 -0.00092021766 0.005485241
0001b0 15 48 dd bb a7 5c 33 bc 1f b3 c6 3b 66 83 2e 3b
       -0.0067529776 -0.010947383 0.0060638334 0.0026628613
0001c0 da 74 69 3c ea 0b c3 bb b3 2e 20 3b 0f 11 39 3c
       0.014249051 -0.005952348 0.0024441897 0.011295571
0001d0 78 7a ca b8 47 40 fc ba 50 eb 1b 3c 5e 8c fc 39
       -9.654922e-05 -0.001924523 0.009516552 0.00048169767
0001e0 63 5e 9d b9 ef c1 e4 bb b4 38 fd bb c8 27 a1 3b
       -0.00030015697 -0.0069811265 -0.007727707 0.0049180724
0001f0 59 ef 1a 3c 26 f9 1e 3c 65 67 a5 bb c2 fa 99 3b
       0.009456479 0.009702956 -0.005047726 0.004699082
000200 de 7d a9 3a f8 7c 0d ba 67 95 70 bb c8 b5 52 3a
       0.0012931188 -0.0005397345 -0.0036710144 0.0008037952
000210 25 ed f3 3b 63 6e f6 bb 24 ea 5e bc 3e 48 35 3c
       0.0074440413 -0.0075204833 -0.013605628 0.011064587
000220 52 13 20 3b d2 1e 05 b9 c5 55 ed 37 39 a7 4e bb
       0.0024425578 -0.0001269535 2.8292541e-05 -0.0031532778
000230 23 fd 8a 3a 6e 1d 5b 3b 39 17 3f 39 36 a6 8b ba
       0.0010604005 0.003343429 0.0001822383 -0.0010654393
000240 5b bc 36 3b f0 fc 6a 3b 96 cd e3 3a 6e d8 09 bc
       0.0027883265 0.003585633 0.0017379995 -0.008413417
000250 4b db d8 bc 07 e7 8c 3c ad 0e 9f 3a a1 0a 0e 3c
       -0.026471755 0.017200006 0.0012135111 0.008669526
000260 d7 74 5b 3c ab f3 6c 3c 8c ca 21 3b d4 83 84 bc
       0.013394556 0.014462392 0.0024687378 -0.016176142
000270 29 7d f5 3a f4 76 0c 3b 12 19 81 bc b8 4c 75 39
       0.0018729317 0.0021433206 -0.015759025 0.000233936
000280 da ff 1e 3c 30 63 11 3c 2f d9 b6 bb 42 ac 7c bc
       0.009704554 0.008873746 -0.0055800895 -0.015421929
000290 ec 0b 0f 3b 31 d4 a8 bc 7a ed 8f 3b 7f 33 8b bc
       0.0021827174 -0.020608993 0.004392323 -0.016992329
0002a0 f3 1f 02 bc 79 ea dd 3b 34 d0 bb bb e4 9c 54 bc
       -0.007942188 0.006772336 -0.005731607 -0.012976859
0002b0 75 ed 8e bc 53 0c 87 3b 8c 80 58 3c 4e 0b 67 3c
       -0.017447213 0.004121342 0.013214242 0.014101816
0002c0 70 0e 8c 3b 50 f5 07 bc a3 7a 16 bb 6c c3 d8 ba
       0.004274182 -0.008298233 -0.002296128 -0.0016537732
0002d0 88 e5 48 ba ae b3 82 3b 90 76 f9 3a 75 20 af 3b
       -0.00076635974 0.0039887046 0.0019032527 0.0053444454
0002e0 9d 42 f3 bb e2 b2 7b 39 c5 8a 55 3a 4e d3 91 3b
       -0.0074237124 0.00024003864 0.00081459834 0.0044502383
0002f0 d4 9b 98 3c 7f 87 4f 3b 97 0f a1 b9 16 1a d1 3b
       0.018628992 0.0031666455 -0.00030719928 0.0063812835
000300 85 e8 6d bc f4 8c 42 bb 1d 8b 18 bb 6f ef 9b 3b
       -0.014520769 -0.0029686065 -0.0023276277 0.0047587673
000310 6f 56 74 3c a7 d2 c5 bb b6 d4 14 bc 49 46 93 bb
       0.0149131855 -0.0060370746 -0.009083917 -0.0044944626
000320 ab 9e 81 3b d9 78 38 3b 0d e3 b8 bb 75 36 b2 3a
       0.0039556823 0.0028148203 -0.005642301 0.0013596552
000330 2b 77 71 bc f6 6a 15 bb c9 4a 83 3c 94 6c 47 3a
       -0.0147378845 -0.002279935 0.016026871 0.0007607427
000340 24 32 9b bb d7 25 8e ba a5 96 e3 3c 80 7f 89 bb
       -0.004736202 -0.0010845017 0.027781794 -0.0041961074
000350 69 91 42 bb d7 be 6c bb d5 c6 ad b9 7e cc 3d 3c
       -0.0029688722 -0.0036124492 -0.00033145273 0.011584399
000360 7c 9f 9e bc 73 23 90 bc a4 7c 13 3c e3 fb dd 3c
       -0.019363157 -0.017595029 0.009001885 0.027097648
000370 48 16 2c bc af 6d d3 3b d7 88 85 3b d9 0b 1d 3c
       -0.010503359 0.0064522843 0.0040751505 0.009585344
000380 26 6b d2 bb 92 f2 25 3c 97 47 1e bc cd 5d 8d bb
       -0.0064214645 0.010128634 -0.009660623 -0.0043141604
000390 1e 07 ba 3a 74 13 d5 3b c8 00 69 3c ea 7e 8f 3b
       0.0014192795 0.006502563 0.014221378 0.004379143
0003a0 17 5d ab 37 fd b1 14 bd 13 57 de 3b 76 ae 83 bc
       2.0428137e-05 -0.036302555 0.0067852824 -0.0160744
0003b0 92 ad ba 3a 42 54 34 bc 65 62 1a bb 2b 68 48 bb
       0.0014242402 -0.011006417 -0.0023557183 -0.0030579667
0003c0 21 52 a5 bd 88 50 d1 3c 4f 18 c7 bc 55 c7 34 bc
       -0.080723055 0.025551096 -0.024303583 -0.011033853
0003d0 8f ed 63 3b f8 b6 81 bc 30 35 04 3c a5 99 9b bb
       0.0034779047 -0.015834317 0.0080693215 -0.0047485405
0003e0 71 48 bd 3c 07 f2 32 3c 18 bb 28 bc f9 8d 8f 3c
       0.023105832 0.010921962 -0.010298513 0.017523753
0003f0 4b d6 2b 3c 96 02 a8 3c 57 3e 35 bc d7 b5 84 bb
       0.010488103 0.020509046 -0.011062226 -0.0040499973
