embeddings/wavlm_large_14_20/b4d69250c16cb76c400dc0f804af4ba2fa74523a.npy (npy, 4224 bytes, 1 tensors)

array f4 [1024]
0.0064882603 -0.0016823388 -0.010813827 0.010093631 -0.0033468876 -0.0028997974 0.010745562 0.0129836025
0.0009500893 -0.0029501587 0.010629718 -0.02702898 0.00069152185 -0.005527675 0.013735841 -0.010182231
-0.0112777725 0.015198792 -0.0012133347 -0.0017927721 0.0055244463 -0.018956404 0.008127461 0.012210636
0.0049172956 0.0029237345 -0.002807071 0.008742198 0.0044617085 0.0068768198 -0.0069170794 0.019608162
0.011611315 0.0015812591 -0.013778897 -0.07439097 -0.010412518 0.0016047414 -0.00083104125 0.010483377
0.00095731387 -0.014583387 0.0025346652 -0.008431286 -0.010659879 0.012372343 0.00017808072 -0.008640149
-0.0152196605 0.006010558 -0.0070249694 0.0058142245 0.014574869 0.0025114175 0.007562937 -0.009778183
0.0026880966 0.005194214 -0.0047639967 -0.0017287728 -0.0048871883 0.0018456473 -0.00533841 0.0020563568
-0.001717919 0.006251219 -0.0088702375 0.00048312222 0.014085526 0.009088848 -0.0006315047 0.008527822
0.014848924 0.009183551 0.009089752 0.012592543 -0.0034827983 -0.0035028453 0.0043568783 0.0029421207
0.012555568 0.0035923037 -0.010916204 0.008016762 0.01698505 -0.003525608 -0.009484769 0.0005426097
-0.0015949637 0.007874711 -0.0103381 0.0075385217 0.004277018 0.0055431947 -0.00248207 0.0048864004
0.015003108 -0.004941315 0.006128886 0.02033035 0.0047345003 0.0058153463 -0.007290146 0.011818061
0.012444726 0.0050359243 0.0010956996 0.013987743 -0.012712078 -0.007162877 -0.0025056095 -0.0033409249
0.009494917 -0.008584585 -0.0037617185 0.0017806583 -0.002403906 -0.0042314143 0.0082845045 -0.0044610794
-0.0028901526 0.014958238 -0.0074556884 0.005238072 0.0014316508 0.0036849973 0.0014427587 0.0072873454
-0.01223382 0.0033775198 -0.010837771 -0.0049380013 0.0092536835 -0.0085991 -0.015058183 0.017245602
0.0011915022 -0.0028567652 0.0017949743 -0.004941615 -0.0037997426 0.006410122 0.0008047615 -0.006404977
-0.0008875348 0.008649668 0.0034488952 -0.010652556 -0.027859064 0.014949988 0.011615574 0.008071277
0.009186651 0.02800553 -0.0030747296 -0.01610123 0.005679018 0.002202377 -0.009757307 -8.063367e-05
0.013134058 0.008144073 -0.007530141 -0.012744941 0.00043834856 0.001717797 0.006126846 -0.013977276
-0.020900698 0.008280782 -0.007138863 -0.006763226 -0.0019877257 0.011889946 0.00784618 0.0064108986
0.003878849 -0.008698764 -0.007086165 0.0013916588 -0.0010569682 -0.002852577 -0.004962571 0.0021125914
-0.015509628 0.005861039 0.0002931956 0.009937753 0.011545838 0.002427356 -0.0063532824 0.0022070715
-0.004876786 0.0019443731 0.0012862785 0.010746248 0.009420334 -0.0064300667 -0.006591856 -0.01188919
-0.0025173419 -0.0027984155 -0.0068821004 0.007472411 -0.021035068 -0.009960709 0.017252529 -0.0001225697
0.011002716 -0.009946055 0.023838438 -0.009062705 0.004533118 -0.007416999 0.015607671 0.009423988
-0.019704973 -0.013078085 0.0095478445 0.012823203 -0.0044902386 0.004177198 0.0022694943 0.006814351
-0.010939243 0.011300985 -0.0028239982 -0.005788694 0.0009251223 0.004989091 0.011894927 0.005761428
0.0031257777 -0.030131564 0.0040012645 -0.015909094 -0.0011353483 -0.0073550795 -0.0026664087 -0.0034980748
-0.08760512 0.037571188 -0.020801838 -0.013136949 0.00564318 -0.012586837 0.0065541547 2.51412e-05
0.021622112 0.011173826 -0.005179721 0.019216754 0.0056920694 0.019343097 -0.011273496 0.03877612
00000000: 799b d43b ec81 dcba 7a2c 31bc c25f 253c
00000010: 7557 5bbb 870a 3ebb 270e 303c 2db9 543c
00000020: 6a0f 793a 7357 41bb 4528 2e3c e16b ddbc
00000030: 3f47 353a 8021 b5bb 4b0c 613c 5fd3 26bc
00000040: 68c6 38bc 5b04 793c c208 9fba 73fb eaba
00000050: 6a06 b53b 764a 9bbc 0b29 053c 1f0f 483c
00000060: 4421 a13b 209c 3f3b d6f6 37bb 703b 0f3c
00000070: 8633 923b f256 e13b aba8 e2bb 4ca1 a03c
00000080: 633d 3e3c 4042 cf3a e2c0 61bc 4b5a 98bd
00000090: 4499 2abc 3056 d23a 3cda 59ba 78c2 2b3c
000000a0: 3ff4 7a3a 29ef 6ebc a01c 263b 6023 0abc
000000b0: c6a6 2ebc 5eb5 4a3c 2ebb 3a39 698f 0dbc
000000c0: e25b 79bc 37f4 c43b b731 e6bb 4085 be3b
000000d0: 6ecb 6e3c 9896 243b 84d2 f73b ac34 20bc
000000e0: c72a 303b 3a34 aa3b 4d1b 9cbb fd97 e2ba
000000f0: b524 a0bb a6e9 f13a d4ed aebb f1c3 063b
00000100: cc2b e1ba 07d7 cc3b 7954 11bc 914b fd39
00000110: fac6 663c 64e9 143c 908b 25ba 47b8 0b3c
00000120: e748 733c 9b76 163c 2fed 143c f450 4e3c
00000130: a93f 64bb fe8f 65bb 25c4 8e3b 98d0 403b
00000140: deb5 4d3c db6c 6b3b e1d9 32bc bd58 033c
00000150: 3b24 8b3c e30d 67bb 0166 1bbc ec3d 0e3a
00000160: 1a0e d1ba ef04 013c 2261 29bc b405 f73b
00000170: 3a26 8c3b b0a3 b53b 39aa 22bb 191e a03b
00000180: 99cf 753c c1ea a1bb d2d4 c83b d68b a63c
00000190: de23 9b3b a98e be3b 2de2 eebb 8aa0 413c
000001a0: f7e4 4b3c 6504 a53b 949d 8f3a d92c 653c
000001b0: 5246 50bc 91b6 eabb 2735 24bb 6bf3 5abb
000001c0: 9190 1b3c 5ca6 0cbc 2a87 76bb fa64 e93a
000001d0: da8a 1dbb ada7 8abb bbbb 073c 3f2e 92bb
000001e0: b768 3dbb 6613 753c d94e f4bb 22a4 ab3b
000001f0: 3ba6 bb3a ff7f 713b f31a bd3a afca ee3b
00000200: 5c70 48bc 6159 5d3b e890 31bc f5ce a1bb
00000210: c39c 173c 3de3 0cbc 99b6 76bc a646 8d3c
00000220: 2e2c 9c3a 9138 3bbb 5845 eb3a 45ed a1bb
00000230: 1a05 79bb 000c d23b a1f6 523a d7e0 d1bb
00000240: 74a9 68ba 56b7 0d3c dc06 623b 0f88 2ebc
00000250: b138 e4bc cbf0 743c 404f 3e3c 643d 043c
00000260: 9b83 163c da6b e53c 6781 49bb bae6 83bc
00000270: 0e17 ba3b c155 103b 1ddd 1fbc df19 a9b8
00000280: 3b30 573c b86e 053c 67bf f6bb 28d0 50bc
00000290: 26d2 e539 b427 e13a b6c3 c83b f200 65bc
000002a0: f137 abbc 1eac 073c 20ed e9bb 0d9e ddbb
000002b0: 8144 02bb 0cce 423c 448d 003c 8412 d23b
000002c0: 4a34 7e3b 4385 0ebc 0f33 e8bb 5268 b63a
000002d0: f889 8aba 4df2 3abb 109d a2bb 6773 0a3b
000002e0: 181c 7ebc f50d c03b 0cb8 9939 f5d1 223c
000002f0: c12a 3d3c 4714 1f3b 322f d0bb 84a4 103b
00000300: 72cd 9fbb 56da fe3a 5898 a83a 0811 303c
00000310: bf57 1a3c 4fb3 d2bb 7f00 d8bb e1ca 42bc
00000320: fdf9 24bb 9f65 37bb 3e83 e1bb 20db f43b
00000330: bc51 acbc 3e32 23bc 2d55 8d3c 0e86 00b9
00000340: bc44 343c c7f4 22bc d448 c33c bd7b 14bc
00000350: 8d8a 943b 4c0a f3bb 51b7 7f3c 1267 1a3c
00000360: 536c a1bc 7745 56bc 906e 1c3c 6918 523c
00000370: da22 93bb e0e0 883b ccbb 143b eb4a df3b
00000380: 833a 33bc c427 393c d412 39bb 16af bdbb
00000390: e883 723a 877b a33b f1e2 423c 5cca bc3b
000003a0: d9d9 4c3b 78d6 f6bc 0a1d 833b ca53 82bc
000003b0: f8cf 94ba e102 f1bb eabe 2ebb f53f 65bb
000003c0: 506a b3bd 3fe4 193d 9e68 aabc 5c3c 57bc
000003d0: 6dea b83b 0539 4ebc 3cc4 d63b 51e6 d237
000003e0: db20 b13c 6c12 373c a6ba a9bb 746c 9d3c
000003f0: 8a84 ba3b 6a75 9e3c 78b4 38bc b5d3 1e3d
